models/AnnaSoftCNN/decoder_weigths.pth (torch, 978695 bytes, 10 tensors)

cnn.0.weight f4 [512, 64, 2, 2]
000000 ab c6 35 bd a5 3b 94 3d 24 b6 a2 3d 93 30 05 3b
       -0.044378918 0.07237939 0.07944897 0.0020323142
000010 75 ee a2 3c 6b 62 bf bc 1a dd e5 bc a7 72 2f bd
       0.019889096 -0.023362359 -0.028059531 -0.04283395
000020 da 2a 01 bd cd 81 6f 3d 36 18 5e 3d 7a 18 5e bd
       -0.031535007 0.058473397 0.054222308 -0.05422256
000030 cd 8c dc 3c cd 33 b1 bd 65 d3 60 bc 16 7a 52 3d
       0.026922608 -0.08652458 -0.013722275 0.05138596
000040 f5 f4 cc 3c 0a e3 8b bd 5b ba 27 bd 78 20 67 3c
       0.025019148 -0.06830414 -0.040949207 0.014106862
000050 2c df c9 bd ee 69 9a 3b e4 52 02 bd 38 0a 23 bd
       -0.0985702 0.004712335 -0.031817332 -0.039804667
000060 30 b2 f7 bc 34 af 98 3d a0 8d 35 3d f9 e5 9e 3c
       -0.030236334 0.07455292 0.044324517 0.019396769
000070 66 0f 49 bc b8 82 f6 3d f3 5c 04 bc 4c cb fb bc
       -0.012271738 0.120366514 -0.008078801 -0.030736588
000080 c0 b4 cc bc 6e 88 91 bd 4a 4d a7 bb 29 6f f0 3c
       -0.024988532 -0.071061 -0.005105649 0.02934988
000090 7b c4 37 3d 1d f0 9f bc a5 81 48 3c 49 a1 37 3d
       0.044865113 -0.019523675 0.012237941 0.044831548
0000a0 11 2f 71 be a7 b9 91 bb 15 04 8c bd 8e 43 af bb
       -0.2355311 -0.0044471803 -0.06836716 -0.0053486293
0000b0 7e 26 d3 3d 2f 59 2a be 07 c8 bd 3c 18 11 5a bb
       0.10310076 -0.16635583 0.02316667 -0.0033274349
0000c0 85 0a 44 bd 7d 45 67 bd 41 c3 15 be 6d 96 e3 3c
       -0.047861595 -0.056462754 -0.14625265 0.02778169
0000d0 8c 68 66 bd 95 d9 85 bc 63 22 41 bd 95 a1 22 3d
       -0.056252047 -0.016339103 -0.047151934 0.039704878
0000e0 b0 2f b9 bd e2 50 f8 bd c8 00 1f bd d5 53 98 3c
       -0.09042299 -0.12124802 -0.038819104 0.018594662
0000f0 54 57 7c 3d e9 94 b8 bd 9c 19 9c bd 6c 62 98 3a
       0.06160672 -0.09012777 -0.07622072 0.0011626012
000100 9b 72 ca 3d 03 1d 88 3c 5c e1 2f 3d ca 08 96 bd
       0.098851405 0.016615396 0.04293953 -0.07325895
000110 2c 19 01 bd 9f 2a e5 3d 7b 37 2c 3d f5 78 ad 3c
       -0.031518146 0.1118977 0.042045098 0.02117584
000120 60 de 84 bd a2 26 8c bd 4d 5c 1a 3c 92 de 82 bc
       -0.06487727 -0.06843306 0.00942142 -0.01597527
000130 77 9b b8 3d 3b e6 06 bd 31 7e 91 bc de ae b9 39
       0.090140276 -0.03293441 -0.017760368 0.00035416236
000140 4b d0 01 3d 54 42 e1 3c 77 17 60 bd 2b 08 8f 3d
       0.031692784 0.027497448 -0.054709878 0.0698398
000150 a9 07 d7 3c a6 38 09 bd d2 83 4a bd 24 9b 05 bd
       0.02624877 -0.03350129 -0.04944212 -0.032618657
000160 6a 5b 9f bb 96 4e 6c bd 13 e0 da bc 4a 71 a7 3d
       -0.0048631923 -0.057692133 -0.026718175 0.08175905
000170 17 61 10 bd 0d c6 9e 3c c7 68 92 3d 13 04 a6 3c
       -0.035248842 0.019381547 0.07148891 0.020265615
000180 3a 24 5b 3d c2 4b db bd 36 73 85 3d 44 ca a6 bd
       0.053501345 -0.10707809 0.06516115 -0.08144048
000190 86 0b 30 bc 6b 1d f4 bc 0a 4e 6c bd 3f ec c0 3c
       -0.010744935 -0.029799184 -0.05769161 0.02355015
0001a0 0b a2 b4 bc fa 70 3e bd 7b 52 b9 3b 3a 27 27 3c
       -0.022049924 -0.04649446 0.0056555844 0.010202223
0001b0 74 59 8b 3d 32 ee 33 3c b5 46 84 3d 1c 82 03 be
       0.06804171 0.010982083 0.06458799 -0.12842602
0001c0 90 05 80 3c f4 cc 74 bd 87 f5 a0 3d 9c 7b 26 3d
       0.015627652 -0.05976577 0.078593306 0.040645227
0001d0 d2 d5 16 bd 1f f6 c6 bd 48 05 4d 3d 1f f8 bd 3d
       -0.03682501 -0.097149126 0.050053865 0.09275841
0001e0 79 17 7e 3d cd 3b bc bd 96 46 33 3e c0 f4 ba 3c
       0.062034104 -0.091910936 0.17507395 0.022821784
0001f0 3a 80 03 3b db 6e ef 3b 5e 2c b4 bc a3 0f cf bc
       0.0020065443 0.007306916 -0.021993812 -0.02527601
000200 1c cf 97 bc 85 eb 03 bd bc 28 7a 3d 7e cb 99 bd
       -0.018531375 -0.03220703 0.061074004 -0.07509516
000210 39 52 4d 3d 43 66 8d 3c 1b 88 f2 bd b8 97 65 bb
       0.05012724 0.017260676 -0.11842366 -0.0035033058
000220 86 12 4c bd 9c f4 58 bd 97 f7 c8 bc b4 84 8d 3c
       -0.049822353 -0.052967653 -0.024532123 0.017275192
000230 ed fb e6 3c 2a 8a 94 bc 63 d8 f0 bc 58 d5 c6 bc
       0.0281963 -0.018132288 -0.029400056 -0.024271652
000240 88 6d 27 bd fe b1 81 bd b6 ab 86 bd 28 04 8d 3c
       -0.04087594 -0.063327774 -0.0657572 0.017213896
000250 de 27 65 bc c3 6c d1 3b 8a bd 30 3d b6 53 d9 bc
       -0.013986556 0.0063911392 0.04314951 -0.026529174
000260 06 1b 9d 3d f4 0b 49 bd 17 3c 44 bd d4 62 57 bd
       0.0767117 -0.049083665 -0.04790887 -0.052584484
000270 62 17 24 be 6b e2 52 bc 9b 47 e2 bd 04 a9 01 3e
       -0.16024545 -0.012871365 -0.11048814 0.1266213
000280 e1 33 8b bd 04 ff 77 bd 76 5f fb bb 11 e7 80 bd
       -0.067970045 -0.060545936 -0.007671292 -0.062940724
000290 bd 06 6c 3d 83 0e 1a bc 00 46 e8 3d 34 db 24 3d
       0.057623614 -0.009402874 0.113414764 0.04024811
0002a0 7a d3 60 3c a6 01 d6 3b 97 2e ef 3c 15 b1 01 3d
       0.013722295 0.006530958 0.02919702 0.03166302
0002b0 ac f5 69 bd 9b f3 eb bc 3b bf 18 bd 38 76 11 3d
       -0.057119057 -0.028802684 -0.037291747 0.035513133
0002c0 65 01 c7 3d 43 94 98 3d 65 97 c1 bd 41 36 f3 bc
       0.09717063 0.07450154 -0.09452704 -0.029688956
0002d0 63 20 c4 3c d5 72 62 bd 15 0f c0 3c 9b b2 9e 3d
       0.023941224 -0.055285294 0.023444692 0.0774891
0002e0 43 cf 6c bd 65 fc 6b bd 9e 1f f1 bc db 20 8e bd
       -0.057814848 -0.05761375 -0.029434022 -0.069398604
0002f0 58 76 1a 3e 11 2a f7 3c 05 91 88 3d cb fb a1 bb
       0.15084207 0.030171426 0.06668285 -0.004943346
000300 c8 8a 5f bd b0 dd b4 3c c7 37 d7 3d 7c f0 d3 3b
       -0.05457571 0.022078365 0.105086856 0.006467877
000310 06 c9 d5 39 a5 e4 5e bd 93 d0 39 bc 30 b0 29 bd
       0.000407763 -0.05441727 -0.011341232 -0.04142779
000320 e7 72 31 bc c9 db 51 3d b1 9f 55 3d bc 55 17 3d
       -0.0108306175 0.051234994 0.052154247 0.036946997
000330 2e 60 6f bd f9 64 e1 bc 91 5e c5 bb bc d3 a7 bc
       -0.058441333 -0.027513968 -0.006023236 -0.020486705
000340 dd 0d 88 bc 65 40 18 bd 1f 9b fc 3b a1 b3 dd 3c
       -0.016608173 -0.037170786 0.0077089216 0.027063193
000350 4f 98 88 3d 4c 85 87 bd c4 62 6f bd fe 41 9a 3d
       0.066696756 -0.06617221 -0.0584438 0.07532118
000360 2b f8 ce bd 6f e4 a9 3d c3 2f e3 bb 3a e2 a3 bc
       -0.10105928 0.082955234 -0.006933184 -0.020005334
000370 87 d0 09 bd 92 f3 ef 3d 32 a2 2d bb ea 92 54 bd
       -0.033646133 0.11716379 -0.002649438 -0.05189792
000380 1b 4f 25 bd 97 24 61 bc b2 dd 23 3b 0e 51 17 bd
       -0.040358644 -0.013741634 0.0025003967 -0.036942534
000390 0b 57 f7 3c 90 15 1e bd dc 54 04 bc 2f 25 81 3c
       0.030192873 -0.038594782 -0.008076873 0.0157648
0003a0 49 1b 5b bc 17 67 ea bb 8c 4a fb 3c 81 93 1c bd
       -0.0133732045 -0.0071534025 0.030675195 -0.03822661
0003b0 e7 4b e8 3c 8e d0 82 3c ab d7 8b bd 00 8b 8b bd
       0.028356506 0.015968587 -0.06828245 -0.068136215
0003c0 9b 10 3c bd 07 2e 4f bd c8 8e 9d bd 15 1a 91 b9
       -0.045914274 -0.050581004 -0.07693249 -0.00027675988
0003d0 2d c5 2d bd 62 4d ae 3d ba d4 53 3d 8a ac a2 3d
       -0.04242437 0.08510853 0.051716544 0.079430655
0003e0 e9 bd af 3d f9 4f 95 bd 26 b3 c7 bd dd e9 76 bc
       0.08581144 -0.07290644 -0.09750967 -0.015070406
0003f0 d8 3d a1 bb b6 0a e7 3c 0d b5 91 bc c9 1d ad 3d
       -0.0049207024 0.02820335 -0.017786527 0.08452947

cnn.0.bias f4 [64]
000000 96 14 4d 3d 1f ec 3b 3d 2b 7c 19 bb 4c a6 49 bd
       0.05006846 0.04587948 -0.0023419957 -0.04923086
000010 a7 8a 64 3d 4b aa 52 3d 63 69 8b 3d 8a 3b 0f bc
       0.05579629 0.051431935 0.0680721 -0.008742223
000020 10 46 fc 3c 82 46 03 bc 37 b5 90 bc 5a 1e 2c 3d
       0.030795127 -0.008012416 -0.017664535 0.042021133
000030 cf 1e ad bc 22 dc b7 bc c7 13 67 bd d5 c1 83 3d
       -0.021132855 -0.022443835 -0.056415346 0.06433455
000040 9c e7 17 3d b3 8e 45 bc 12 7e cf bd 55 30 82 3c
       0.037086114 -0.012057948 -0.10131468 0.015892187
000050 00 73 8e 3c ce 5e 1c bd 96 c8 ac bd 34 ea 71 bb
       0.01738882 -0.03817635 -0.08436696 -0.0036913278
000060 03 9a fa bc 76 5a 7c 3b 6c 31 3f bc 20 36 7e 3b
       -0.030591017 0.0038506067 -0.011669498 0.0038789585
000070 66 4d d0 bb 25 3c 83 3d 3a 00 33 bd a1 c3 9b 3c
       -0.006356883 0.06407956 -0.043701388 0.019014182
000080 20 84 2d bd a3 bb 5d bd 19 d9 ac 3c cf c7 91 bc
       -0.042362332 -0.054134022 0.021099614 -0.017795471
000090 b4 63 4b bd e9 97 06 3d 7d 9f d3 3c 23 49 06 3d
       -0.04965563 0.032859717 0.025832886 0.032784592
0000a0 22 4c 5c bc aa ca 95 3d 00 47 fc 3b d3 98 7b bd
       -0.013445886 0.07314046 0.0076988935 -0.06142504
0000b0 70 42 3e bd 8c df a4 bd f8 77 18 bd 6b 8a 2d 3b
       -0.04645008 -0.08050451 -0.037223786 0.0026480209
0000c0 6c f0 48 bd d6 91 66 3d 8d c0 5a bd 2f d1 ce 3c
       -0.04905741 0.056291424 -0.053406287 0.02524623
0000d0 13 41 03 bd 71 e1 78 3d 45 c3 ca bb 7d 7e 58 3d
       -0.03204448 0.060761873 -0.0061878287 0.052855004
0000e0 53 49 5b bd 59 5a ac 3c db ac ca bc 91 26 54 bd
       -0.053536724 0.021039175 -0.024740627 -0.051794592
0000f0 a1 42 e6 bb 38 a2 27 3d da 1b 03 bc e0 e8 7d bd
       -0.0070269858 0.04092619 -0.008002246 -0.061989665

cnn.2.weight f4 [64, 64, 3, 3]
000000 17 db c5 bc 7a 09 c3 bc d9 0a 14 be 53 c6 44 bb
       -0.024152322 -0.02380823 -0.14457263 -0.0030025437
000010 3e 5b 68 bd 58 06 b7 bd d4 3d fb 3c 3e f7 ee 3c
       -0.05672764 -0.08936757 0.03066913 0.029170629
000020 52 c3 0b be 43 a7 ba bd c9 78 61 3d 8a 8b 0b bd
       -0.13648728 -0.09113934 0.05504683 -0.03406862
000030 a9 c7 6d bd 82 f9 8e 3c eb bf 10 bd 97 c1 1e bd
       -0.05805174 0.017452959 -0.035339277 -0.03875884
000040 f9 3e 0a 3d 04 53 f1 3d ba 0b 08 3d 8e 82 27 3c
       0.03375146 0.11783412 0.03321431 0.010223998
000050 9b 35 e8 3d 32 51 d4 3c cc b3 1f be 7b 5a a4 3d
       0.113383494 0.025917623 -0.15595931 0.0802507
000060 61 e4 5d 3d c8 90 4d bd f9 c0 34 ba 6d 90 8d 3a
       0.054172877 -0.050186902 -0.000689521 0.0010800489
000070 e9 5f f3 3c f8 4e da bc 1f 57 17 bd ec 29 b2 3c
       0.02970882 -0.026648983 -0.03694832 0.021748506
000080 5f 6c dc 3b 78 f9 66 3d 8c 46 af 3d 10 a3 02 3c
       0.006726786 0.056390256 0.085583776 0.007973447
000090 66 3e a2 3c cd f2 8d bd d5 8a 82 3d f8 6e af 3c
       0.019805145 -0.06931076 0.06374136 0.021415219
0000a0 f4 25 f6 bc f3 6a bd bd 11 bd 1c bd 56 f2 05 3c
       -0.030047394 -0.092489146 -0.038266245 0.008175453
0000b0 01 1e 18 bc 60 4d 1d 3e 03 9c b0 bc 73 db 76 3c
       -0.009284497 0.15361547 -0.021558767 0.015066969
0000c0 35 0b d1 3c 07 51 7a bd c3 73 91 3d 86 39 f3 bc
       0.02551804 -0.06111243 0.07102158 -0.029690515
0000d0 fd 4f b0 bd e2 bf 4f bd 85 6c 31 3c 31 61 40 3d
       -0.086090066 -0.050720103 0.010829096 0.04696769
0000e0 41 32 2b bd e8 9d cf 3c 9f 2d 35 bd 41 a8 3b be
       -0.041795973 0.02534385 -0.04423296 -0.18325903
0000f0 d2 53 2e bd 44 12 82 bd 90 f6 66 bd 2c 9c 93 bc
       -0.042560406 -0.0635114 -0.056387484 -0.018018804
000100 bd 59 89 3b 8e 66 00 3e 4b e1 0f bd 1a 80 9a bd
       0.004191606 0.12539122 -0.035126965 -0.07543965
000110 d2 23 c8 3d 12 ea af b9 37 6c 69 3d 86 9f d6 3d
       0.09772457 -0.00033552997 0.056987967 0.104796454
000120 ca e5 17 3d 96 6a 10 3d bc 22 fc bd ea 62 59 3d
       0.03708438 0.0352579 -0.123113126 0.053072847
000130 e0 aa af 3c 9a 21 1e bc 8a d3 75 3c ac 15 80 3c
       0.021443784 -0.009651566 0.015004048 0.015635334
000140 b9 e9 22 3d 83 db b4 3c 57 8d 14 bd 8c 51 30 be
       0.039773677 0.022077328 -0.036267605 -0.17218608
000150 a8 65 11 bd fb d0 10 bd 40 ed 13 bc e4 82 a8 3c
       -0.035497338 -0.03535555 -0.009028733 0.020570226
000160 5e 3e 2d 3c 76 19 96 bd 06 d3 ab 3d 51 2f 66 bd
       0.0105739515 -0.07329075 0.08389859 -0.05619747
000170 a0 d0 2f bd bf 98 85 3c e8 2f f5 3d cd 0e 47 bd
       -0.04292357 0.016308187 0.11972028 -0.0485981
000180 cc d6 2e 3d 25 96 b9 bd 13 ac f9 bc 66 fc 3b 3c
       0.042685315 -0.09061841 -0.03047756 0.011473751
000190 b3 a7 f6 bc 07 e5 47 bd 01 54 2a bb 40 dc 31 3b
       -0.030109262 -0.048802402 -0.0025990012 0.0027139336
0001a0 ee 17 08 be d4 b5 da bd 92 2c 02 3d f3 6a 6c bd
       -0.13290378 -0.10679212 0.031780787 -0.057719182
0001b0 9e c1 9a bd 3d 0a 41 be 53 aa 45 bd 91 a2 58 bd
       -0.07556461 -0.18851562 -0.048258137 -0.05288941
0001c0 54 9b 8d 3d a0 44 72 bc af b1 21 bd 08 1b af bd
       0.06914392 -0.014786869 -0.039476093 -0.08550078
0001d0 eb 40 6d bd a6 52 15 3d b6 06 5d bd 1f c7 58 bd
       -0.05792324 0.036455773 -0.05396148 -0.05292427
0001e0 27 ac 34 3b 98 74 4b 3d 8b 20 c3 3b bd 33 06 bd
       0.002756843 0.04967174 0.005954807 -0.032764185
0001f0 17 d8 a8 3d 6d dc 91 bd 6e a6 8b 3d 17 83 9b bc
       0.08244341 -0.07122121 0.06818853 -0.018983407
000200 d7 61 17 3d 6e dd c7 3d 28 b0 93 bd b6 26 b6 bc
       0.03695854 0.09759031 -0.072113335 -0.022235256
000210 4a 8e 8e 3c 54 d9 ca bd a3 a5 86 bd 17 69 a2 3d
       0.017401833 -0.09904733 -0.065745614 0.079302005
000220 ba 95 2e bd f9 2e a6 bd b7 bf 10 3d 1f 85 81 3d
       -0.04262326 -0.08114428 0.035339084 0.06324219
000230 f3 95 6d bb d1 f5 79 3d f6 3d 18 3d e4 f5 6a 3c
       -0.0036252707 0.061025444 0.037168466 0.014340851
000240 f7 9a 38 bd da 07 7f 3c 81 18 c1 bd d7 c8 0c 3c
       -0.04506966 0.015565837 -0.09428502 0.008592806
000250 76 6b b6 3c d1 b7 d3 bc 3c 1d d2 bc cb 47 a1 3d
       0.022268038 -0.025844486 -0.025648706 0.078750215
000260 51 93 33 3d 1c 34 92 bd 33 a9 ef bc e9 ed 71 bc
       0.043841664 -0.07138845 -0.029255485 -0.014766195
000270 2e 6e 84 3d c7 52 41 be cd 05 9b bd 06 3f 41 3c
       0.064663276 -0.18879233 -0.07569466 0.011794811
000280 3d 2d 4c bd f1 f3 2c 3c c7 f9 1c 3d 27 38 93 3c
       -0.04984783 0.010556207 0.038324144 0.017971111
000290 58 47 07 bd de c7 b9 3c 2f 32 c4 bd 36 24 1b 3c
       -0.033027023 0.022678312 -0.09579884 0.009469083
0002a0 0c 61 7c 3c a4 f8 88 3d 76 4c 91 3c e4 b0 b8 bc
       0.015403997 0.066880494 0.017736655 -0.022545286
0002b0 d3 0f 21 bd 3a 09 ef bd e4 eb 28 3d 2e 5c 13 3c
       -0.03932173 -0.11671682 0.041240588 0.008994145
0002c0 4a 46 11 bc b7 e6 6a 3d af 31 0e bd ad c2 a2 bd
       -0.008866856 0.057348933 -0.03471535 -0.07947288
0002d0 88 62 a0 bd 0d cf 2f bd b8 eb 81 bd cb 05 e7 3c
       -0.07831293 -0.04292207 -0.06343788 0.028201004
0002e0 bd 18 59 bc ed e0 b0 bd a5 da a0 bb 2e 6e 2a 3c
       -0.013250527 -0.08636651 -0.004908877 0.010402245
0002f0 79 e7 b9 bd fc b8 7d 3d 3f b7 32 3d cb eb 41 3e
       -0.09077353 0.061943993 0.04363179 0.18937604
000300 8b 6b 12 bd fd 89 48 3d f9 7b 26 3e 59 61 3f 3d
       -0.035747092 0.04895972 0.1625823 0.046723697
000310 5b a1 cb 3b 8c 14 6a 3d 6b 13 9a 3d 09 d7 fc bc
       0.0062143034 0.0571485 0.07523235 -0.030864256
000320 e3 06 85 ba 57 ec ea bc 45 73 1e bb 8e 1b 5b bd
       -0.0010149147 -0.028677149 -0.0024177593 -0.053493075
000330 44 dc 2d 3d 73 93 56 3d 98 0b 0f 3d b0 a3 83 bd
       0.04244639 0.052386712 0.034923166 -0.06427705
000340 bd 82 1c bd f3 ae fe bd 50 10 4c bd 8c 89 8b 3c
       -0.03821062 -0.12435713 -0.049820244 0.01703336
000350 3a 24 73 3d a4 ae 9d bb a6 d8 78 3d 73 87 68 bc
       0.05936072 -0.0048120786 0.060753487 -0.01419245
000360 30 21 a4 3c a5 6a 9c bc 55 a9 69 3d d8 f2 0e 3d
       0.020035356 -0.01909382 0.057046253 0.034899563
000370 69 b7 81 3c 57 5d 8d 3c a9 b7 52 bd 58 3f 88 3d
       0.015834527 0.017256422 -0.051444683 0.06652707
000380 00 ea bb 3d af b2 db bd 8d 2a ca bd 25 ee 89 bb
       0.09175491 -0.107274406 -0.09871397 -0.0042092972
000390 a2 bc 36 bb 3f c0 c7 bc e4 5d 53 bd 57 89 29 bb
       -0.002788343 -0.024383662 -0.051603213 -0.0025869214
0003a0 4a b6 bf 3c f4 37 bc 3c 39 d4 e2 3d ee 68 2f bd
       0.023402352 0.0229759 0.110756345 -0.042824678
0003b0 f9 1a 88 bd 75 3d 82 bd 84 b4 a6 bc ba 51 a9 bc
       -0.066457696 -0.06359378 -0.020349748 -0.020668853
0003c0 96 35 82 bd 44 22 06 3d d4 fd 06 3d ce c9 ff 3c
       -0.06357877 0.032747522 0.032956913 0.031224158
0003d0 21 00 95 bd ee 9a 16 bd aa 96 9b 3d 44 d5 07 bc
       -0.07275415 -0.036768846 0.07597096 -0.008290593
0003e0 c5 43 f0 bb 7f 6a 9d bd 77 4e 44 bd 29 96 07 3d
       -0.0073322975 -0.07686328 -0.047926392 0.03310219
0003f0 e4 c6 18 bc 79 cc d9 bb af c2 83 3c 66 19 e6 3c
       -0.009324763 -0.0066466895 0.016084043 0.028088283

cnn.2.bias f4 [64]
000000 0f de 8d bd 8e 6e 3b 3d 12 d5 9d 3b 79 b1 0f 3d
       -0.0692712 0.04575973 0.0048166597 0.03508136
000010 da 1b 9d bd aa 7f 9f 3c c6 94 87 bd 06 0c 5c 3d
       -0.07671328 0.019470055 -0.06620173 0.053722404
000020 ee 3a 46 3d 20 0d ce bd d5 37 6f bd cc 35 a9 bc
       0.048396043 -0.10061097 -0.058402855 -0.020655535
000030 89 70 86 bd 0c f5 67 bb 1f 99 86 3d 7c 5b 36 bd
       -0.06564433 -0.0035393862 0.06572174 -0.04452084
000040 8e cf bb bd 2c 22 61 3d 51 7a 69 bc 86 6d 24 bd
       -0.09170447 0.05496423 -0.014250354 -0.040143512
000050 fa 67 91 bd 6b 64 c4 bd de 19 3b bc 6c 17 95 b9
       -0.0709991 -0.09589466 -0.011419741 -0.00028436945
000060 41 06 e3 3d 69 40 5c bd 11 92 f8 bb 50 fc e0 3c
       0.11085177 -0.053772364 -0.007585772 0.027464062
000070 f0 79 06 bd e4 fb eb 3c 21 e1 88 bd 66 3d 82 bc
       -0.032831132 0.028806634 -0.06683565 -0.015898418
000080 6a f1 f5 3d 63 0c 10 3d 8d 89 9c bc c6 ee 6a bd
       0.12008937 0.035168063 -0.019108558 -0.05735662
000090 43 29 63 3d ff 05 2b 3d 98 14 46 bd 9a 93 0d bd
       0.055459272 0.041753765 -0.048359483 -0.034564592
0000a0 15 7c ef bd 3c f3 5a 3d 0a 39 e3 bd d9 31 1b 3d
       -0.11693589 0.053454623 -0.11094864 0.037889335
0000b0 3b b2 8a bc 0e 74 9f bd 5d 5a 45 3d a2 b9 64 3d
       -0.01693069 -0.077858075 0.04818188 0.055841096
0000c0 9b 7f 52 3d 42 d6 73 bd de 58 c9 bd a5 a3 cc bc
       0.051391225 -0.059530504 -0.09831403 -0.024980376
0000d0 1a c3 39 bd 86 a4 bf bd 31 93 4d bb c2 a5 47 3d
       -0.04535208 -0.09357552 -0.003136825 0.048742063
0000e0 06 2b 02 3e 04 a7 48 bd 07 88 c3 bc 55 05 94 3d
       0.12711725 -0.048987404 -0.023868574 0.072275795
0000f0 05 76 a7 3d 4c 5a 7c bd bd 3b c2 bc 79 69 7f bd
       0.08176807 -0.06160955 -0.023710126 -0.062356446

cnn.4.weight f4 [64, 64, 3, 3]
000000 13 e9 1c ba 79 09 0f 3d 39 5f 75 3d 80 16 6c 3d
       -0.00059856585 0.034921143 0.059905265 0.057638645
000010 31 4e 02 bc 02 6b ab ba 6a 3b a9 ba 75 74 13 3d
       -0.007953213 -0.0013078155 -0.0012911384 0.035999734
000020 e0 b9 c6 3d e9 7c 9c 3d b7 bf 00 be dd 93 b3 bd
       0.097034216 0.07641012 -0.12573133 -0.08768437
000030 24 8f 83 bd f2 76 81 3c 6b 64 0d bc bc 1f a1 bc
       -0.06423786 0.015803788 -0.008629899 -0.019668452
000040 6a 31 0b 3d a3 52 49 3e a1 3b 82 3d c7 17 bd 3d
       0.03398267 0.1966043 0.063590296 0.09233051
000050 b5 22 43 bd 7a 09 90 bd ff 9a b4 bc 02 61 9a bd
       -0.04764052 -0.070330575 -0.022046564 -0.07538034
000060 0f 16 92 bd 15 00 b0 3d 15 48 d5 bd d3 ab 9f 3c
       -0.071331136 0.08593766 -0.10414139 0.019491112
000070 4c c6 15 3c 87 9d 42 3d 0d 32 8e 39 38 54 81 bd
       0.009141516 0.04751351 0.0002712164 -0.063148916
000080 e4 60 e2 bc 6a 02 da bd ce c4 8b bd 8f 19 1f 3d
       -0.027634092 -0.10644992 -0.06824647 0.038842734
000090 dd 1c 49 3d 3b e0 20 3c c7 b7 ef 3d f7 4e 0b bd
       0.04909979 0.009819086 0.117049746 -0.034010854
0000a0 f7 6a ee 3c 1d 0a 19 3e 58 d4 f8 3d 3b 06 f6 3d
       0.02910374 0.14945264 0.12149876 0.12012907
0000b0 9a 29 bb 3c cc e7 b6 3d ce e1 42 3d ba 1e ff bc
       0.022846986 0.089309305 0.047578625 -0.031142581
0000c0 ab 63 6e bd 7f f8 4e 3d 0e 8c 50 3e 90 16 97 3d
       -0.05820052 0.050529953 0.20365927 0.0737735
0000d0 5d 4a 6f bd 33 14 8e 3e d4 8e 88 3d 19 21 73 3c
       -0.058420528 0.27749786 0.06667867 0.014839434
0000e0 1c 2b 4c 3d 4a 39 a3 3b ac ee 0c bc bb ad 92 3d
       0.0498458 0.0049811946 -0.008601826 0.07162043
0000f0 6c b0 44 3c 3a 87 a2 3d 53 14 80 3e 95 43 d8 3d
       0.012004953 0.07935949 0.25015506 0.10559765
000100 b9 1b d5 3c 65 0b 94 3d ed 8f 10 bd 55 9c 78 bb
       0.026014196 0.07228736 -0.03529351 -0.0037934978
000110 cd 15 4d 3d 32 08 91 bc 7e f2 25 bd f0 ea 37 3d
       0.05006962 -0.017704103 -0.04051446 0.04490179
000120 1f 5d 83 bd 30 8f dd bd 6e 6c f0 bc e9 be d3 bd
       -0.06414246 -0.108183265 -0.029348578 -0.103391476
000130 0e 6e 47 bd 6a 1a d7 bd 2a d4 ac bd 9f 4f 02 be
       -0.04868894 -0.10503085 -0.084389046 -0.12725686
000140 c8 1f 1e bd ae 3b 21 3d 6b 4c bb bc b6 f8 9f 3d
       -0.038604528 0.039363556 -0.022863587 0.0781111
000150 74 f0 84 bc 97 e0 be bc d5 5f c2 3c d0 70 93 3c
       -0.016227938 -0.023300452 0.023727337 0.01799813
000160 b1 c6 50 3d 66 a9 10 bd f3 86 18 3d 41 88 32 3d
       0.050970737 -0.0353178 0.037238073 0.043586973
000170 a2 e0 e9 3d 9d e7 b5 3d b2 ee 72 3b f1 9d 5a bc
       0.114197984 0.08882067 0.0037068543 -0.01334332
000180 b0 72 81 bd 9f 7e 88 3b 38 c8 c5 bd 54 4f 18 be
       -0.06320703 0.004165485 -0.09657329 -0.14874011
000190 7c fa ac 3d 36 2f 1d 3c 2f 7e d2 bc 20 b4 11 3d
       0.084462136 0.0095937755 -0.025694935 0.03557217
0001a0 9e 44 8b 3c e2 0b c4 bd 87 d4 2e be 89 23 d3 3d
       0.017000493 -0.09572579 -0.1707326 0.10309512
0001b0 24 27 09 3d 85 84 75 3c e8 53 98 bc 48 d6 03 3d
       0.033484593 0.014985208 -0.018594697 0.032186776
0001c0 dd 49 67 3c 4f 6f 2d bd 64 7d d2 3d 6d 85 31 3d
       0.0141167315 -0.04234248 0.102778226 0.043340135
0001d0 6f e3 c7 3c 81 84 0f 3d 90 cb 22 bd 9b a4 f2 bc
       0.024400441 0.035038475 -0.039744914 -0.029619506
0001e0 d7 33 c3 bd 44 8a 4f bd 30 04 53 bd 81 d5 68 3d
       -0.09531372 -0.05066897 -0.051517665 0.05684424
0001f0 4b ec dc bc e9 bb fb bc 4e fb ee bd 43 ce 80 bd
       -0.026968142 -0.030729251 -0.11669026 -0.06289341
000200 33 db a8 3d f6 eb 32 bd e4 06 27 bc 1e bd 8b bb
       0.08244934 -0.04368206 -0.010194514 -0.004264488
000210 d1 33 29 3d 80 52 85 bd 61 6a c9 be e0 6a 04 be
       0.04130918 -0.06509876 -0.39338973 -0.12931395
000220 a0 c7 88 3d 12 88 95 3d d8 c8 a1 bd 20 f5 ed 3c
       0.066787004 0.07301344 -0.07899636 0.029047549
000230 ed 8d a4 bd c3 cf 51 be 09 fb ad 3d 63 c1 90 3d
       -0.08034883 -0.20489411 0.08495147 0.070681356
000240 78 d4 96 3d 7f d0 6f 3d 27 f9 7a bd 12 c0 a8 3d
       0.07364744 0.058548447 -0.061272766 0.082397595
000250 50 72 80 3d 2f 65 2e bd 16 c4 a3 3b b1 64 af 3d
       0.062718034 -0.042576965 0.0049977405 0.08564127
000260 ea 6a 26 3e df 62 19 bd bf 91 f7 bc 91 a8 4f 3d
       0.16251722 -0.037447806 -0.030220864 0.050697867
000270 0a 82 59 bd 90 63 f6 bc 86 d7 1b 3e c7 a0 2b bd
       -0.05310253 -0.030076772 0.15218934 -0.041901376
000280 b7 e8 ac bb 19 6e 12 3e 53 bd b8 3d 6e 54 c0 3d
       -0.005276765 0.14299811 0.09020486 0.09391104
000290 87 1a 8e 3d 13 6d 27 bc 4c ab 7d 3c f7 26 8e 3d
       0.069386534 -0.010218876 0.015482735 0.06941026
0002a0 dd f8 a2 3c 06 0c e5 3c 2f b5 37 3e 74 ab db 3c
       0.019894058 0.027959835 0.1794021 0.026815154
0002b0 09 51 ae bc f7 db 3e bd ef d9 f0 bb 89 63 9c bc
       -0.021278875 -0.046596494 -0.0073501985 -0.01909043
0002c0 87 5c a9 bd a7 6c 3c bd e4 b2 ea bc 5c 4b 16 3d
       -0.08269601 -0.046002056 -0.028649755 0.036692962
0002d0 d8 97 7f bd 0a 64 0e bd f9 51 b2 bd 7e 20 9f 3c
       -0.06240067 -0.034763373 -0.08707041 0.019424673
0002e0 8e 61 24 3a 54 2f 7c 3d da 74 4c 3d 42 1f 5b 3d
       0.00062706403 0.061568573 0.049916126 0.053496607
0002f0 48 c8 4f 3d 55 72 f4 3d 43 42 ea 3c 4e 9c 02 3e
       0.050728112 0.119358696 0.02859605 0.12754938
000300 ef ca a5 3d 97 b1 17 bd 42 2c 02 3e a9 03 fa 3c
       0.08095347 -0.037034597 0.12712196 0.030519323
000310 77 26 c4 bc 4e b5 f7 3d c6 fa a8 3c b8 cd 0c 3d
       -0.023944123 0.12095128 0.02062739 0.034375876
000320 9a 4c b0 3d b6 1e 49 bc 1c b3 42 bd 85 18 17 bc
       0.086083606 -0.012275388 -0.047534093 -0.0092221545
000330 0c f9 9f 3b 14 98 94 3d 4c 91 53 3d d0 06 1d 3e
       0.0048819836 0.07255569 0.051652238 0.1533463
000340 80 61 c4 3b 73 80 7f bd 80 ba 1c 3d 70 02 6a bd
       0.005993068 -0.062378358 0.038263798 -0.05713123
000350 fd 11 5a 3d b7 02 1e be d6 25 7c 3b 42 21 2e be
       0.05323981 -0.15430723 0.00384747 -0.17004874
000360 92 52 e7 3d 1f 48 06 3e bd 85 a5 3d 54 fa 74 ba
       0.11295046 0.1311345 0.08082149 -0.0009345163
000370 ad cb 7a bd 20 23 a9 3c 3f 92 6b 3d df 15 4c 3c
       -0.061229397 0.020646632 0.057512518 0.012456386
000380 50 c0 f1 3d 19 5d 38 be 03 3f 08 3d 6a b5 b8 bc
       0.11804259 -0.18004264 0.033263218 -0.022547442
000390 54 70 83 3d e9 26 a7 3d 22 45 d6 3d 7d bc 5e 3d
       0.06417909 0.081617184 0.10462405 0.054378975
0003a0 1e 5a a9 3d 44 5d f5 3d f7 32 e9 3b a6 b2 b5 3b
       0.082691416 0.1198068 0.007116671 0.005544978
0003b0 9e 88 ca 3c cb ee 24 bc 48 10 40 3d e1 c2 d7 bc
       0.024723347 -0.010066698 0.046890527 -0.026338043
0003c0 b3 f5 f9 3c 94 cd f1 3c 46 ac 72 3c fe 8a b1 3b
       0.030512666 0.029516973 0.014811581 0.0054181805
0003d0 a1 c2 8c bd 40 53 6b be 74 c7 c7 bb 5f 31 a2 bd
       -0.0687306 -0.22980976 -0.0060967747 -0.07919573
0003e0 3c 7d da bd 5e 84 f6 bc cf dc de bd 0e 80 9f bd
       -0.10668418 -0.030092414 -0.1088196 -0.07788096
0003f0 c1 d1 9d 3d 21 1b de 3d f0 c6 25 3e d8 ca e5 3d
       0.07706023 0.10845018 0.1618917 0.1122033

cnn.4.bias f4 [64]
000000 a2 d2 79 bd 51 6b a3 bd c2 ae 0e 3e 83 67 14 3d
       -0.06099189 -0.07979453 0.13933852 0.03623153
000010 c2 f2 48 be 07 e7 f7 bd 9d 34 3c be e4 78 80 bd
       -0.19623855 -0.12104612 -0.18379445 -0.06273058
000020 18 d6 d9 3d e6 5e b5 3c 99 e6 99 bd 26 06 17 3e
       0.10636538 0.022139978 -0.07514686 0.14748439
000030 b5 83 47 bd 9c f1 46 3c ff a2 91 bd 30 75 1c 3e
       -0.04870959 0.012142565 -0.07111167 0.15279078
000040 60 19 d5 bc 10 dc d9 3d 9a 22 09 be 59 36 ed 3c
       -0.026013076 0.10637677 -0.13392106 0.028956579
000050 1c 2e e0 3c 42 81 11 be a6 79 b9 3c e1 1f 20 3d
       0.027365737 -0.14209464 0.022641014 0.039092902
000060 2e 2f 16 be 83 1f 16 bb 2c eb 90 bd fa 9a 7f 3e
       -0.14666435 -0.0022906966 -0.070761055 0.24961463
000070 ea aa e4 bd c9 c5 cb 3d 27 9c e2 bc 6c c6 9d bd
       -0.11165412 0.09949834 -0.02766235 -0.077038616
000080 00 f7 f1 3d f9 1f 13 bc 9b 5f 3f be ca 54 f0 bd
       0.1181469 -0.008979791 -0.18688814 -0.11734922
000090 d5 7a a2 bd 84 2a 38 be 57 f1 bb 3d 52 a7 2f be
       -0.079335846 -0.17984968 0.09176891 -0.17153671
0000a0 35 0a f2 bc e3 82 cd bd 7c 0a 01 3e 49 3a 74 3d
       -0.029545883 -0.1003473 0.12601656 0.059625898
0000b0 49 c7 92 3b 52 3a 10 bc 1e cb 23 be ad 1b 3b 3d
       0.004479323 -0.008802967 -0.15995452 0.04568069
0000c0 e6 90 39 3b f6 4c 2b 3e 97 d1 de bd 3e 3a d8 bc
       0.0028315126 0.16728577 -0.1087982 -0.02639496
0000d0 12 ed 1a be de 29 fb bd 60 2c ed bd 50 04 a6 bc
       -0.15129498 -0.12263845 -0.115807295 -0.020265728
0000e0 24 d4 a7 bd 19 d6 2d bc 04 bf 83 bd d7 e4 13 bd
       -0.081947595 -0.010610127 -0.06432918 -0.03610691
0000f0 f4 a5 9f 3d de 0b 94 3d 1a 88 2d 3e 5f 4a 92 3e
       0.07795325 0.07228826 0.1694645 0.28572366

cnn.6.weight f4 [64, 32, 4, 4]
000000 3a 88 d4 3c 48 2e 11 bd 18 7e cd bd 8b 79 0f be
       0.025943864 -0.035444528 -0.10033816 -0.14011209
000010 b8 d9 5a 3d ef aa 16 be 38 53 a4 bd a1 1c 5e be
       0.05343029 -0.14713643 -0.08023685 -0.21690609
000020 94 47 22 3d bb d6 6d 3d ca 77 32 3e ab b9 20 3e
       0.039619043 0.05806611 0.17428508 0.15695827
000030 ad 39 91 bb e9 eb 23 3d 9c ee 10 3d 85 8d b4 bc
       -0.0044319243 0.040019903 0.035383806 -0.022040138
000040 0f e1 d8 3c a9 85 b7 3b 86 63 3e 3c 32 32 bc 3d
       0.026474504 0.0056006503 0.011620408 0.091892615
000050 c4 37 94 3d 58 80 9e 3d aa 32 ce bd 5f 5a b3 3d
       0.07237199 0.077393234 -0.10068257 0.08757471
000060 2d 86 d2 3d 7f 74 2a 3e e0 c8 b1 3c f7 e8 ea 3c
       0.10279498 0.16646002 0.02170223 0.02867554
000070 6f 3c 18 bb 81 b0 93 3d 11 c5 81 3d 56 ee 2c 3d
       -0.002322938 0.072114 0.063364156 0.042219482
000080 14 f4 16 3d 34 ef 85 3b 15 b2 3e bc 1c 56 db 3c
       0.036853865 0.004087353 -0.011639138 0.026774459
000090 3b 98 3b 3d 7f 35 b4 be b7 ac 63 be 01 bb 85 be
       0.045799475 -0.35197064 -0.22233854 -0.26119235
0000a0 de 6d 29 3d 09 2c 13 bd 27 ae ad 3e 90 f8 c8 3d
       0.041364543 -0.035930667 0.3392193 0.098130345
0000b0 d1 5b 96 3b 88 30 ef 3c c1 78 82 3b 28 1c ab bc
       0.004588582 0.029197946 0.00398168 -0.02088745
0000c0 f4 34 91 bb 5c fd 8a 3d 8f 16 10 3d a3 6e 07 3d
       -0.0044313613 0.06786606 0.035177764 0.033064496
0000d0 b4 1b fb 3c 80 1f 01 3d 2f ed 03 bd 4b e9 75 3d
       0.030652858 0.03152418 -0.032208618 0.06003694
0000e0 01 1a 15 3d f0 20 05 3e 2c 8e 10 3d e7 0a fc 3d
       0.036401752 0.13000846 0.035291836 0.12306767
0000f0 b7 e2 82 bd 1b f6 8c 3c d1 f8 b4 3b 9d 3c ec 3c
       -0.06390899 0.017207196 0.0055228253 0.028837496
000100 5e 90 25 bd 37 33 17 3d 16 0a f7 3c 07 80 60 3c
       -0.040420882 0.036914077 0.030156177 0.013702399
000110 05 35 17 bd 18 3f fc 3c 08 e9 de bd 0c 66 3c be
       -0.036915798 0.030791804 -0.10884291 -0.18398303
000120 83 30 a8 bc eb 5f b5 3d 3d ce 7f 3c a3 41 0d bd
       -0.020530945 0.088561855 0.015613136 -0.034486424
000130 38 00 9f bc c1 bf 23 3c 06 66 38 3d ba 2e 2a 3d
       -0.019409284 0.009994448 0.045019172 0.04154847
000140 8b 70 d3 bb af c8 0e be 39 78 2f be a5 db fe be
       -0.006452625 -0.13943742 -0.17135705 -0.4977695
000150 76 ff 00 3e a1 73 d1 bc 1e 40 cf 3d e9 8f 78 3b
       0.1259745 -0.025567831 0.10119651 0.0037927574
000160 60 d3 3b 3d 4c 3d 35 3d dd aa c8 3d f4 61 b0 3c
       0.04585588 0.04424791 0.097982146 0.021531083
000170 65 73 e2 3c 74 d1 84 bd 83 70 8a 3d cd bd 99 3c
       0.027642915 -0.064852625 0.06759741 0.018767262
000180 52 e5 7d bd 24 f7 ad 3c f6 b6 7f 3d 02 fc 19 bd
       -0.061986275 0.02123601 0.062430345 -0.03759385
000190 f7 5f e5 bd 60 4b 40 bd f4 05 5d bc 56 ab cb bd
       -0.111999445 -0.046946883 -0.013490189 -0.09944789
0001a0 2e ba 8c 3c e2 57 40 3d 9c 17 9a 3d 03 c5 74 3e
       0.017178621 0.04695881 0.075240344 0.23903279
0001b0 6b 0e d7 bd f3 1d d3 bc 8b 4f 50 bc f7 28 16 3d
       -0.10500797 -0.025771117 -0.012714277 0.03666016
0001c0 ff a0 bb bc 93 c8 5f 3d 93 0b 7d bd 8d 5a e2 bc
       -0.022903917 0.05463464 -0.061778616 -0.027631069
0001d0 a2 49 b6 bc 7f c5 b3 3d 7d 1e fd bd 2a 5a b0 bd
       -0.022251908 0.08777904 -0.12359331 -0.086109474
0001e0 13 02 85 bb a7 6c b7 3d 71 b1 3d 3d bb 20 a2 3c
       -0.004059085 0.08956271 0.0463118 0.019790998
0001f0 9b cc 03 bd a6 1b 2e 3b 60 8c 22 3d 86 e1 bf 3c
       -0.03217755 0.0026566773 0.039684653 0.023422968
000200 42 25 3f be 01 65 5a 3d 38 06 83 bd a7 5d cb 3c
       -0.18666556 0.05331898 -0.063976705 0.02482493
000210 4b 42 0d 3d 68 32 74 bd 35 cc 92 bd b8 7e 81 3c
       0.03448705 -0.059618384 -0.07167856 0.015807495
000220 dc fd c7 bd ea fa 85 3c 51 cc 31 be 2f 9a 2a bc
       -0.09765217 0.016354997 -0.17363097 -0.010412737
000230 f2 3f b1 3c 32 05 86 3d f3 33 8b bc f7 e7 01 3d
       0.021636937 0.0654396 -0.016992545 0.03171536
000240 d5 d3 7b bc 1a e0 5f bd be 24 14 be d0 d0 de bd
       -0.015370329 -0.05465708 -0.14467141 -0.108796716
000250 e0 de 88 3d 5f 55 00 be 3d 06 ba be a2 f7 52 be
       0.06683135 -0.12532566 -0.36332884 -0.20602277
000260 13 51 9f 3d b0 63 47 bd 46 e5 69 bd b8 17 08 be
       0.077791356 -0.048679054 -0.057103418 -0.13290298
000270 d1 e6 26 3d 98 29 30 3d 96 29 cc bc 2f 60 bc bc
       0.040747467 0.043008417 -0.024922173 -0.022995083
000280 b8 36 3f 39 6a 9b 35 3d 83 f5 d5 3c 69 3f 57 bc
       0.00018235564 0.044337668 0.026118046 -0.013137677
000290 25 7c 66 bd bd d8 e0 3d a7 36 7f 3d 5c 16 a7 3d
       -0.056270737 0.109788395 0.06230798 0.081585616
0002a0 23 3d 2b bc 5a 63 cc 3d bd 5f ec 3c 97 93 19 3e
       -0.010451588 0.09979887 0.028854245 0.14997707
0002b0 89 b7 54 bb 9f 2b 18 3d 4e 8a d6 3b cd ad a3 bb
       -0.0032458028 0.037150975 0.006547249 -0.004995084
0002c0 6b fa b0 3d 7b 8f 43 be 06 22 04 be 80 a3 a8 3d
       0.086415134 -0.19097702 -0.12903604 0.0823431
0002d0 5b f4 81 bb 6f 9a 01 bd 31 95 58 be c3 ed 92 bd
       -0.003965897 -0.03164142 -0.21150662 -0.07174256
0002e0 12 7b 9c 3c 2d d3 21 bd 3e f2 f3 3c 7b aa af bd
       0.019101653 -0.039508034 0.029778596 -0.085774384
0002f0 8d c0 28 3e 53 94 01 be 33 bd 88 3d 4e 42 ea bd
       0.16479702 -0.12654237 0.06676712 -0.11438428
000300 7e ca a7 bd 5e d4 0b bc 91 ce 27 be a7 a8 11 bd
       -0.08192919 -0.008534519 -0.16387393 -0.03556123
000310 62 36 62 bd 44 77 14 bd 89 76 95 be 56 e9 6f bb
       -0.055227645 -0.036246553 -0.29191998 -0.0036607585
000320 ee 95 31 bd 82 7b 17 3d 8c 33 af bd ce 8d 5c 3d
       -0.043355875 0.03698302 -0.08554754 0.053846173
000330 43 51 61 bc d5 3e 1c 3d e8 b6 08 bb cd 31 17 bd
       -0.013752284 0.03814586 -0.0020860974 -0.036912728
000340 18 2b ae 3b f8 9a 8a 3c b7 10 47 be ef 0d 40 bd
       0.005315196 0.016919598 -0.1943997 -0.046888288
000350 a9 e4 0b 3d 9f d2 ca 3d 71 3d 02 be b5 0d a0 bd
       0.034153614 0.09903454 -0.1271875 -0.078151144
000360 68 e2 b9 bd 7e 3e a8 3d a7 53 5d 3e bb 74 85 3d
       -0.09076387 0.082150444 0.21613942 0.06516405
000370 08 a1 99 bd fe 1c b0 bc 65 e8 83 3d 70 61 86 3d
       -0.075014174 -0.0214982 0.0644081 0.065615535
000380 55 94 fa 3c 98 d8 9b be a6 5d 90 be 70 c5 6c be
       0.030588308 -0.30438685 -0.28196448 -0.23122191
000390 94 21 8a 3c 19 44 41 be 89 14 ae be 69 3f 4d be
       0.016861714 -0.18873633 -0.34000042 -0.2004372
0003a0 e6 19 90 3d 86 53 e8 bd 35 cb 81 be 2b 9a 4a be
       0.0703619 -0.11344056 -0.25350347 -0.19785373
0003b0 de 09 05 3d e4 37 d0 bc be 2a 30 b9 40 1f f6 3b
       0.032480113 -0.025417276 -0.0001680059 0.0075110495
0003c0 8d f3 17 3d 48 0c e6 bc 2f e6 e3 bd 62 4d fc bd
       0.037097502 -0.028082028 -0.111278884 -0.12319447
0003d0 d1 ee 4e 3d 46 c3 aa bc b1 e7 5c be 1c 12 52 bd
       0.05052072 -0.020845067 -0.21572758 -0.0512868
0003e0 e1 3c c2 3c 4a d7 38 bd 9a a3 0e 3c 9e 91 b8 3c
       0.02371067 -0.04512719 0.008705998 0.022530373
0003f0 84 ed 1f 3d 2f f9 b0 3d 39 48 e3 ba 2e 09 54 3c
       0.039044872 0.08641278 -0.001734025 0.012941642

cnn.6.bias f4 [32]
000000 0a 95 b7 bc a3 81 a8 3e 8d 5d bc be c1 e7 b0 3e
       -0.022409935 0.32911405 -0.36790124 0.34551814
000010 96 bb 34 be 1b be ab be 14 0c 30 bf 2e 0a fe bd
       -0.17649683 -0.33543476 -0.6876843 -0.12404285
000020 9e 8e f0 3c 42 df ef 3d 33 65 f3 bd 35 dd 2f be
       0.02936488 0.11712505 -0.118845366 -0.17174228
000030 2b 9b a0 bd 43 6a a0 3d 60 c5 4c be 89 df 5a bd
       -0.07842096 0.07832768 -0.19997168 -0.053435836
000040 6f 11 bf bd ef e1 7c be 26 a4 c6 3d 5f aa 64 bd
       -0.09329497 -0.24695562 0.096992776 -0.05582654
000050 e8 ff c4 bd 53 49 60 bd 32 05 52 be 56 6e be 3e
       -0.09619123 -0.054757427 -0.20509794 0.37193555
000060 4a 3f ce bd 68 99 9e 3d f2 38 01 3e 53 9e c4 bc
       -0.10070665 0.07744104 0.12619379 -0.024001276
000070 92 16 03 3f 25 c4 d4 3e a2 88 c2 be fd 74 09 be
       0.51206315 0.41555896 -0.37994868 -0.13423534

cnn.8.weight f4 [32, 3, 8, 8]
000000 b0 fc ee 39 03 22 5c bc 44 c3 a2 bc c1 95 e8 bb
       0.00045583164 -0.013435843 -0.0198685 -0.00709793
000010 2e f5 6a ba 8d 7a 4b bb 9e 8b 71 3a dd 75 0a 3c
       -0.0008962926 -0.0031048388 0.0009214225 0.008450952
000020 ce 4c 50 ba c8 7a 9a bc 19 b4 a1 bc 4a 32 8b 3b
       -0.0007946015 -0.018857375 -0.019739198 0.0042479383
000030 13 b8 10 3c 73 eb c6 3b e6 82 08 3b 2c 56 e3 3b
       0.008832949 0.006070548 0.0020829975 0.0069377627
000040 e5 99 e7 39 83 6c 3f bc f1 2c 9b 3b dc 3e 61 3d
       0.00044174414 -0.011683586 0.004735582 0.054991588
000050 eb 48 3a 3d bb cd 1e 3d 65 72 95 3c 65 81 15 3c
       0.045479696 0.03877042 0.018243024 0.009125088
000060 40 15 22 bc 16 f5 ad bc a7 61 08 bb 00 1c 81 3d
       -0.009892762 -0.02123503 -0.0020810158 0.06304169
000070 b1 dd a4 3d d7 90 a8 3d 44 a0 83 3d a5 cd 3e 3d
       0.08050097 0.08230751 0.064270526 0.046582837
000080 a2 73 6b bd 2b 33 b9 bd 48 d5 be bd cf 5e 29 bd
       -0.057483323 -0.09042963 -0.09318024 -0.041350182
000090 bf a5 36 3d f2 93 eb 3d 7e a6 14 3e 9a 77 0d 3e
       0.04459166 0.11502828 0.14516637 0.13815156
0000a0 dc 97 30 be 30 ba 89 be 65 23 b1 be 7d 62 ae be
       -0.1724543 -0.26899862 -0.34597316 -0.34059516
0000b0 e6 60 52 be 63 d7 95 bd af ca 2d 3d f3 ea c7 3d
       -0.20544776 -0.073164724 0.042429622 0.0976161
0000c0 a3 ce 82 be 70 52 b3 be 66 8d e5 be e9 ce f8 be
       -0.25548276 -0.35023832 -0.4483444 -0.4859536
0000d0 d1 6d b4 be 40 3c 58 be 61 cd 65 bd e6 f6 11 3d
       -0.35240033 -0.21116734 -0.056104068 0.03563585
0000e0 30 1f 25 be 95 a8 3a be 86 dc 74 be 0e 0e 9c be
       -0.16125178 -0.18228371 -0.23912248 -0.30479473
0000f0 a3 d3 54 be d6 95 f5 bd 9f 05 ba bc 28 f0 27 3d
       -0.20783858 -0.119914696 -0.022707758 0.041000515
000100 e2 d0 54 bb 55 54 63 bc 48 6f 8c bc f9 60 70 bb
       -0.0032473137 -0.013875087 -0.017142907 -0.0036678894
000110 1e 5e ba bb 57 40 fd bb 78 7b 4c bb 75 25 94 3b
       -0.005687489 -0.007728617 -0.0031201523 0.004521067
000120 c6 a3 80 bb 25 6b 90 bc 80 45 7e bc 42 12 10 3c
       -0.0039257733 -0.017629215 -0.0155195 0.0087934155
000130 85 cb 06 3b 8e 72 d1 ba 96 af c7 bb 8c e4 9e ba
       0.0020568084 -0.0015979575 -0.0060939295 -0.0012122556
000140 fe 93 14 3b bb 7d cd bb 94 c9 2c 3c 6b b4 75 3d
       0.0022671218 -0.0062710918 0.010546107 0.059986513
000150 6a 2f 19 3d 8c 01 e7 3c 47 92 d6 3b 06 b9 39 bb
       0.037398733 0.02819898 0.0065481993 -0.0028339042
000160 17 8b 29 39 3c 6f 8f bb 5e 51 8a 3c a3 c5 a3 3d
       0.00016168911 -0.004377274 0.016884502 0.079966806
000170 70 6c a6 3d 79 9d a6 3d aa bb 79 3d 2f 26 26 3d
       0.081261516 0.08135504 0.060969986 0.04056376
000180 b2 4a 51 bd f6 0c b0 bd 3d 44 bf bd 03 90 3d bd
       -0.051096626 -0.08596222 -0.09339187 -0.04627992
000190 38 c6 4b 3d c6 92 ff 3d 95 09 23 3e 6f b4 1d 3e
       0.049749583 0.12479167 0.15921624 0.15400861
0001a0 43 97 39 be b9 c5 90 be df fa b9 be 42 54 b9 be
       -0.18124108 -0.2827585 -0.36324212 -0.36197096
0001b0 ae 07 5b be 01 47 8f bd 96 c0 54 3d 89 9c e2 3d
       -0.21389648 -0.06995965 0.051941477 0.11065013
0001c0 7d a3 8a be 49 f1 bd be 06 44 f1 be 98 f0 01 bf
       -0.27077857 -0.37098148 -0.4712221 -0.5075774
0001d0 2c bc ba be 4f 2c 58 be 35 c9 4b bd 83 a3 3d 3d
       -0.3647169 -0.21110652 -0.049752433 0.046298515
0001e0 c4 c3 27 be f1 4e 41 be 37 13 79 be 48 8b 99 be
       -0.16383272 -0.1887777 -0.24323736 -0.29989076
0001f0 37 df 45 be fe 00 d1 bd d1 da 55 bb 99 e6 7f 3d
       -0.19323431 -0.10205267 -0.0032631645 0.062475774
000200 7b 0d 7d bb f6 2a 3f bc b9 5b 84 bc 4e 03 0b bc
       -0.0038612771 -0.0116679575 -0.016157018 -0.008484675
000210 ca 7a 32 bc 38 ec 0c bc 08 2d 4a 3a 3a 3d 12 3c
       -0.010893533 -0.008601241 0.00077123987 0.00892573
000220 a2 69 14 bc 8b 8a ae bc ba 49 aa bc 2e 9b 65 bb
       -0.009058388 -0.021306297 -0.020787109 -0.0035035121
000230 20 2a 1b bb 99 e9 e1 bb c5 cd ab bb e9 53 c2 3b
       -0.0023676232 -0.006894302 -0.0052430355 0.005930413
000240 27 33 da 3a a4 18 05 bc 16 8c 9e 3b 05 ca 36 3d
       0.0016647325 -0.008123551 0.004838477 0.044626255
000250 b9 7d 13 3d ef f0 b6 3c a1 18 dd 3b 8f 91 b2 3b
       0.03600857 0.022331683 0.0067473208 0.005449481
000260 64 7d 0e 3c 7b 2e 5b b9 d3 67 97 3c 63 6a 97 3d
       0.008696888 -0.00020902783 0.018482124 0.073933385
000270 12 e6 8a 3d 6a 85 72 3d 57 78 26 3d 37 34 d9 3c
       0.06782164 0.059209265 0.04064211 0.026514156
000280 46 c4 c2 bd 44 e1 08 be 39 9b 0e be 40 d0 a5 bd
       -0.095100924 -0.13367182 -0.139264 -0.08096361
000290 54 a0 51 3d 49 e9 e0 3d 2e d1 05 3e ab 62 ef 3d
       0.05117829 0.109819956 0.13068077 0.11688741
0002a0 7c 60 5e be e7 84 aa be 48 39 d6 be 4d 96 ca be
       -0.21716493 -0.3330452 -0.41840577 -0.39567795
0002b0 4c 33 3a be bc c5 1e bd 5e 06 85 3d c8 33 d6 3d
       -0.1818363 -0.038762793 0.06495355 0.10459095
0002c0 41 9f 91 be f5 43 c9 be 8a 0f fe be 4d 04 03 bf
       -0.28441814 -0.3930966 -0.4962123 -0.5117844
0002d0 7d f5 92 be a9 ca 05 be a7 fe 8f 3c 64 2b b5 3d
       -0.28702918 -0.1306559 0.017577482 0.08846167
0002e0 99 5b 46 be f7 9f 5d be 72 a7 8c be d1 e3 a3 be
       -0.19370879 -0.21643053 -0.274715 -0.32009748
0002f0 c9 ba 2d be 8d 32 a6 bd f1 d4 98 3c f5 0f 8e 3d
       -0.16965784 -0.081151105 0.018656226 0.06936637
000300 d9 bf 27 bc 09 6c 91 bc 85 84 71 bc c8 1d 86 bc
       -0.010238611 -0.01775171 -0.014741068 -0.016371623
000310 d6 64 7d bb a7 48 28 3c 48 52 b3 3b f3 1d a0 39
       -0.003866484 0.010271228 0.005472455 0.00030539892
000320 3a e5 10 bd 46 60 0b bd 0d 31 17 bc e8 12 05 3d
       -0.035374857 -0.03402736 -0.009228003 0.032488734
000330 15 ad 81 3d ca 34 70 3d c1 e8 05 3d 4c 2f c8 ba
       0.06331841 0.058644094 0.032692675 -0.0015272885
000340 16 83 86 bd 2d 08 60 bd b4 82 82 bb 13 5c 9e 3d
       -0.065679714 -0.054695297 -0.003982866 0.077324055
000350 87 10 0f 3e b0 cd f6 3d dd bd 81 3d 91 ac 32 3a
       0.13971148 0.120509505 0.06335042 0.00068158755
000360 8d f5 b3 bd cf 8b cc bd 3f eb 88 bd 1f b4 8c 3c
       -0.087870695 -0.09987604 -0.06685495 0.017175732
000370 b7 c4 00 3e ee 75 ff 3d a2 26 9f 3d e3 5b 35 3c
       0.12575041 0.12473665 0.077710405 0.011069271
000380 94 06 ba bd c2 b7 ff bd 79 b8 0a be 80 d5 9b bd
       -0.09083286 -0.12486221 -0.13546933 -0.07609081
000390 6c fa 00 3d a0 4e 83 3d ab 81 9a 3d 31 23 29 3d
       0.03148882 0.06411481 0.075442635 0.041293327
0003a0 be 43 7b bd 24 9f c4 bd 6c 34 f8 bd 12 ef c0 bd
       -0.0613439 -0.09600666 -0.12119374 -0.09420599
0003b0 30 c6 a4 bb 70 0b 7b 3d 74 c8 bb 3d 50 c8 9c 3d
       -0.0050285086 0.061290205 0.09169093 0.07655394
0003c0 7e 16 d2 bc 29 04 1e bd fb 4d 5b bd 81 e8 30 bd
       -0.02564549 -0.038578186 -0.053541165 -0.043190483
0003d0 43 52 31 bc 51 1e 05 3d 76 7c 6c 3d 2c 7a 77 3d
       -0.010822835 0.032499615 0.057735883 0.060419247
0003e0 7b ce 9a 3b 0e 62 99 3c e5 01 88 3c 75 14 87 3c
       0.0047243214 0.018723514 0.016602466 0.016489247
0003f0 6b 98 53 3c 4f e6 df 3c 74 4e 29 3d a6 8e 40 3d
       0.012914757 0.0273315 0.041334584 0.04701104

cnn.8.bias f4 [3]
000000 13 fe 58 3e 88 b4 c5 3e 81 34 54 3f
       0.21190672 0.38614297 0.82892615
