models/AnnaSoftCNN/encoder_weigths.pth (torch, 980743 bytes, 10 tensors)

cnn.0.weight f4 [32, 3, 8, 8]
00000000: 6436 04be 27cb a6bd f3e3 2ebe ca22 13be
00000010: 45c4 0cbe ba7e efbb e57f 1d3d 16d8 833d
00000020: 46d4 1ebe 5653 1dbe e103 16be 2cde c3bd
00000030: 9a8b 2cbd 6012 093d 0c75 543d 0373 ce3b
00000040: 41d7 37be d06b 5dbe a95e 25be 0e66 23be
00000050: aa3b 9bbd bd39 113d 6555 903d 7703 1e3e
00000060: 4ea2 2cbe 30cc 18be 924d 0abe b8df 4bbe
00000070: ef43 8dbd 7c8b 70bd 71ce 963d 8ba3 123e
00000080: cf0c 58be f79b 3cbe 951a 5cbe f94d 1abe
00000090: c786 2bbc 6944 aa3c d5f7 353e d916 263e
000000a0: d1e9 38be abf7 3abe f866 53be 8267 65bd
000000b0: 0a0c ca3c 86d8 a23d 805d 493e 26a4 5b3e
000000c0: 8e50 4abe 5f98 14be 8a78 4abd 4a01 d1bd
000000d0: 6fa1 333d fab8 103e 1e3c 2b3e 04b4 173e
000000e0: 58f8 3cbe 561c 47bd 2f6d bcbd 7ec5 083c
000000f0: 25cd b53d 7ff8 063e be7b 293e 7ad0 e53d
00000100: 3661 dabc 3afb cfba 2af6 9bbb 67c2 8dbd
00000110: c07f ab3b 0f90 7abd 873b 3ebd 3864 803c
00000120: d41f ebbb 2c4a a7bd c771 97bc bd24 a0bd
00000130: 25b3 f7bd 2984 58bd 17e7 253c e6aa 223d
00000140: f233 babd 5d6b e8bd da98 83bd 4e2e f5bd
00000150: e42c 76bd 260f 833c e67e 163c e977 4e3d
00000160: f02d 49bc c792 49bd c18e 8abd 146e 92bd
00000170: 634f cbbd 333a 94bc 6ac8 623d b3fc c03d
00000180: 8be4 b0bd 9d5c e6bd 1fa5 18be c2db a4bd
00000190: 8639 133d afa0 e0bc 2d03 8c3d e840 a13d
000001a0: 7bc5 0dbe f85a bcbd fa58 bbbd 8e74 40bd
000001b0: 1cc6 0e3d 67e6 2e3d 59e6 373d f967 b33c
000001c0: 0b15 88bd 0d0c b5bd 8f8a e0bd 46fa d5bb
000001d0: efd4 7c3d a3d2 e83d c784 f63d 72e8 803d
000001e0: da25 28bc 83c6 9ebd 985a 9fbc b389 a03c
000001f0: fe7b 063e ed0a 143e 6d1d 403d 60fc 2c3d
00000200: 9281 b13c 0e84 1d3d 3816 f43c b2cd bd3d
00000210: 6587 123d ce9e 813b 5d08 63bc cecc 9e3d
00000220: 39c2 863d 1c87 e13b b9cc 8abb 43aa 25bb
00000230: 7d21 423d 7696 c43d 212b 0c3d de59 d03d
00000240: dc10 1ebd e03e 313d d8d0 ee3c 15cc f4bc
00000250: 9192 493d d0c4 c23d 826a d53d c295 833d
00000260: 3098 d0bc 9664 423d 1fe0 2fbd d064 0abd
00000270: 50e3 4bbc f1ed 3c3d 18b1 463d 3d55 8d3d
00000280: b796 6ebd 0eb1 6d3b e97d 60bd 4bd6 1d3b
00000290: 7cd7 7a3d d8ff a63d b532 373e 30c7 0e3e
000002a0: 3345 8dbc 79aa 60bd f6c8 a5bc 3101 b0bc
000002b0: 7e3c 003e c7cc cc3d 29cf 0f3e c104 363e
000002c0: 5718 833c 4388 e33a c9bc 1e3d 38a2 983c
000002d0: f0c9 183e c265 4c3d c2dd e53d 2802 003e
000002e0: a129 8fbd 9585 97bc 0082 8fbb 17e6 6e3d
000002f0: 50d2 2f3e 6533 353e 8110 9f3d 5a02 193e
00000300: b297 a83d 6393 c73d dd9b f93c 8a6a 363d
00000310: a7b2 e43d fc23 a63d 0bc2 983d c8cc e63d
00000320: cca7 7e3c cc62 103d 1700 913d 7199 e83c
00000330: 869a 2b3c 159f d0bb fe06 bf3c 806d f03c
00000340: b6b4 f3bc 40fa 21bd 0bbd acbc 4ba0 bb3c
00000350: ac30 a53c 50d9 173d 3a10 913d 4551 5d3d
00000360: 296f c0bd 2e2a 5dbd c1ee 3fbb e0e0 a7bd
00000370: f9c4 843c c4d1 af3c 9b2c 4d3d 75e8 fa3c
00000380: 50f8 44be 1a15 13be e1ba 23bd 9c54 0bbd
00000390: 809a 4a3d 093a 6b3d b8fb c83c 32a1 e03d
000003a0: 36c8 03be 26a4 00be ce41 7aba 6458 10bb
000003b0: aa78 1bbd 7342 fdbb e337 833d 4727 963d
000003c0: 53c6 19be 3b86 04be 2cc7 55bc e4e6 27bd
000003d0: 5abf cbbc e362 053d 2818 ab3b 12df be3d
000003e0: 5ea8 babd 3d9b 46bb a9ef 57bd 3770 743c
000003f0: f1d8 c2bc e7b6 42bc f8a0 313d b698 ae3d
-0.12911373 -0.08144217 -0.17079143 -0.1436874 -0.13746746 -0.007308808 0.038452048 0.064376995
-0.15510663 -0.15363821 -0.14649917 -0.0956386 -0.042125322 0.03346479 0.051869437 0.0063003316
-0.17953207 -0.21623158 -0.16149391 -0.159569 -0.075797394 0.035455454 0.07047538 0.15431009
-0.1685879 -0.14921641 -0.13506153 -0.1990956 -0.06897723 -0.058726773 0.07363594 0.14320199
-0.21098636 -0.18418871 -0.21494515 -0.15068807 -0.010469145 0.020784574 0.17770322 0.16219653
-0.18057944 -0.1825854 -0.20644748 -0.056006916 0.024663944 0.07951455 0.19664574 0.21449336
-0.19757292 -0.1451125 -0.04943136 -0.10205324 0.043855127 0.14133063 0.16722152 0.14814764
-0.1845411 -0.048611008 -0.092005126 0.008347867 0.08877019 0.13180731 0.1655111 0.112214044
-0.026657682 -0.0015867718 -0.0047595697 -0.06921845 0.005233735 -0.06117254 -0.04644349 0.015672788
-0.007175425 -0.08168444 -0.01848687 -0.07819507 -0.12094716 -0.052860413 0.010125897 0.039713763
-0.09091939 -0.11348603 -0.064256385 -0.119717225 -0.060101405 0.015998434 0.009185528 0.050407324
-0.012279019 -0.049212243 -0.067655094 -0.07149902 -0.09927251 -0.018094158 0.05536691 0.094231986
-0.08637341 -0.11248133 -0.14906739 -0.08049728 0.03594353 -0.02742037 0.06836543 0.07873708
-0.13844864 -0.091970384 -0.0914783 -0.046986155 0.0348569 0.042700198 0.04489741 0.021900164
-0.06644639 -0.08840189 -0.10963928 -0.006530079 0.061726507 0.11368301 0.12037044 0.062943354
-0.010262931 -0.07752707 -0.019452378 0.01959691 0.13133237 0.14457293 0.046903063 0.04223287
0.02166823 0.038456015 0.029795751 0.09267749 0.035773654 0.0039556986 -0.013856974 0.07753907
0.06580014 0.0068825614 -0.0042358306 -0.0025278486 0.04739522 0.09599011 0.03422082 0.10173391
-0.038590297 0.043272853 0.029152319 -0.02988247 0.049212042 0.09510195 0.104207054 0.064250484
-0.025463194 0.047459207 -0.042938348 -0.03378755 -0.012444332 0.046125356 0.048508734 0.069010235
-0.0582492 0.0036268863 -0.054807577 0.0024084027 0.06124066 0.08154267 0.17890437 0.13943172
-0.01724491 -0.054850075 -0.020237427 -0.021484943 0.12523076 0.09999996 0.14043869 0.17775251
0.016002817 0.0017359335 0.03875426 0.01863204 0.14920783 0.04990173 0.112239376 0.12500823
-0.06990362 -0.018496314 -0.004379511 0.0583249 0.17170072 0.17695387 0.0776682 0.14942303
0.082320586 0.09744909 0.03046983 0.044535197 0.11166888 0.08112332 0.07458886 0.11269528
0.015542936 0.03525047 0.07080095 0.028393479 0.010473853 -0.0063666203 0.023318764 0.029349089
-0.029749256 -0.039545298 -0.021086236 0.022903582 0.02016481 0.03707248 0.07083173 0.054032583
-0.09396202 -0.053995304 -0.0029286596 -0.081971884 0.016207205 0.021462329 0.050091367 0.030628422
-0.19235349 -0.14363518 -0.039973143 -0.034016237 0.04946375 0.057428394 0.024534091 0.109682456
-0.12869343 -0.12562618 -0.0009546549 -0.0022025341 -0.03795687 -0.0077288686 0.06407144 0.0733171
-0.15017061 -0.1294183 -0.013047975 -0.04099168 -0.024871517 0.03256501 0.0052213855 0.09319891
-0.09114145 -0.0030304932 -0.052718792 0.014919332 -0.023785086 -0.011884428 0.043366402 0.08525221

cnn.0.bias f4 [32]
00000000: 4004 8ebc 2d9d b2be d5ee 4ebe a16b 8a3e
00000010: 7e6c da3e 3120 233e cbcb b43d 45ae 583d
00000020: 1d95 b03e f250 5fbe 6d01 0bbd 2077 523e
00000030: a263 7c3d 78cd 82be b1ae 0dbe 7707 ecbd
00000040: d63e 78bd a951 f0bd e289 d9bd 1c4f a2bd
00000050: 8518 c4bd 5e2e ea3d 70b9 ddbd f0d6 95be
00000060: 20d1 09be 533c 983c 150b a2be dcf5 05bc
00000070: 1c11 60be f4a2 a4be e253 93be f03c 07be
-0.017336011 -0.3488554 -0.20208295 0.2703524 0.42660898 0.15930249 0.08827933 0.05290057
0.34488764 -0.21808222 -0.033936907 0.20553255 0.061618455 -0.25547385 -0.1383617 -0.11524861
-0.0606068 -0.117343254 -0.10622002 -0.07925245 -0.09574989 0.11434625 -0.10826385 -0.29265547
-0.13458681 0.018583452 -0.3164908 -0.008176293 -0.21881527 -0.32155573 -0.28774935 -0.1320684

cnn.2.weight f4 [64, 32, 4, 4]
00000000: 1878 e1bc 4cd3 2ebd e5c8 74bd 4244 27bd
00000010: 5725 e1bc 9d44 2abd 7c12 aebd 9f7a 303d
00000020: 4c92 15bd ea4c ec3c 5154 9a3d 4976 8f3d
00000030: ce88 48bd f0b1 eebb 75be 96bc bdde 3ebe
00000040: ae6e 54bd a0e2 813d a4ab c2bc 781a a83d
00000050: 0d0b 0a3d 0dc4 533d 27ae d0bc c52c 213e
00000060: b7b7 1e3d b6d5 f7bc bb65 a1bc 06ce 673e
00000070: c54c 823b 858d 3d3d 5042 50bc 2ef9 a43e
00000080: 3678 433c e787 93bc 543d 62bd 8ecf 853d
00000090: 5b43 e33c 435a 73bd 5ded 933c 3640 fa3d
000000a0: c837 993d 7ddc 42bd bda6 d7bd aaac 1b3e
000000b0: 0fa3 213d 1b78 893a 034e b8bd 0098 87bc
000000c0: cea0 be3c 95f4 753d 8698 883d 2b8b 54ba
000000d0: 5ca5 643b 77fd 33bc db17 663d 9eba f1bd
000000e0: 44be f63c 8610 77bc 3051 dfbd 29a0 a9bd
000000f0: 2af3 5b3b 0903 6fbd 28ea fcbd cab3 e2bd
00000100: d05a b8bd 6608 5dbc d065 353c 5d70 b13d
00000110: 9d55 0cbd 486b 90bc 811c 843d f2e3 ce3d
00000120: 31d4 64bd a59f 3b3d 9d5e e73d 328d 183e
00000130: 8a74 2abd 5d5f e33c e973 a63d 52ca 7d3d
00000140: f369 39bd 35f9 93bb f750 1cbd 2278 273d
00000150: 5a78 40bc 96b6 8b3c 5210 3d3d 4566 313d
00000160: 87b2 2d3c b552 9fbc 9511 043e d43f 4abe
00000170: cabc aa3d 8802 cd3d 7218 133e 959c 023d
00000180: 5c64 4d3c a0de 553d 65a4 b73d 82aa 2b3d
00000190: fc94 f03c d2ee 033e 2aaa 1d3e 68c7 33bd
000001a0: f9fd 863d bd83 a33d 98aa 133e 0c68 5cbd
000001b0: ff00 843c cbaf 263d d485 4b3d 4930 233d
000001c0: 5e64 b9bc 99a9 14bd 5897 bdbd 1c1f cebd
000001d0: 9c3d d13b 2eca 0c3c f225 a6bd 890a 263b
000001e0: 940c 383b 00e1 eabd 84cf d7bd da88 853c
000001f0: c6ee 61bd 8ca8 91bd 899a 72bd 258e b4bc
00000200: 9428 083d 4fce 9d3c a069 4e3d 7dda 433d
00000210: 7d63 0b3d f072 0f3e 5506 133e 3dc5 543b
00000220: e67d 8b3d 6d4a 163e fa17 fc3c 8572 8dbd
00000230: a4b4 9d3d 4b7d e03d ca58 fe3c f111 24be
00000240: 60ec 293b 98bf 20bd b2ea 9dbd fe6a cc3c
00000250: e163 09b8 5138 913b 0d00 9e3a 0a25 8e3d
00000260: 28ba 96bc f414 56bd 2768 dabc 0d19 ef3d
00000270: b6fb abbc 9fc3 bbbb 9389 cabc 1b31 ff3d
00000280: 10ab 56bc cfb2 66bd 7778 193c af2e 243c
00000290: 4830 9a39 ec98 b63b 7c4e 70ba 5924 3a3d
000002a0: 3374 b0bc cdd3 89bc 970d 2c3d 54d2 913d
000002b0: d771 68bd 1be6 7cbc 6c06 28ba 06d1 bf3d
000002c0: 38ec ca3c eba7 4e3d 206d 253d d137 cb3c
000002d0: 980e 003d 8c6b b83c 8d9c 833c 3681 05be
000002e0: bc81 e63d 1935 7c3d 082a 5fbd 52ef 15be
000002f0: 796f 3f3d 039c 953d f9c8 13bd 8b88 04be
00000300: cfb9 b9bc 6443 5eba 4ea6 0bbc 932f cabd
00000310: dbd8 7dbd 94fb 22bd 96d6 0dbe c2df 1cbe
00000320: 0d3e 433c 579c 31bc b833 4fbe b18b 2abe
00000330: 3fc4 49bc 9e99 983d 38cf d4bd a019 92bd
00000340: 78ff 213d f8de f2bc 62d0 88bb ff1c b43d
00000350: 4ed6 6f3d 4f27 bc3d c83b a63d eb52 153e
00000360: 680e a93d 2280 633d c98e bb3d ab81 813d
00000370: 631a b33c 7f13 4f3c 88bc 663b 465e 673d
00000380: 3459 3bbc 6108 713c 0ceb abbc b476 f03c
00000390: aa4e d8bc fc04 1b3c bf5d a5bc b230 f2bb
000003a0: 0247 04bd 7bb9 45bd 269b 11bd bbde df3c
000003b0: 8516 503b 8234 743c 63c6 8d3d b2ac cd3d
000003c0: dc5b 8b3b 6a0e 41bd a972 96bc 4845 ae3c
000003d0: b947 9a3d a31d 12bd b1c9 22bc 35e1 0c3d
000003e0: 8f98 78bd 7a86 61bd 4e66 f5bd 9a3a 1e3e
000003f0: fc5c 99bd c1e8 babd 4158 3d3d f0ba d33d
-0.027523085 -0.042681977 -0.0597619 -0.04083658 -0.027483625 -0.04156934 -0.08499619 0.04308569
-0.036516473 0.02884527 0.07535613 0.07004983 -0.048958592 -0.0072843954 -0.018401364 -0.18639655
-0.051863365 0.063420534 -0.023763485 0.082081735 0.033701945 0.05170064 -0.025473667 0.15739734
0.038749423 -0.030253273 -0.01970183 0.22637185 0.003976437 0.04627754 -0.012711123 0.3222136
0.011930516 -0.01800914 -0.05523427 0.065337285 0.027742079 -0.059412252 0.01805752 0.122192785
0.074813426 -0.047573555 -0.1052985 0.15202585 0.039462145 0.0010488065 -0.089992546 -0.016551971
0.023270037 0.060047705 0.066697165 -0.0008107896 0.00348886 -0.010985724 0.056175094 -0.118031725
0.030120023 -0.015079623 -0.10904157 -0.08282501 0.0033561685 -0.058352504 -0.12349349 -0.11069448
-0.09001696 -0.013490772 0.011071637 0.0866401 -0.034261335 -0.01762928 0.06450749 0.10102071
-0.055866424 0.045806546 0.11297343 0.14897612 -0.041615047 0.027755434 0.08127577 0.061960526
-0.045267057 -0.004515792 -0.03816315 0.040886052 -0.011747444 0.017054837 0.046158142 0.043310422
0.010601646 -0.019448617 0.12897332 -0.19750911 0.0833679 0.100102484 0.14364794 0.03188761
0.012536135 0.052214265 0.08966903 0.041910656 0.029367916 0.12884071 0.15396944 -0.04389134
0.0659141 0.079841115 0.14420545 -0.053810164 0.016113756 0.040694993 0.049688175 0.03984097
-0.022630867 -0.036294553 -0.09257382 -0.100645274 0.0063855182 0.008593125 -0.08112706 0.002533587
0.002808367 -0.114686966 -0.10537627 0.016300607 -0.055159353 -0.07112226 -0.059229407 -0.022040436
0.033241823 0.019263415 0.0503937 0.04781579 0.034030426 0.14008689 0.14357884 0.0032466196
0.068111226 0.14676829 0.030773152 -0.069066085 0.0770047 0.10961398 0.031048197 -0.16022469
0.0025928244 -0.039245218 -0.0771078 0.024953362 -3.2756365e-05 0.0044317623 0.0012054458 0.069406584
-0.018399313 -0.052266076 -0.026660992 0.116747 -0.020994049 -0.005730107 -0.024723804 0.12460538
-0.013102308 -0.05632287 0.0093671 0.010020896 0.0002940914 0.005572429 -0.00091669685 0.04544482
-0.021539783 -0.016824627 0.042005148 0.07120195 -0.05674919 -0.015435721 -0.00064096483 0.0936604
0.024770841 0.050453108 0.040387273 0.024806889 0.031263918 0.02251222 0.01606586 -0.13037571
0.112552136 0.061574075 -0.054483443 -0.14642075 0.046737168 0.073051475 -0.036080334 -0.12942712
-0.022671608 -0.000847867 -0.008523537 -0.09872355 -0.061974388 -0.039790705 -0.1385139 -0.15319732
0.0119166495 -0.010840497 -0.20234573 -0.1665485 -0.012314855 0.07451175 -0.10391086 -0.07133794
0.039550275 -0.029647335 -0.004175232 0.08794593 0.058553986 0.09187185 0.08116871 0.14582412
0.08254701 0.05554212 0.091580935 0.0632356 0.021863168 0.012638926 0.0035207588 0.05648639
-0.011434842 0.01471147 -0.020986103 0.029353477 -0.026404697 0.009461638 -0.020186303 -0.007391059
-0.03229428 -0.04827259 -0.03554835 0.027327886 0.0031751704 0.014905097 0.06922605 0.10042705
0.004252894 -0.047132887 -0.018365221 0.02127327 0.07533211 -0.035672795 -0.009935782 0.03439446
-0.060692366 -0.055059887 -0.11982404 0.15452042 -0.074884385 -0.091264255 0.046226744 0.1033839

cnn.2.bias f4 [64]
00000000: 4204 8bbd 6899 e9bb ece8 68bd c4b2 0f3d
00000010: 581d 02be 495f 6bbc 691c 9ebd 87aa ad3b
00000020: fd7a 91bd 9aaf 0e3d 43e0 11bd d914 14bd
00000030: 23d8 95bd 9dfc 1d3d 7b43 1ebd bcff e9bc
00000040: 548b 76bc 52be c3bd e0f4 c1bc 0237 bdbc
00000050: a58a f5bd 1b7c 05bd d8f8 4a3e 8944 0fbe
00000060: a95a 9abd ef5a a43d 0668 85bc 02e7 b7bd
00000070: c6db 0ebe a52d c4bd ba63 03be d00f 71bd
00000080: a1c7 bebd fa31 aa3d 8a91 62bd e37b 8f3d
00000090: 2bfc dcbd 1234 d13c 81a1 5e3e 1fdf 5fbd
000000a0: 7004 9dbd ce83 98be 2a3b debd 455e bbbb
000000b0: 6aed 733c 6903 5dbd 8896 fbbd a83a 18be
000000c0: 6806 d2be ca7a 1ebd bb5c c1bc 20a3 2ebe
000000d0: 0e35 c5bd 7d6d 94bd 1d14 b9bd 4db5 dfbd
000000e0: 739e 253d cdd3 04bd 8404 0a3d 0a20 6cbd
000000f0: 239e 03bd 2663 c83d e018 c63d ead3 02be
-0.067879215 -0.007128883 -0.056862757 0.035082594 -0.12706506 -0.0143659795 -0.077202626 0.0052998695
-0.07103536 0.034835435 -0.035614263 -0.036152694 -0.073166154 0.03857099 -0.038638573 -0.028564326
-0.015047867 -0.09557785 -0.023676336 -0.023097519 -0.11989335 -0.03258906 0.19821489 -0.13990988
-0.07536823 0.08025157 -0.016284954 -0.08979608 -0.13951024 -0.095790185 -0.12831011 -0.05885297
-0.0931542 0.083103135 -0.055314578 0.070060514 -0.10790285 0.025537524 0.21741296 -0.054656144
-0.07666862 -0.2978806 -0.108511284 -0.005718025 0.014888147 -0.05395833 -0.12284571 -0.14866126
-0.41020513 -0.03869132 -0.023603788 -0.17054415 -0.0962926 -0.07247446 -0.090370394 -0.10923252
0.040434312 -0.03242855 0.033695713 -0.057647742 -0.032133233 0.09784536 0.09672713 -0.12776151

cnn.4.weight f4 [64, 64, 3, 3]
00000000: 2261 ad3c db3d 89bc bb12 3bbc 1728 013d
00000010: bc6c a8bc abf4 2c3b 2667 40bc 5a80 7bbd
00000020: 2894 693c f6f8 36bd b536 9a3b 3a25 38bd
00000030: 0fb5 e6bc bfdf a93c 9143 603c 86b3 673b
00000040: 0e24 d9bc 3be3 00bd c04f 8e3b 2972 93bc
00000050: 6f70 aabc b144 9ebd 6136 12bd d254 c8bd
00000060: 6d2b 95bd a92a 58bd d959 a1bd 8cb5 d3bd
00000070: 0d5c 91bd c287 9fbd 9ee6 c4bd aee1 a3bd
00000080: 032d c0bc 0a33 5ebd 8552 32bd b934 23bd
00000090: 1a2d 2ebb 8d2f 1bbc d810 3ebb a533 e53c
000000a0: ca04 0e3d fa95 10bd 6f7b adbc 242a 3139
000000b0: 4cdb b1bc f35f e2bc 1444 b8bc e532 18bc
000000c0: d3c4 8fbd bc94 83bd c910 69bd fac3 8cbc
000000d0: 464c 1cbb 5df0 fcbc 1368 293d fae0 493d
000000e0: 5782 1e3d f8d3 e73b c920 d0bc 6305 4f3d
000000f0: 9db4 973c eb67 193d 665d 14bb 9818 ccbb
00000100: 461f d7bb e31a fcbc d7ed 32bd e06a 4bbc
00000110: 96f6 debc fb22 03bb 4ac9 97bd 8cce 82bd
00000120: 94e6 7dbd 1e1a 06bd 6459 1539 8773 65bc
00000130: 7802 c6bb 2d38 78bd 84b3 0cbc a3c2 ecbb
00000140: 9fc5 4dbd 3e6c 4fbb 91b7 ed3a 3b66 103c
00000150: 9553 43bd c67f 4cbd 1e0d 30bd a2c6 21bd
00000160: 35a5 8dbc 7ca5 4d3b 9a49 a0bc c2fb 48bd
00000170: 3e1d 36bd 3422 24bd d4f2 bfbc f475 45bc
00000180: 61e5 0cbd 07e5 05bc f73b e6bb e1b6 153d
00000190: 6c96 403c d378 223c 7428 f3bc 5f62 dc3a
000001a0: 1fa0 643c 9be2 913c 61c7 c4bc e7da 01bd
000001b0: 7599 82bd 1030 40bc b955 03bd 9cf4 3fbd
000001c0: 5ab4 88bd ed59 963c 6f5a afbc e493 d6bb
000001d0: e710 cd3a ac7b 693c 074d 733d 1400 463d
000001e0: 1654 fe3b 5088 173d 2ada 033d 6756 fa3c
000001f0: 1d92 813d 8d0c 843d d7ac 76bc e765 a83c
00000200: 2d26 1e3c 996a e03c 7d8d 133a f9b4 0bbc
00000210: fe4c d63c cd92 bebc 86ba ae3b 5058 fbbc
00000220: 2d8a 01bd c211 a4bd 612e 15bd 88ff afbd
00000230: 2794 84bd 82b7 1cbb bb8c 63bd 51f2 1bbd
00000240: 35f4 34bb 0215 e4bc ce2f 59bc 5b0b 8c3c
00000250: 5fe6 6d3b 6f58 09bd 7cf1 26bc 33f0 debc
00000260: 1717 893c 4e60 78bd b0b8 063a 9287 26bd
00000270: 68d0 37bd 04f4 3bbc e454 1ebb 0526 eaba
00000280: fe58 87bd ca39 83bd fd80 80bd 1abb 36bc
00000290: 7178 25bd bdd3 6bbc aa8b 58bc 5df4 c03b
000002a0: 5014 a3bc a8be 00bd c0b6 49bd 5392 363d
000002b0: 97dc 853d b8f5 293d 8850 3f3c ce1b 213c
000002c0: a601 aabb 1fbb 7c3d 81ac da3c 51c9 573c
000002d0: 7dbc f33c e7ba 303d 7b76 2f3d f148 44bc
000002e0: 65f0 4f3c 34bc 143d 9d4a a8bc 35e0 583c
000002f0: 3814 cfbc b340 e93c 0fad 1a3d d916 3a3d
00000300: 4579 893d 8fb0 313b 3e0e 303d 2181 5e3d
00000310: c934 d43c 7e83 753d 5c9a a83c aec7 c83c
00000320: bc65 073d 6f25 123d a4b4 1bbd ad82 ea3c
00000330: 94d1 dd3c cd62 f5bb 48fc 85bc 7299 973d
00000340: 5b39 3e3b b139 803d ab6c b43b c293 843d
00000350: 19d4 a73c 8788 933d edeb 6a3d 69d0 c73c
00000360: 9c4b 8e3d 1adc d33b be00 113d a86e 023d
00000370: 2201 6d3d 1439 7e3d c3a5 c13c fe94 e13c
00000380: 8197 253c da92 e8ba 34d9 8c3d 6e53 483d
00000390: 692d 343d 1e11 f73c 6e8a 8f3c 392a 2b3d
000003a0: e725 593b 9408 003c d278 90bc 4ca1 3e3c
000003b0: b104 4ebd 5266 55bc 6fc7 4cbb 43c6 a6bc
000003c0: e931 57bd 6a22 8f3c 6efa a9bb 967d 80bd
000003d0: 5edd db3b aae3 b03c 7bd4 32bd 0cdb 9fbb
000003e0: dc59 163c 75cf 3c3c d195 65bd 676b 99bc
000003f0: 6b04 b2bc 5b68 ffbc 6c21 86bc ef40 8b3c
0.02116448 -0.016753128 -0.01141804 0.031532373 -0.020559661 0.002639095 -0.0117433425 -0.061401702
0.014256515 -0.04467102 0.0047062286 -0.044957377 -0.028162507 0.020736573 0.013687984 0.0035354807
-0.02650645 -0.031466704 0.004343003 -0.017998772 -0.020805566 -0.077279456 -0.03569639 -0.09781803
-0.072836734 -0.05277506 -0.07878465 -0.10337362 -0.070976354 -0.077895656 -0.09614299 -0.08002029
-0.023458963 -0.054247893 -0.043535728 -0.039845202 -0.0026577176 -0.009471786 -0.002900174 0.027978728
0.034672536 -0.03529928 -0.021177022 0.00016895734 -0.021711014 -0.027633643 -0.0224934 -0.009289478
-0.07019963 -0.06424853 -0.056900773 -0.017183293 -0.0023849173 -0.030876333 0.04135902 0.04928682
0.03869852 0.007074829 -0.025406258 0.050542247 0.01851874 0.03745262 -0.0022638678 -0.0062285177
-0.0065650074 -0.03077454 -0.043683853 -0.012415618 -0.02721719 -0.0020009864 -0.0741144 -0.06387052
-0.061987475 -0.03273975 0.00014243048 -0.014004595 -0.0060427748 -0.06060045 -0.008587722 -0.007225351
-0.050237294 -0.003165021 0.0018136372 0.008813436 -0.047687132 -0.04992654 -0.04298126 -0.03949607
-0.01729069 0.0031379154 -0.019566346 -0.04906822 -0.04446148 -0.04007168 -0.02343122 -0.012052048
-0.03439844 -0.00817228 -0.0070261913 0.03655136 0.011754613 0.009916502 -0.029682375 0.0016813985
0.0139541915 0.01780825 -0.024020853 -0.031702902 -0.06376926 -0.011730209 -0.032064173 -0.046864137
-0.06675024 0.018353427 -0.021405427 -0.0065483917 0.0015645296 0.014250677 0.05939963 0.04833992
0.0077614887 0.036995232 0.03219048 0.030558778 0.06326697 0.06447706 -0.015055857 0.020556403
0.0096526565 0.02739458 0.00056286884 -0.008527034 0.02615976 -0.02326336 0.005332294 -0.03068176
-0.031625915 -0.080111995 -0.036421183 -0.085936606 -0.0647357 -0.002391309 -0.055554133 -0.038072888
-0.002761138 -0.027842049 -0.013256026 0.017095258 0.0036300642 -0.033531602 -0.01018941 -0.027214145
0.016734643 -0.06063872 0.0005139215 -0.040656634 -0.044876486 -0.011471752 -0.0024159485 -0.0017864114
-0.06608771 -0.06407507 -0.062746026 -0.011153007 -0.040398065 -0.014393744 -0.013216892 0.0058885054
-0.019907147 -0.031431824 -0.04924655 0.04457314 0.06536215 0.0414941 0.011676915 0.009833289
-0.005188185 0.06170189 0.026693584 0.013170556 0.029752964 0.043146994 0.0428376 -0.011980281
0.012691592 0.036312297 -0.02054339 0.013237049 -0.025278196 0.028473234 0.037762698 0.045431945
0.067125835 0.0027113294 0.042982332 0.054322366 0.025904076 0.059939854 0.020581417 0.024509277
0.033056006 0.03568023 -0.03801407 0.028626764 0.027077474 -0.0074885846 -0.016355649 0.07402314
0.0029025886 0.06261004 0.0055061183 0.06473495 0.020486878 0.07203775 0.057353903 0.02439137
0.06948015 0.006465447 0.0354011 0.03184381 0.05786241 0.062066153 0.023638612 0.027536865
0.010106922 -0.001774396 0.06877366 0.04890769 0.04398862 0.03015953 0.017522063 0.041788314
0.0033134164 0.007814545 -0.017635737 0.011635136 -0.050297443 -0.013024883 -0.0031246801 -0.02035821
-0.052537832 0.017472465 -0.0051873242 -0.062739536 0.0067097386 0.021592934 -0.04365967 -0.0048784073
0.009176698 0.011524071 -0.05605108 -0.018727971 -0.021730622 -0.03117769 -0.016373359 0.016998736

cnn.4.bias f4 [64]
00000000: 557e 5fbd 6903 573d b2a0 e03c 1056 3ebd
00000010: c3d2 cdbc 3054 23bd 3555 05bd 73c9 aa3c
00000020: 89be 993c 17d9 f7bc ca22 233c ba7d 9ebc
00000030: 34f8 dabc 2698 79bc f586 b1bd 2dc3 043d
00000040: 9919 10bc c962 b73d 3912 333d 2743 4e3c
00000050: 2dd9 5d3d 20c4 e43c 326d 2f3d af07 00bd
00000060: c0e6 74bb c2fb 32bc e7b7 123c d81b 41bd
00000070: b828 593c 2319 833c 01c9 de3c 49bc 8cbd
00000080: 4b73 9ab9 ec8b aabc 66b9 96bd eaab 8e3a
00000090: d9d6 d6bc b972 283d ca85 85bd 58f6 593d
000000a0: ad32 5c3b 7172 bdbd 8ec7 4ebd f118 c23c
000000b0: d08f 133d 83a9 48bd 3be6 33bd 7d42 88bc
000000c0: 7dd6 8abc ab85 ab3c e0a5 c1bc 727f cebc
000000d0: 308c 7e3c c8b6 07bc 4211 debc 06a9 a33b
000000e0: 2cf1 81bc 6d31 f33d e1f5 49bb 680d ef3b
000000f0: 9823 d73c c8f1 97bd 23cf 103c 0c21 89bc
-0.05456384 0.052493487 0.027420375 -0.046468794 -0.025124913 -0.03987521 -0.032551963 0.020848012
0.018767612 -0.030254884 0.009957025 -0.01934706 -0.02672968 -0.015234029 -0.08668319 0.032412697
-0.008795165 0.08954389 0.04371855 0.012589253 0.054162193 0.027925551 0.042828746 -0.031257328
-0.0037368983 -0.010924282 0.008954979 -0.047145694 0.013254337 0.016003197 0.027195456 -0.0687185
-0.0002945907 -0.020818673 -0.07359581 0.0010884975 -0.026225494 0.041125033 -0.06519659 0.053213447
0.003359954 -0.092503436 -0.05048328 0.023693534 0.036025822 -0.048989784 -0.043920737 -0.016633267
-0.01694798 0.020937761 -0.023638666 -0.025207255 0.015536353 -0.008283325 -0.027107839 0.0049945144
-0.01586207 0.118746616 -0.0030816721 0.0072952993 0.02626209 -0.07419163 0.008838448 -0.01673939

cnn.6.weight f4 [64, 64, 3, 3]
00000000: a979 d5bc 6bd2 15bc 9b43 403c 6bb5 3a3c
00000010: 07ef 52bc 6f2e 06bd 7ddc 0bbd a198 db3c
00000020: ff5f 3bbd 569f 5bbd d7c3 3f3d 9f3c 303d
00000030: 7791 9a3c 45b9 223c d9a3 eb3d ef4a e8bc
00000040: 1ace 44bc b66d bf3d 665f acbd 00d4 c1bb
00000050: 3c4c 3c3d 2f3f 133d 3aaf f0bc 54aa 9cbd
00000060: 167d cfbc 439c e3bc 4017 bb3c 3d17 6dbc
00000070: 35e6 b13c 4e98 64bc d0c6 d1bb 87eb 39bd
00000080: 76c9 fe3c fb12 6c3c e7b8 fdb9 ff04 7e3b
00000090: e180 613d 7977 79bb 5dc5 2b3d 9b5b 4fbd
000000a0: ef92 4abd 2eb9 6dbc 1f9f c8bd a468 86bc
000000b0: 233e 093e 8e19 4cbd 0364 69bc cdea c63c
000000c0: a27c d3bc 54c5 913b c25f 8ebc 8cfc 9f3c
000000d0: aa55 203d a778 4d3c cf44 4cbd 7e7e 8d3d
000000e0: b26f 36bd e7b4 b3bc 324e 8c3d a18d c1bb
000000f0: 2aa7 fd3c c80c d5bb aa2f b83d ce99 5fbc
00000100: bf30 f43c ed18 a43d e26a 463d 954e 0fbd
00000110: fd95 82bd f392 1bbd d0ce 89bd 2f65 aa3c
00000120: 926c 7f3c 4e69 85bc c0eb 423d 2870 a33c
00000130: e5aa be3c 1fc8 ae3c ea8e 27bc 215a 073a
00000140: bb3c 05bd 3c06 573b 3542 1a3d 7892 ab3b
00000150: ffd5 dabc d0ca e33c 31eb 37bd 3476 f13a
00000160: 2148 3fbc 4a97 31bd e2e8 223c cdbe 683d
00000170: 3796 9c3d 9acf 55bc 3db3 36bd 54f4 013b
00000180: 3b0d b93c 8d5b a1bc c863 1f3c 4287 503d
00000190: 8f92 2ebd c1fa 803d d03f 30bd c248 6cbd
000001a0: 27e2 7f3c 5687 de3c 62e2 973c 6410 8b3d
000001b0: 1ec8 b1bc 4f72 91bc d353 e53d df31 16bb
000001c0: 7e47 843c be74 cbbd b957 2ebd 409d e23d
000001d0: 1d05 aabb f7c8 0c3d fca9 333c d9f9 113b
000001e0: 455f f93b 489c 0a3c a96a 32bd 3e97 31bd
000001f0: 7df3 dc3c 678e d23c 9aef 1bbc 250d 29bc
00000200: c3e9 fcbc 1179 143d 8449 173d d52b f4bc
00000210: 5c15 7a3c 8fde cebc 1e46 efbc 1a86 ce3b
00000220: 19ba 393c 2134 9a3d a0fa a4bd f094 073d
00000230: 60a8 af3c 3b8e b9bc 7daf 443d 969a 503d
00000240: 35ae 303d 51f6 abbd 1fd3 1c3c 43ca 8b3a
00000250: 7542 7bbd 3c6b 2f3d ffd4 213d 29fa c53c
00000260: 30a5 143d bc4b 043e ecd6 a93d 4a9d 8b3d
00000270: fe62 4b3d f886 0a3a d079 08be 40cb 2e3c
00000280: 0076 fd3c 58f2 c93d b4e5 db3d af60 15bd
00000290: 59f4 33be 2cbc 3c3c 3e87 f9bc 70ee 253e
000002a0: 557d e4bc 7ae8 ec3b 11e1 363e 94e3 fdbb
000002b0: 41cb 173c 1e05 2a3c 1458 0e3c aefd 303c
000002c0: 7471 52bc c4d3 4cbd 1e6a fb3c 4a41 35bc
000002d0: b0e3 a33c 21de 75bd c306 47bc 596d f53c
000002e0: 27cf 96bc 75a4 383b 51a9 633a 46c9 48bc
000002f0: 7822 51bd f1c0 223d 7549 17bd e38a 7a3c
00000300: d8c7 dabc 195a 933d ce5d 373c 6036 553c
00000310: 929b 2bbd d4fb 88bc 55be 5b3d fd1c b23b
00000320: 3b2e 90bd d20e aabc 24e1 21ba 25fd 03bd
00000330: f0ff ce3d 82a0 21bd c4c8 a33c 3c3d 6bbd
00000340: 608c ebbc 5ef4 063c b86c adba e6ad c7bc
00000350: cedb 833d 24cb ad3b 30d2 7a3d 673e 553d
00000360: 83ce b23c f80f c7bb aed9 4e3c 1380 a03c
00000370: f922 08bd 2aa8 18bd 925d 45bd 7395 95b9
00000380: 59fa 37bd 613e bc3c 748e c3ba ef15 863b
00000390: 586c a0bc 1fca 4ebc e15a 02bd 65cf a63c
000003a0: f63c f33c 1b9e 723c 29d5 c3bd 9bba 3b3d
000003b0: 8158 fb3c 45af 203c 7dd4 36bd 2285 50bd
000003c0: 529c 05bd 2312 a23c 7ce1 433d 25c9 fdbb
000003d0: 1fbb 563b 09e0 05bd cd16 ce3c 5fe6 5bbc
000003e0: 9a58 b9bc 3db3 043d c571 13bd 305b d2bc
000003f0: db26 52bd bbbe ba3c 3ab2 20bd 23cc 143c
-0.026058989 -0.009144406 0.011734868 0.0113957925 -0.012874371 -0.032759126 -0.03414582 0.026806178
-0.045745846 -0.05361875 0.046817627 0.043026563 0.018868191 0.009931867 0.11505861 -0.028356044
-0.012012029 0.093470976 -0.08416633 -0.005915165 0.04597114 0.03594893 -0.02938043 -0.07649675
-0.0253282 -0.027784472 0.022838235 -0.0144708725 0.021716217 -0.013952328 -0.006401874 -0.045390632
0.031101923 0.014408822 -0.00048393683 0.0038760302 0.05505455 -0.0038065596 0.041936267 -0.05062447
-0.049456533 -0.014509482 -0.09795975 -0.016407318 0.1340261 -0.04982906 -0.014245036 0.024281884
-0.025816265 0.004448572 -0.017379645 0.019529603 0.039144196 0.012540973 -0.04987031 0.06908892
-0.044540115 -0.021936847 0.06850852 -0.005906776 0.0309635 -0.006501768 0.08993466 -0.01364751
0.0298084 0.08012567 0.048441775 -0.03498705 -0.06376264 -0.03798194 -0.067288995 0.020800201
0.01558985 -0.016285565 0.04758811 0.019950941 0.023274848 0.02133566 -0.010226944 0.00051632716
-0.03252862 0.0032810112 0.037660796 0.0052359663 -0.02671337 0.02780667 -0.04490203 0.0018422068
-0.011674912 -0.04335717 0.009943219 0.056822587 0.07645839 -0.013049984 -0.04460453 0.0019829469
0.022589317 -0.019696975 0.00972838 0.050910242 -0.042620238 0.062978275 -0.043029606 -0.057686575
0.015617884 0.027164143 0.018540565 0.06790236 -0.021701869 -0.017754702 0.11197629 -0.002291791
0.016147371 -0.09934376 -0.042564128 0.11065149 -0.005188598 0.034371343 0.01096582 0.0022274165
0.007610234 0.008460112 -0.04355875 -0.043357126 0.026971573 0.025702668 -0.009517575 -0.010318075
-0.030873185 0.03624827 0.036935344 -0.029806057 0.0152638815 -0.025252609 -0.02920824 0.0063026072
0.011335873 0.07529474 -0.080556154 0.033101022 0.021442592 -0.022650829 0.04801892 0.050928675
0.043134887 -0.083965905 0.00957182 0.0010665137 -0.061342675 0.042826876 0.03950977 0.024167137
0.036290348 0.12919515 0.08292946 0.0681711 0.049654953 0.0005284394 -0.13327718 0.010668576
0.030940056 0.098606765 0.10737172 -0.036469158 -0.1757368 0.011519473 -0.030459996 0.16204238
-0.027891794 0.007229862 0.17859294 -0.0077480767 0.009264768 0.010377197 0.008687992 0.010802669
-0.012844432 -0.050006643 0.030690249 -0.011062929 0.02000603 -0.06002629 -0.012147608 0.029959368
-0.018409325 0.0028174196 0.0008684593 -0.012255019 -0.051058263 0.039734785 -0.03693529 0.015291902
-0.026706621 0.07194919 0.011191798 0.013013452 -0.04189641 -0.016721644 0.05364831 0.0054355846
-0.07040068 -0.02075902 -0.0006175211 -0.03222384 0.1010741 -0.039459713 0.019993193 -0.057431445
-0.02875346 0.008236973 -0.0013231253 -0.024374913 0.06438409 0.0053037573 0.061235607 0.052061465
0.021826988 -0.0060749017 0.012625141 0.01959232 -0.033236478 -0.03726975 -0.04818494 -0.00028530843
-0.044916485 0.022978963 -0.0014919774 0.00409197 -0.019582912 -0.012621432 -0.03182495 0.020362565
0.029692154 0.014808203 -0.095621414 0.045832258 0.03068185 0.0098074125 -0.04463624 -0.050908215
-0.03261978 0.019784039 0.04782246 -0.0077449256 0.0032765341 -0.03268436 0.025157357 -0.013421624
-0.022625256 0.032397497 -0.03599717 -0.025678247 -0.051306587 0.022796025 -0.03923247 0.009081873

cnn.6.bias f4 [64]
00000000: 3806 0e3d 34ac 2abd 2f6c 843c b3c1 f4bc
00000010: ce51 813b 2add af3c 5ef2 0f3c fce6 98bd
00000020: 8641 133b c6b6 83bc ad11 3a3d 4014 3ebd
00000030: 5d68 08bd 6201 bcbc d8da 683b 3a10 79bc
00000040: d2c8 29bc a211 1fbd 0d56 a5bd 1240 3ebc
00000050: 2121 a23c cbda bfbb 4164 893c f884 8fbd
00000060: 7125 cd3c ace1 1bbd 07ca 173d d2c5 05bd
00000070: cada 31bd 1b98 e7ba df0b ee3c 7216 6fbd
00000080: 7a8e b2bd d2ec f83b bc2b 21bd 21fc 013d
00000090: 7d8e 423d 5f54 b43c aa2e acbc 19b8 fc3c
000000a0: 59f7 9cbb 06f7 893c a7f0 13bc d45b 833b
000000b0: 164f eb3b e019 72bd 1c50 063d 92d3 30bd
000000c0: 8f63 8ebc 2255 fbbc 7be3 b2bc ef60 e1bc
000000d0: bde7 c53c 3c80 123d 2bdf 423d 3015 91bd
000000e0: 71e2 70bd 1655 6abd 8ae8 a5bc dcb0 8cbc
000000f0: 254e 213c 0d23 273c 09c5 1abd 20e1 2a3d
0.0346739 -0.041668132 0.016164867 -0.02987752 0.0039465195 0.021467764 0.008785812 -0.07465932
0.0022469475 -0.016078364 0.045427013 -0.04640603 -0.033302654 -0.022949878 0.0035530832 -0.015201623
-0.010362821 -0.038835175 -0.080730535 -0.011611955 0.019791188 -0.0058549396 0.016771438 -0.07007784
0.025042268 -0.038057014 0.037057903 -0.03265936 -0.043421544 -0.0017669232 0.029058395 -0.058371015
-0.087185815 0.0075965906 -0.03934835 0.03173459 0.04749917 0.022012888 -0.021018345 0.030849503
-0.0047902283 0.016841423 -0.009029544 0.0040087495 0.0071810586 -0.059106708 0.032791242 -0.04317052
-0.017381458 -0.030680243 -0.021836987 -0.027512042 0.024158353 0.035766825 0.04757611 -0.07084119
-0.0588097 -0.05721005 -0.020252485 -0.017174177 0.009845291 0.010201228 -0.037785564 0.041718602

cnn.8.weight f4 [512, 64, 2, 2]
00000000: 03b5 15bd 83ad c13d 2a54 673d aed5 973d
00000010: d6d3 dfbb e65d 25bd 7ec0 903c b3cf 633d
00000020: 83d6 c83a d3a9 bb3d aaca 6d3d 64c0 7bbd
00000030: 5e9a 173d fce6 af3b e1bd 2ebd 9904 953d
00000040: 3904 01bd c1c9 de3d cfa4 423d 3104 33bd
00000050: 66d2 9fbd 02b5 18bd f758 2dbe c1b0 d4bd
00000060: 4313 823c ae20 653b 973b d83b 757c 8b3d
00000070: e551 533d ab7d 593d 121c bf3c 636a 16bd
00000080: a19e bbba 989a d83b 33ee c5bd 1844 96bb
00000090: 361b 83b9 1739 9cbc 795b bbba 90dc 503d
000000a0: e37c bc3d 20f7 c7bd 9788 023d 7f85 d13d
000000b0: af46 823b a980 01bd 8f2c c83c 3dc4 8d3d
000000c0: ece5 843c d99f 303d 3837 433d 66eb c73b
000000d0: f73e 0fbd 4f10 c9bd d849 f7bc 5e95 953d
000000e0: 2113 2f3d 7011 a3bc 2405 82bc 7bfc f8bc
000000f0: f6cf 623d 6824 d03c 3ca6 1a3d ae4f 7d3d
00000100: 1986 88ba 293a 55bc bde3 9fbc 77b2 fa3c
00000110: b526 3d3d 4b3a ddbc b4eb d93b 0bba 3dbb
00000120: 5df2 6bbc 56dc 4b3c 5688 5ebc d9cf ba3c
00000130: ab12 993d 108a e13d cd45 133d da1b 98bd
00000140: 2947 133d 0a61 4abd e371 1239 89e0 34bd
00000150: 65cc 303c 47c6 c6bc 43db 183c 4ca8 24bc
00000160: 215a d3bb 261a 873d 7878 6f3d c946 5bbd
00000170: 4ac1 dfbc 3c0d 38bd 5a48 36bc 9c84 fc3c
00000180: 6f0e 283d c60d fcbd 5b27 96bc a6dc a7b9
00000190: dc2c 513d f390 8f3d 188e 223d 6a6e 0ebd
000001a0: f507 763d bdc9 a4bc c1bc 6abd 9515 06bc
000001b0: 0d3d 24bc 42c6 513d 1841 5abd cf06 a83c
000001c0: c712 d0bc b3ce da3c 2b15 363c 7eb3 e43c
000001d0: 89ca 083d a6de 9a3d 931a aebd b394 d6bd
000001e0: 56ed 6dbc 6c61 25bc f8a0 98bd c408 733c
000001f0: 43ff 363c 4805 4a3d 7a13 713d 3128 f8bc
00000200: ab51 20bd 12aa 953c 8737 2d3d 8a6f 243d
00000210: b67c 333d f312 28bd 2873 52bd b333 6c3b
00000220: a351 f1bd b275 263d aaa4 99bd 34a5 adbd
00000230: 88ae 363c 0e1b fc3a 9795 c13c 3efc 38bd
00000240: 6b68 4b3d 86a7 343d 9a99 11bd 136b 1f3d
00000250: a489 933d 1a28 f4bc 107e 07be b634 e43c
00000260: b5a5 833b bebe e5bc 0f55 a4bc 312f bebc
00000270: 6907 c3bb 7f7a 773d ddeb 473d fc52 623d
00000280: 8cdd 653d 7836 5b3b 02d4 e6bc a4e1 8a3c
00000290: 3a57 b63d c042 a2bd c6ef 433c 47df 60bd
000002a0: 1e61 02bb 1485 a3bc 43a7 803d c0b5 2c3d
000002b0: 186a f73c 8d21 0fbc f659 02bd 30e5 15bd
000002c0: a6cd 92b9 80ed 06bc 2ace 6abd 6bf3 eabc
000002d0: f7de 333d 5990 2b3d d769 7b3d 42e8 093d
000002e0: 02f9 e63c b383 1bbb ba5d c63c ba8e 82bc
000002f0: eb60 f7bc a830 573d ac07 3ebd 39d2 8cbc
00000300: 18e3 00be f2d3 973d 65d2 963a e4b5 a53d
00000310: fd1b 373d 4590 5fbb f211 5cbd 67f5 88bb
00000320: fcb1 773d a6fc 1ebd 7352 e1bc f277 a13c
00000330: e931 5c3d 31ec 0a3e 4b65 d93d 3dda fdbc
00000340: 4c65 07be a2a9 2fbd 61ca 9e3d 680d 043e
00000350: dd50 6f3d 902d 06bd d989 963c 6545 fe3d
00000360: e64c 073d e03a 40bd 1538 863d c714 1f3d
00000370: a4f0 f3bc bd11 6f3d c6ce 0cbd 8462 8cbc
00000380: 1dcf 10bd 4f19 6cbc afd2 023d c307 563d
00000390: 9f7f 33bd 55b6 0fbd ff66 eebc 2dfa c53c
000003a0: d094 91bc 62c4 2fbd d0ca 273d c22b 403d
000003b0: 1f2d d83d 00cc b0bd a154 61bd fbce 2e3d
000003c0: 673f 913a 7a18 05bd 5337 0cbd 68ac 543d
000003d0: dd58 7b3d b46b 6dbc ca4f 6ebd adf4 18bd
000003e0: 98f2 53bd 6b77 6c3d c628 78bc 15f2 8eba
000003f0: 5139 08bd e3a5 853b 57a2 b0ba 9406 0d3c
-0.03654958 0.09456923 0.05647675 0.07413803 -0.0068306727 -0.04037275 0.017669912 0.055618
0.0015322719 0.09163251 0.058054604 -0.061462775 0.03701245 0.0053681117 -0.04266155 0.072762676
-0.031498168 0.10878325 0.047520455 -0.04370517 -0.07803802 -0.037281998 -0.16928469 -0.10385276
0.015878325 0.0034962106 0.0065989005 0.06810848 0.051591773 0.053098362 0.023328815 -0.036722552
-0.0014314243 0.006610226 -0.096645735 -0.004585754 -0.0002500654 -0.019070191 -0.0014294229 0.050991595
0.09203508 -0.09763932 0.031868543 0.102305405 0.0039757113 -0.03161684 0.02443531 0.06922195
0.016222917 0.043121193 0.047660083 0.0061010597 -0.034972157 -0.09817564 -0.030186579 0.0730388
0.042742852 -0.019905776 -0.015871592 -0.03039383 0.05537411 0.025407985 0.03775619 0.061843567
-0.0010415941 -0.013014355 -0.019517774 0.030602677 0.046179492 -0.027005335 0.0066504125 -0.0028950002
-0.014401046 0.012442669 -0.01358231 0.022804188 0.07474264 0.110126615 0.03595524 -0.07427187
0.035956535 -0.04940895 0.00013966071 -0.044159446 0.010790919 -0.024264468 0.00932962 -0.010049891
-0.006449953 0.06596784 0.058464497 -0.053534303 -0.027313847 -0.044934496 -0.011125648 0.030824952
0.04102939 -0.123073146 -0.018329313 -0.00032017118 0.05106817 0.07010069 0.039686292 -0.034773268
0.060066182 -0.020115728 -0.057308916 -0.0081838565 -0.010024321 0.051214464 -0.053284734 0.02051106
-0.025399579 0.02670989 0.011113445 0.02791762 0.033396278 0.07561998 -0.085011624 -0.10477581
-0.014521917 -0.010094028 -0.07452577 0.014833633 0.011169258 0.049321443 0.058856465 -0.030292602
-0.039140385 0.018269572 0.042289283 0.040145434 0.043820105 -0.041033696 -0.051379353 0.0036041557
-0.11783149 0.040639587 -0.0750211 -0.084787756 0.01115001 0.0019234137 0.0236309 -0.045162432
0.049660128 0.044105075 -0.035546876 0.038920473 0.07203987 -0.029804278 -0.13231683 0.027857166
0.0040175566 -0.028045055 -0.02006009 -0.023215862 -0.005951811 0.060419556 0.04880892 0.05525492
0.056119487 0.0033449214 -0.028177265 0.016953297 0.08903356 -0.07922888 0.011959022 -0.054900434
-0.0019894312 -0.019960918 0.06281903 0.042165518 0.030201957 -0.0087360265 -0.031824075 -0.036595523
-0.0002800051 -0.008235335 -0.05732552 -0.028680524 0.043913808 0.041885708 0.061380234 0.033668764
0.028194908 -0.0023729622 0.024214614 -0.015937198 -0.030197581 0.052536637 -0.046394035 -0.017190086
-0.1258663 0.07413472 0.0011506794 0.080913335 0.044704426 -0.003411309 -0.05372805 -0.004179645
0.060472474 -0.038815163 -0.027505135 0.019710515 0.053758536 0.13566662 0.10615023 -0.030987853
-0.13222235 -0.042886384 0.077534445 0.12895739 0.058426727 -0.032758296 0.018376278 0.1241558
0.03303232 -0.046931148 0.065536655 0.038838174 -0.029777832 0.058366526 -0.034376882 -0.01713682
-0.03535377 -0.014410331 0.031939205 0.052253496 -0.04382288 -0.035085995 -0.029101847 0.024167145
-0.017771155 -0.042911895 0.0409649 0.04691673 0.10555481 -0.0863266 -0.05501235 0.04267786
0.0011081517 -0.032494046 -0.03423245 0.051922232 0.061364044 -0.01449101 -0.05818156 -0.037342716
-0.051745027 0.057731073 -0.01514644 -0.0010905886 -0.033257786 0.004078613 -0.0013476115 0.008607525

cnn.8.bias f4 [512]
00000000: f7b1 57bd a7be 95bd 4ed9 9fbc fbf3 a0bc
00000010: 8542 1c3d d855 1fbd cbc3 9dbd fff2 d43c
00000020: eb48 9dbd 6f6a 4d3d b6ec d1bc 43f6 6f3d
00000030: 959f 893c ccd2 71bc f9e1 d1bc d9a3 283d
00000040: f023 3e3d 1417 17bd 5dc3 0cbc cd61 0dbc
00000050: f0f8 8dbd 85da c03c 573f 4e3d 627b fb39
00000060: 1d62 9dbd 31aa 363c ac3a 893c 1882 443d
00000070: d20d 2bbc c8c2 853c d0fe 31bd b005 dc3b
00000080: 7d24 693b 04bb 1e3b 753b 1dbd 1dc1 23bc
00000090: 902f 3c3c 15f5 d6bc f407 a93c 6310 e0bc
000000a0: 08ed adba af37 703c 2e8c 3a3c b02d 8abc
000000b0: 0212 42bc 2b28 903d 3d8f 8fbc b4d6 d1bc
000000c0: 0b8f d63c 0c9e afbc d709 03ba 106e f2bb
000000d0: eeec 1cbb 6c57 bb3c 4415 1dbd 8594 88ba
000000e0: 182d 933c 9d12 623c 7502 dc3c cb4a 8cbd
000000f0: a6b8 023d a45b 8b3d 28da 65bd 77ad 2ebd
00000100: 0ecf 793c 06e4 a73d d758 29bd e309 36bd
00000110: bbe6 75bb 4090 8c3d 8a01 66bd 4c59 da3c
00000120: 694b 87bc 3b48 8ebd 1414 e3bc 3c1f c7bd
00000130: 136f 4b3d ba05 dbbb be6f 1cbd 5f20 6dbc
00000140: cada 83bc 3a03 d7bb c133 a6bd a8a5 d13b
00000150: ae74 59bd fc00 d9bc 456c 8cbd e991 d83c
00000160: 221e c1bb 15d9 2d3d 85db 6abd e358 d6bc
00000170: daf0 fbbc 4564 41bc 347d ca3c c0a4 033b
00000180: ffbb 47bd 0e34 28bb 1ebe 8fbd 7c25 803b
00000190: 88af 4cbd f881 4e3d aa1a 553d bd09 07bc
000001a0: 0a1c 13bd 85ff b0bd f4a6 b13c d322 eb3b
000001b0: 4b12 3c3c 8b4a 053d 00aa febc 2450 be3c
000001c0: e501 763d cd6e 703d 9d1f 6ebd 8df7 2d3c
000001d0: 5885 a8bd 8ed2 133a 1ded 0d3d 6ab7 3cbb
000001e0: e4b7 e73c a2cc 103d 91b6 e33b 3c39 74bd
000001f0: 7c41 c9bd 9ee0 293d 7d02 d6bc f87c 40bd
00000200: 0fc3 fabc f617 c23d 9fec bbbc 5139 be3c
00000210: 56cf 42bd 57c9 3039 bc46 11bd 428a 50bd
00000220: 85c6 3e3d f518 c13d b8f0 323d e68f 23bd
00000230: 9d06 47bc 007d a73a e40b 01bd d636 9abc
00000240: 4977 b4bc ba83 fdbc 1939 d23b 66b4 adbc
00000250: f200 733d d943 9b3c 5c02 72ba 6331 8e3d
00000260: 45ab 3abd bfbe 7d3d d3c4 aebc 4b77 99bd
00000270: 3314 203d 22ee 103d e17c bb3c 02d3 05bc
00000280: c3bf ac3d cd1d 3ebd 75f7 723d 4486 87ba
00000290: 9d6f 8f3d 1822 2a3d c8f8 2e3d 3305 3dbc
000002a0: 20c0 6dbd 2d84 1bbd e2c8 0ebd 2394 4fbd
000002b0: 7c3e d33c db9a 4cbd 06c7 66bd d0e8 d9bc
000002c0: 1a2b db3c a326 a73d 62f0 9cbd c544 433b
000002d0: ee54 a23d 3b29 78bd 11b6 803d 4a18 863c
000002e0: ca03 0e3c 9a3c 33bd 5adb abbd 10c1 b9bc
000002f0: 312d f2bb a877 66bd 7e6e 453d 8a2c 99bd
00000300: c1c7 853b 801a ebbc 41c7 833c 2f55 e8bc
00000310: 834f db3d 4615 a2bd e0fa d63c 0ece 9abd
00000320: a251 73bd 8336 52bc 6b5c 18bd 1feb 073d
00000330: c9fd d63c f6e8 8b3d 4a38 533d cecc 0a3d
00000340: 93c1 843d ea49 0cbd 134a 44bd b3e2 b53c
00000350: 5de7 2b3c 8bc7 5dbb 92f6 35bd 2545 8a3d
00000360: f581 35bc 668e 963c f55f e5bc 5f0f 253d
00000370: d786 d03c 77e7 72bc 91a0 6b3c f365 5bbd
00000380: 208f 233d c388 113d 50cb 51bc 1ed1 d33d
00000390: f8b1 aa3b dbdf f6bc 16df 9cbd 1b44 d33c
000003a0: 7a93 72bd d1d1 7ebc 98bb a23c 26a9 06bd
000003b0: c205 743d af7e a83d 159a 633d 6cb6 66bc
000003c0: 3382 21bd 3a65 10bd 997b 8ebd d97f 483d
000003d0: 2b26 d43c 1148 993c 58b2 4337 11d8 85bd
000003e0: 470b c83d c43e 1a3d d9d5 153d 967d 1d39
000003f0: 82a0 47bc 692a d23c 2eee f6bc 1b9b 6abd
-0.052659955 -0.07311755 -0.019512799 -0.019647589 0.038149375 -0.038900226 -0.0770336 0.025994776
-0.076799236 0.05015033 -0.025625568 0.058584463 0.016799727 -0.014759731 -0.025620447 0.041171882
0.04642099 -0.036887243 -0.0085915 -0.008629275 -0.06932247 0.023541698 0.050353374 0.00047966378
-0.07684729 0.011148975 0.01675161 0.04797563 -0.010440307 0.01632823 -0.0434559 0.006714545
0.0035574727 0.0024220357 -0.03838678 -0.009994772 0.011485949 -0.026239911 0.020633675 -0.027351564
-0.0013269493 0.0146617135 0.0113859605 -0.016867489 -0.011845114 0.070389114 -0.017524356 -0.025615074
0.026191255 -0.021437667 -0.00049987197 -0.0073983744 -0.0023944932 0.022868834 -0.03835036 -0.0010420239
0.017965838 0.013798383 0.02685664 -0.06850203 0.031914376 0.068045884 -0.056116253 -0.042645898
0.01524712 0.08197789 -0.04134449 -0.044443022 -0.003752156 0.06863451 -0.05615381 0.026653908
-0.01651545 -0.069473706 -0.027719535 -0.09722754 0.049666476 -0.0066840323 -0.038192503 -0.01447305
-0.016095538 -0.006561664 -0.0811534 0.0063979216 -0.05308979 -0.026489727 -0.06856588 0.026436763
-0.0058934847 0.042443354 -0.057338256 -0.026165431 -0.030754495 -0.011803691 0.024717905 0.0020087212
-0.04876327 -0.0025665793 -0.07018684 0.0039107185 -0.049972087 0.050416917 0.052027382 -0.008242068
-0.035915412 -0.086424865 0.021686055 0.007175782 0.011478971 0.032541793 -0.031086922 0.023231573
0.0600604 0.058699418 -0.058135618 0.010618103 -0.08228558 0.000563898 0.034649957 -0.0028795847
0.028285928 0.035351403 0.006949254 -0.059624895 -0.09826943 0.041473977 -0.026124233 -0.04699418
-0.03061059 0.094772264 -0.022939978 0.02322069 -0.047561012 0.00016859673 -0.03546785 -0.050913103
0.04657604 0.09428588 0.0436866 -0.039932154 -0.012147573 0.0012778342 -0.03150548 -0.018824976
-0.022029536 -0.030946601 0.006415498 -0.021204185 0.059327073 0.01895325 -0.0009231919 0.069430135
-0.04557349 0.061949488 -0.021334087 -0.074934565 0.039081763 0.03538335 0.022886695 -0.008167984
0.08435013 -0.04641514 0.059318025 -0.0010339697 0.070037104 0.04153642 0.042717725 -0.011536884
-0.058044553 -0.03796785 -0.034859546 -0.050678384 0.02578663 -0.04995237 -0.056342147 -0.026600271
0.02675395 0.08161666 -0.07663037 0.0029795629 0.07926355 -0.060586195 0.062847264 0.016369004
0.008667896 -0.043758966 -0.08391447 -0.022675067 -0.007390641 -0.056266457 0.048201077 -0.07479198
0.0040826504 -0.02869916 0.016086223 -0.028360931 0.10708525 -0.07914214 0.026242673 -0.07558833
-0.059404023 -0.012830379 -0.03719751 0.033183213 0.026244061 0.06831543 0.051567353 0.033886723
0.06482234 -0.034250177 -0.047922205 0.022202825 0.010492173 -0.003384086 -0.0444246 0.067514695
-0.011078347 0.018378448 -0.027999857 0.040297862 0.025454922 -0.014825693 0.014381544 -0.053564023
0.039931417 0.035530817 -0.012804821 0.1034262 0.005209204 -0.03013604 -0.07659738 0.025789311
-0.059222676 -0.015552954 0.019864842 -0.032876156 0.059575804 0.08227288 0.055566866 -0.014081579
-0.03943081 -0.035252787 -0.06957168 0.04895005 0.025897106 0.018711122 1.166443e-05 -0.06535352
0.09767776 0.037657514 0.036580894 0.00015019471 -0.012184264 0.025654988 -0.03014287 -0.057276826
