models/AnnaCNN/decoder_weigths.pth (torch, 978695 bytes, 10 tensors)

cnn.0.weight f4 [512, 64, 2, 2]
00000000: e281 123d 29d6 36bc 53e0 67bb 2887 52bd
00000010: 22d1 eabc 45e6 19bd 1f86 833a 0d3e 9dbc
00000020: 0b36 2abc 2ecf 963c 2e39 4abd 0950 0e3d
00000030: 82e1 1dbd 3e50 003d cfd5 e23c 04d1 623d
00000040: 040f 5ebd 7735 91bd 624d 5bbd c1f1 8f38
00000050: 2b94 443c f1a3 4bbd ba63 4bbd ba95 e23c
00000060: bd0f 92bc be68 4a3d 255c 393d 5f4c 2a3d
00000070: 3b7a 05bd 9695 45bd dcf5 82bd 60e7 b0bd
00000080: 50cc 8d3d 6b91 0c3e 2ffe 0f3c 0e1e 88bd
00000090: 10aa 3e3d 2e52 1c3d 7bb0 2abd f859 d43c
000000a0: a3a0 6fbd b6ef 20bd 3f4c 5ebd 3ddc 2e3b
000000b0: f42e 8dbd f6cd 4d3d ad6c bdbc c215 013d
000000c0: 838f 0bbd 3352 ffba b7af 86bd 1b36 32bd
000000d0: 039c 69bd e2ba 793c 0914 cebb 8a7a 113d
000000e0: 2783 37bd 9c33 1d3d a06d 3abd b68e 433d
000000f0: f786 853d a007 d5bc 75f4 323d a940 233c
00000100: 0133 1b3d a299 df3b 981a 633c e331 063d
00000110: 2baa 1bbd 63f6 14bc d06c f33d 5763 133d
00000120: ce20 8a3c c916 ab3c fb76 453d 060f 16bd
00000130: c4b7 173e 1912 3e3d d17f 62bd 0032 b7bc
00000140: e85f e93c c2f0 233d 6ad2 1abd c4ca 79bd
00000150: 1241 39bd 4944 80bd 2387 833b d05c 0aba
00000160: 54b0 aabc 9c47 4d3d 43ed e93d eebc d03b
00000170: 37d0 36bd 3392 06bd 2fbd 97bd 14ef 1a3c
00000180: 576d 01bc 93e7 16bd 295d a3bb 4a1e 1a3d
00000190: 6ca1 0d3d 69f2 26bc e0f8 f4bb 8f4d ea3c
000001a0: 1914 0e3d d560 743c 8a9a e83c 6cc7 b7bc
000001b0: 4abd 25bd 8d07 4cbc 7cb5 3bbd 4819 e83d
000001c0: b307 85bd f94e 223d 7377 273d 8e64 93bd
000001d0: e5cc 1d3d 7c87 e43c 86f4 b53d 8876 45bd
000001e0: 0278 eb3b ed4a 0ebd 24db 27bd d66b 9bbc
000001f0: e82a 9f3d 1bff 20bd 43c4 433d 103a a7ba
00000200: 8e08 8abd f321 8b3c b40a 413d a393 c13d
00000210: c2f3 6b3b 98b7 a1bd 1331 013c b432 1dbd
00000220: f286 fd3c 2a54 473c 2744 53bc 3401 1ebd
00000230: 34f1 d23c 9f71 713c ea2e c7bb ee1f 05bd
00000240: 4726 e73d b040 88bc c2ef 03bc 844a 71bd
00000250: 1bb5 7939 c14c 2e3d 40a3 3d3d dfe2 95bd
00000260: 7a23 43bd 3d30 83bd a692 9b3c 6284 88bd
00000270: 3c2b 3f3d 6312 6ebd 580a 403d 27d7 ad3d
00000280: 9dfc 5bbd 1e9f a73d e5f3 4bbc 796f d13b
00000290: 2110 18bd 3664 abbd 8a60 38bd 26d2 abbd
000002a0: 5c71 94bc 8256 933c 166f 543b be20 b43c
000002b0: c803 eebd ec9b 48bc b1bc 533d ed31 a4bd
000002c0: 27fc f1b9 3c4c cbbb b2b2 7bbd 26a3 65bd
000002d0: 8272 f93c f7d9 c3bd da71 03be d923 403d
000002e0: f741 b63c 6e0f 143c eff0 d8bc baaa fdbc
000002f0: ca22 dc3c 3ebb 72bd 7e5c 323c 317b cf3c
00000300: 21e6 4abc 4429 dcbc d747 7dbd 3ded 373c
00000310: ff12 ae3c 5f43 24bd 0f48 a6bb 3461 abbc
00000320: b95e 98bd c65c 83bd 3eb0 2a3d 43cc d53c
00000330: 603f a63b d040 b2bd 3237 22bd 4fb5 2f3c
00000340: 9854 1bbd cb13 81bd 4978 32bd e6bf 3abd
00000350: cfb3 893c 5df6 1abd 535b 11bd a4c8 003d
00000360: f428 8f3c c9d1 5bbb 45a5 033d adc4 67bd
00000370: 9023 dbbc a708 193c 6e1d 8c3b a3c3 b93c
00000380: a7fa 9a3c 4fbc 77bd 52e3 4a3c 5e80 ad3c
00000390: 2267 2c3c 6722 f6bc 3e5a e23b c11f 103d
000003a0: f86b 173d ee14 86bd 66c5 52bc 0c2f 58bd
000003b0: bde7 e73a 3eea 3a3c a92b 48bd b35a 20bd
000003c0: 68ed b8bc 5384 0c3d fe92 94bb 171b 03bc
000003d0: f2af 95bd 3ed0 8bbc e090 373e 7a5b c73c
000003e0: 62c0 19bd cb86 56bd 4e34 31bd 5d25 7c3b
000003f0: 8141 b5bc e7df fb3b c399 c23c a81c 323d
0.035768397 -0.011159458 -0.003538151 -0.051398426 -0.028664175 -0.037573118 0.0010034478 -0.019194627
-0.010388861 0.018409338 -0.049370937 0.034744296 -0.03854514 0.031326525 0.027689843 0.055375114
-0.05421354 -0.07090276 -0.053540595 6.8638015e-05 0.011998217 -0.049716894 -0.049655654 0.027659286
-0.01782977 0.049416296 0.04525389 0.04157674 -0.03258727 -0.04823836 -0.0639455 -0.08637881
0.06923735 0.13727348 0.008788629 -0.066463575 0.046548903 0.03816431 -0.04167221 0.025921807
-0.058502804 -0.039291106 -0.054271933 0.0026681565 -0.06893721 0.050245248 -0.02312311 0.03151489
-0.03407241 -0.0019479453 -0.06576484 -0.04350863 -0.05703355 0.01524231 -0.0062890095 0.035517253
-0.04480281 0.038379297 -0.045514703 0.04774352 0.06519883 -0.026004612 0.043690164 0.009964147
0.037890438 0.0068237344 0.013861321 0.03276242 -0.03800408 -0.009091946 0.11885989 0.03598341
0.016861346 0.020884888 0.04820917 -0.03663542 0.14816195 0.046403978 -0.055297676 -0.022362709
0.028488114 0.040024526 -0.037798323 -0.060984388 -0.04522807 -0.06263024 0.0040139123 -0.00052781124
-0.020836033 0.05011712 0.11422207 0.0063701784 -0.044632163 -0.03285427 -0.07409131 0.009456415
-0.007899604 -0.03684194 -0.004985471 0.037626542 0.034577772 -0.010189631 -0.0074759573 0.028601436
0.034687135 0.014915665 0.028394002 -0.022433959 -0.040463723 -0.012452972 -0.045827374 0.11332947
-0.06495609 0.039626095 0.0408854 -0.07196914 0.03852548 0.027896635 0.0888453 -0.048208743
0.007185937 -0.034739424 -0.040980473 -0.018972319 0.077718556 -0.039305788 0.04779459 -0.0012758393
-0.06739913 0.016983962 0.047129348 0.094519876 0.0036003445 -0.07896346 0.007885235 -0.038378432
0.030948136 0.012166062 -0.012894667 -0.038575366 0.02574978 0.014736562 -0.0060785906 -0.032501154
0.11286598 -0.016632408 -0.008052768 -0.058908954 0.00023813958 0.042553667 0.046298265 -0.07318663
-0.047641255 -0.06405685 0.018990826 -0.06665875 0.04667209 -0.058123004 0.046884865 0.08488303
-0.053707708 0.08184646 -0.012448286 0.0063914624 -0.037124757 -0.08368723 -0.04501394 -0.08389692
-0.01812046 0.017985586 0.0032414845 0.021988269 -0.11621815 -0.012244206 0.051693622 -0.08017335
-0.0004615497 -0.006204156 -0.061449714 -0.056063794 0.03045011 -0.09563058 -0.128364 0.046909187
0.022248251 0.009036882 -0.026482074 -0.030965198 0.026872057 -0.0592606 0.01088631 0.025327297
-0.012383969 -0.026875146 -0.06183609 0.011225996 0.021249292 -0.040103313 -0.005074508 -0.020920373
-0.07439942 -0.064141795 0.041671984 0.026098376 0.005073473 -0.08703768 -0.03960342 0.01072438
-0.03792247 -0.06302603 -0.043571744 -0.045593165 0.016809372 -0.037832607 -0.035487484 0.031441346
0.017475583 -0.003354179 0.032140035 -0.05658405 -0.026750356 0.009340442 0.004275969 0.022676295
0.018918348 -0.06048232 0.012383299 0.021179374 0.010522636 -0.030045701 0.0069077304 0.035186533
0.0369682 -0.06546961 -0.012864446 -0.052779242 0.0017692965 0.011408387 -0.048869763 -0.039148998
-0.022574142 0.03430588 -0.0045341244 -0.008002064 -0.073089495 -0.017067071 0.17926359 0.024335612
-0.037536986 -0.052374642 -0.043262772 0.0038474419 -0.022125961 0.0076866033 0.02375496 0.04348436

cnn.0.bias f4 [64]
00000000: 29fd 2abb 656b e03c d688 6b3d d32d fdbc
00000010: 6d5b 903b 8f0b 643d 3e25 283c 9cc4 30bc
00000020: 0f45 073e 3411 2dbd 753a 35bd c40c 93bc
00000030: 5b37 22be 8407 4bbd 7c94 fcbc 3a84 58be
00000040: 981e 14bd 00d3 e33d 6e14 5cbe dec6 d3bc
00000050: e49d 3d3c 76b8 0fbd 1262 84bd 20c9 e33b
00000060: ab3b 263c 6d98 823d 5b25 49bd df0c 56be
00000070: dfb5 72bd b602 66b8 9f1e 70bd 2548 ca3c
00000080: 08a7 a2bd faea d4bb b399 053d e8e8 b0bc
00000090: 382b c5bc 199f 203c 965c 403c 861f 43b9
000000a0: bfc1 373a 020c 80bd 5fa7 c73b ebe3 e23d
000000b0: 042e 60bd c67f b13d 8537 843c efc0 67bc
000000c0: 57fa 863c 3989 dcbc 384f 70bd aabe 1bbb
000000d0: 020c 18be 79f6 e63c ec00 46bd 8039 a1bc
000000e0: 997a 05bd 27fd 123d 3703 ef39 79f2 533d
000000f0: c9d9 c03c 91be b8bd 7a8f 653d 15c6 d5bb
-0.0026090837 0.02739496 0.057503544 -0.03090564 0.00440543 0.055675086 0.0102627855 -0.010789063
0.13209938 -0.042252734 -0.044245202 -0.017950423 -0.15841429 -0.049567714 -0.030832522 -0.2114419
-0.03616199 0.111242294 -0.21492168 -0.025851663 0.011573289 -0.035088025 -0.06464018 0.006951466
0.010146062 0.06376729 -0.04910789 -0.20903347 -0.059255477 -5.4838798e-05 -0.058622953 0.024692604
-0.07942015 -0.006497738 0.032617282 -0.021595433 -0.02406846 0.009803557 0.011740824 -0.00018608393
0.00070097664 -0.0625229 0.0060929502 0.11078628 -0.054731384 0.08666949 0.016139755 -0.01414512
0.016476793 -0.026920902 -0.0586693 -0.0023764768 -0.1484833 0.0281937 -0.048340723 -0.019680738
-0.03258762 0.035885956 0.00045588028 0.05174491 0.023541348 -0.09020723 0.056045033 -0.0065238574

cnn.2.weight f4 [64, 64, 3, 3]
00000000: e87e 263d ab10 ee3c b241 96bb 15ae 42bd
00000010: d624 48bc f067 d5bc e916 973c 22d4 8e3c
00000020: 1516 25bc a92b 18bd c1b0 243b 681d 113c
00000030: 0433 433d eb08 173d d87c b03c f7e9 05bd
00000040: b0c1 87bc 9c9a d1bc 108a 2f3c 5b62 31bc
00000050: 6459 6abb 96d7 b13c 8579 4f39 4abf 193d
00000060: 6564 a1bc 45da 463b abb3 933d 7c2f fe3b
00000070: 0232 48bc b1c2 aabb f842 42bc 8b55 08bd
00000080: 5e74 073d 17a5 9a3b 9b3f 1e3d 3732 90bc
00000090: 2d87 503c 3643 df3b 65cf 33b9 c306 343d
000000a0: 9eae 933b 30da fa3c 3a16 303d 39a1 9d3b
000000b0: 0a73 cf3c 6750 293d cb2f b63c cc05 cdbc
000000c0: e36a 93bc 6c77 163d d79e bdbb 1c82 853c
000000d0: 402b ce3c 694b 1ebd 9b33 3c3d 9bfd 0e3d
000000e0: 0973 773c 3c4b c7bb 1ee4 abbc 96c2 0bbd
000000f0: d630 19bc 74a4 803c 1380 0e3d 098f 0cbd
00000100: c7b5 143d 4610 743d 5abc 423c e0b5 283c
00000110: cac7 d839 d2ba 2a3d ec5e 02bc f2cd 10bc
00000120: 21a5 c8bc bc84 06bd a0b1 62bc 1d83 b9bc
00000130: de49 293c 6899 ba3b dedb eb3c 52ee 5ebc
00000140: 9575 0ebd 96ab 033c 501b 0c3c b10c 0cbd
00000150: b659 ac3b d323 04bd 5388 0ebc c223 7cbd
00000160: 9ec9 dfbb 9a1f 37bd 0997 f2bc 0b83 053d
00000170: 6311 c13c 225c 043d bd8b 1a3a 177c 93bc
00000180: e993 01bd a271 05bd 4ecb d13c 062d 3c3d
00000190: c221 843c 4254 aabb a0ad 323d 9b58 ec3c
000001a0: aa87 2c3c 1c7f ba3c 7c0d 073d 3424 9e3c
000001b0: b685 e13c fec0 70bc b0ea b3bc eaf6 253c
000001c0: 1c20 983c 5d87 b73c e435 dabc c906 303c
000001d0: 60bd 973b 56a8 1b3b 0cee 15bd 6b24 90bc
000001e0: 5619 b339 91b2 b73b 784b 2cbc d37f 0bbd
000001f0: 20a8 0fbd d58b f2bc 2cef aa3c f6d6 e23c
00000200: fa43 7b3c da9a 7e3c f868 7bbc 3cad 42bd
00000210: 12a5 0f3d 4e09 eb3c 54b8 32bd 2eb7 5e3b
00000220: 1ebd 9abc 01fe 3ebc 8929 c1bc 5043 e43c
00000230: bb66 83bc 911c 27bc 8104 0e3d 359c 393c
00000240: 5b4f bb3c 6893 b0bc c9ae 00bd 53bd 123c
00000250: 8163 253b 751a 8a3c 59e8 bdbc 8d3a 6ebc
00000260: 5412 5d3d 4542 4b3b 8d14 15bd 2eda f93c
00000270: 5fa4 10bc 86bd 6d3c 37bc c93c d82d 3ebc
00000280: 0e8d 00bd 9ea5 1e39 3893 35bc 7af0 2a3d
00000290: e6bd c33b 7af3 9fbc b76a 42bc b298 2b3d
000002a0: 75dc f63a 86c6 85bc 9186 07ba 9c78 12bd
000002b0: 9fde a53b a1fd 433d eb0a 83bc 8b2c b33c
000002c0: 1ef5 da3a 2831 5abd 9e84 10bd d537 213d
000002d0: 90b8 ddbb cf5d a23c be0c e9bc 3c8a f33c
000002e0: 1f2d 043d 3a67 e63c 07ea ea3c a77b 11bd
000002f0: ffd2 e9ba c31f 383d 9f10 133d 6fd0 95bc
00000300: f5a3 553c d78e 8f3b d000 ef3c c3bd db3c
00000310: 6a5d babc 5534 053d 9685 e63b ce76 0cbd
00000320: 41e1 82bc 295d 2c3d 00f2 8fbc ff92 35bc
00000330: 4b01 2ebd 353b fd3c 49c4 0f3d e660 313c
00000340: 8c51 25bc ac8e 3cbc 8e1b 833c 9c00 1d3d
00000350: ee71 b23c 2f78 f93c f6e4 1cbd 9634 dfbb
00000360: 44ff cf3c 36c9 05bd 9ffe 583c 8f23 0c3c
00000370: 61cd 7d3c aa0e e1bb 4c55 2c3b 402d 27bc
00000380: ade0 7b3c 1318 b23c b0cf 283d 6e3b 393b
00000390: 9d7f 78bb 73cd b23c 58b0 f1bc d064 11bc
000003a0: c2f6 5f3d dcd6 d0bc eace 073d 772c 42bc
000003b0: f817 1b3d 26fc de3c d4c9 00bd 0f3c 4bbc
000003c0: ef3b 893c 6c46 133c 42eb 50bd 9d23 d2bc
000003d0: 3143 33bd c6cb e3bc 8cc8 37bb 210e a23c
000003e0: b890 38bd 802d 123d 330a c5ba 131e f6bc
000003f0: ab12 82ba 48d9 f3bc 1945 0ebd 0189 67bc
0.04064837 0.029060682 -0.004585468 -0.0475293 -0.012215814 -0.026050538 0.018443542 0.017435137
-0.010076066 -0.037151013 0.0025129768 0.008857109 0.047656074 0.03687374 0.021543905 -0.03269383
-0.01657185 -0.025586419 0.010714069 -0.010826672 -0.0035758847 0.021709245 0.00019786328 0.037535943
-0.019701192 0.00303425 0.07212003 0.0077571254 -0.012218954 -0.0052111973 -0.011856787 -0.033284705
0.03306996 0.0047193873 0.038634878 -0.01760207 0.012727541 0.006813432 -0.00017148031 0.04395176
0.0045069 0.030621618 0.042989947 0.004810479 0.02532341 0.041336443 0.022239586 -0.025027178
-0.017995303 0.036734983 -0.0057867575 0.016297393 0.025167108 -0.038646135 0.045947652 0.034909826
0.01510311 -0.0060819667 -0.020982798 -0.03412112 -0.009350022 0.015703417 0.03479011 -0.034316096
0.03630617 0.059585832 0.011885727 0.010297269 0.00041347585 0.041682072 -0.007957201 -0.008838164
-0.024492802 -0.03284143 -0.013836294 -0.022645527 0.010332553 0.005694557 0.028791364 -0.013606625
-0.034780104 0.008036515 0.008551434 -0.03419179 0.005259718 -0.032260727 -0.008699494 -0.06155754
-0.0068294546 -0.044707872 -0.029613035 0.032595675 0.023567861 0.032314427 0.00058954564 -0.018003507
-0.0316352 -0.03257907 0.025609639 0.045941375 0.016129378 -0.0051980326 0.043622613 0.028850844
0.010530392 0.022765689 0.032971844 0.019304372 0.027529579 -0.01469445 -0.021962494 0.01012967
0.018569998 0.022403413 -0.026637025 0.010743805 0.0046307296 0.002375146 -0.036603972 -0.01759549
0.00034160417 0.0056060036 -0.01051604 -0.03405745 -0.035072446 -0.029607693 0.020866 0.027690392
0.015336031 0.015539849 -0.015344851 -0.04752849 0.035069533 0.02869096 -0.04363282 0.0033983695
-0.018889006 -0.011657239 -0.023579376 0.027864128 -0.016040197 -0.010199682 0.034672264 0.011328747
0.022864988 -0.021554664 -0.031416688 0.008956271 0.002523631 0.016858319 -0.023182081 -0.014540327
0.053972557 0.0031014842 -0.036396552 0.030499544 -0.008828252 0.014510518 0.02462588 -0.01160761
-0.03138452 0.00015129751 -0.011082463 0.041733243 0.0059735654 -0.019525278 -0.011866263 0.04189367
0.0018834012 -0.016330015 -0.0005169893 -0.035759553 0.005061939 0.0478493 -0.015996417 0.021871826
0.0016705131 -0.053269535 -0.035282724 0.039359886 -0.0067663863 0.019820122 -0.028448459 0.029729001
0.032269593 0.028125394 0.028676046 -0.035518315 -0.0017839371 0.044952165 0.035904523 -0.018287865
0.013039579 0.0043810415 0.029175192 0.026823884 -0.022749621 0.03252061 0.0070349677 -0.03429299
-0.01597655 0.042081032 -0.01757145 -0.01108241 -0.0424817 0.030912021 0.0350993 0.010826325
-0.010090243 -0.011508625 0.01600435 0.03833066 0.021782842 0.030452816 -0.03830429 -0.0068116887
0.025390275 -0.032662593 0.0132443 0.0085534 0.015490861 -0.006868203 0.0026295958 -0.01020366
0.015373391 0.021739995 0.04121369 0.0028264183 -0.003791786 0.021826481 -0.029503033 -0.008874133
0.054678686 -0.025493078 0.033156313 -0.011851422 0.037864655 0.027219843 -0.03144248 -0.012404456
0.016752211 0.008988958 -0.05100561 -0.025651747 -0.04376525 -0.027807128 -0.002804312 0.019782128
-0.04505989 0.035687923 -0.0015032947 -0.030043637 -0.0009923776 -0.029766694 -0.034733865 -0.014131785

cnn.2.bias f4 [64]
00000000: 60f2 7f3c 27f1 c53b db36 ed3e 7d0d b0bd
00000010: df1d 2a3f be25 993e f220 8a3d 5290 06be
00000020: f6c7 4d3c 3a49 82bd 76b8 c53c 642d c63c
00000030: 4ef9 67be e7e7 58be 1634 1e3e 1b8a 443e
00000040: a13c 463e 3bd2 98be 670c cbbe 6d2d 6d3e
00000050: 2fc0 24be 8a69 c53e 5a1d b33e 52ed 93be
00000060: 5b64 acbd 2c86 83be aa6d 4abe 3cc1 58be
00000070: 4784 0dbe 460c ec3d b678 5f3e 27d2 a83e
00000080: 3e7d 41bd 2655 e0bd 5892 513e 4316 873e
00000090: ebc6 dcbd 3907 403d e4d5 d63c e584 2a3d
000000a0: 9948 52bd e9fc 50bd afcd b83e 12a9 89bd
000000b0: 8809 99be c4aa 1abe ad3e dc3e 1899 f8bd
000000c0: 960a b5bd 2484 2dbe 3c61 9ebe 7aee 473d
000000d0: 1e8d f3bd 69a3 723d f979 c73e bd71 a3be
000000e0: 82ac 15bd 7e7d fb3d 29a0 c6be 2993 a2be
000000f0: 84ed f13e 2c54 99bd 80e0 2e3e 01c7 b7be
0.015621752 0.0060407105 0.46330914 -0.08596323 0.6645183 0.29911608 0.06744565 -0.13140991
0.012559881 -0.06361623 0.02413581 0.024191566 -0.22653696 -0.21182214 0.15449557 0.19193308
0.19359066 -0.29847893 -0.396579 0.2316186 -0.16088937 0.38557082 0.3498333 -0.28892
-0.08417579 -0.25688303 -0.19768396 -0.21167463 -0.13819991 0.115257785 0.21823391 0.32972834
-0.04723858 -0.10953741 0.20465982 0.26384172 -0.10780128 0.046881888 0.026225038 0.041630644
-0.051338766 -0.051022444 0.36094424 -0.06721701 -0.29890084 -0.15104204 0.43016568 -0.12138575
-0.0883991 -0.16944939 -0.3093356 0.048811413 -0.1189215 0.05923787 0.38960245 -0.31922713
-0.03654147 0.12279795 -0.38794068 -0.317529 0.47251523 -0.07486758 0.17077827 -0.35894015

cnn.4.weight f4 [64, 64, 3, 3]
00000000: 8b02 303d 5e80 103c a603 653c aae8 c83c
00000010: 68a3 15be 6539 fe3b e58c 5e3b 5635 8fbc
00000020: c864 98bd 9f57 cc3d e80a 303d e7ab 1cbb
00000030: e077 d03a 7268 43be 732e 5c3d eedd 143d
00000040: e161 1b3b e6b2 be3d bd36 e83c fe9a 2b3d
00000050: d396 85bc ab7d 353d 2299 723c c204 9e3d
00000060: e6f6 193d 742c 833d 1d28 ec3d 7140 38bc
00000070: 31d2 12bc 6fa5 0fbd df2c aa3d 14a2 11bd
00000080: e879 17bd a285 7a3c 18f4 a6bc 620c 213d
00000090: 1a0f 473d 5159 37bd 91f7 373b 79fc 633d
000000a0: 43c1 99bd 2725 77bd 072c c0bc a470 7ebd
000000b0: f650 4a3c 4816 613d 0d3d 173d 7b48 d43c
000000c0: 98de 62bd feaf 863c bf35 13bd 574c fdbd
000000d0: e9e8 6b3d 0ecf 1cbe 1400 593d e980 213d
000000e0: 1118 79bd c0eb 733d a82a 65bd c8e3 f4bd
000000f0: 7563 c6bc cfb4 2bbe f317 cfbc dbb1 cabd
00000100: 1b6a 27bd 9941 193d f848 94bd b50d f03d
00000110: ea36 a4bd 4553 603c 6919 7cbc d650 9fbd
00000120: aa59 82bc 75d5 acbc ba49 76bd 2d8f 273d
00000130: ce64 8fbd f529 093e 2553 aabd 7d88 a13d
00000140: 2c2b 3cbd 9c81 423c 6298 dd3c f432 ce3d
00000150: 3a43 06be 92cf d13d 9e80 69be 5e91 b3bd
00000160: a06a 003b 1217 53bd 746a 19bb 85f3 aabb
00000170: e1c6 12bc 0d61 83bb 8e81 2cbd 61d5 523c
00000180: 045a 3bbd f6c5 3bbc 6f5d bfbc 60f3 86bc
00000190: a934 4b3d 7d13 08bd f577 50bd 9a20 33be
000001a0: 5b16 01bd c3d1 1d3d 38ec 2dbe 2d0c b1bd
000001b0: d978 34bd ef7e ad3b 866d 743d 9b2a 51ba
000001c0: c897 cebc 3f33 62bd 3d99 493d 84f5 893d
000001d0: af8d 173e 7cf1 9fbd c100 7b3c aa03 fbbc
000001e0: 7d0d 0dbe 13f4 843d aa75 42be aa33 8ebd
000001f0: b86e 0bbd ee4c a9bd 7301 fc3c 68c3 aabd
00000200: 9599 d6bc 294d 24bc 9f14 813c ad2c ad3b
00000210: 632f 763c e424 8d3d bb25 fe3d 606b 5f3c
00000220: 6b3a 1dbd d01d f9bc 1990 99b9 f864 a5bd
00000230: d439 9a3c 7d06 6bbc 5eb0 793d f1f4 b33d
00000240: 090c 883c 7c82 30bd 7a50 8e3d 28fe 24bb
00000250: 8b08 593d bffe 673e cf79 ddbd 43bb 533e
00000260: 9c8c 233e 1fbe cebc 31ff 793b eed1 173d
00000270: d41e d13c 9840 5dbd 96fc 4bbc b680 8e3d
00000280: 67d6 4a3c a159 96bd 99cd 09bd 7aaa 9dbb
00000290: 90b5 8a3d 090f 7c3c 126e ad3d 79cc 6bbd
000002a0: 6f24 453d 3c84 86bb 9298 a6bd 8df4 7cbc
000002b0: 61b6 4d3d 39b8 8bbb 82e5 bebb 60ff bc3c
000002c0: d54c 273c 8329 e73c e8ea d2bc 1ec7 a8bd
000002d0: 89b0 6abb 2f90 313c 9996 02bd 09b1 963d
000002e0: 8954 74bc 9090 3abb dbed fbba 77a4 ca3c
000002f0: 8e81 883c 18bc c23d 76eb 7e3d cb23 f0bb
00000300: dffb 47bd bd84 f23d 9826 fabc 8d68 b83d
00000310: 9e29 c0bc 949a a73d c74c 253e b0d4 76be
00000320: a26f b3bd fe25 093e 841d 5bbd d529 583d
00000330: 8ace 0b3d 10b3 fdbd 8563 2b3d 8604 dbbc
00000340: 51ce 6b3c 4627 d4bd 119e 37be 14b2 4dbd
00000350: 5ea6 c6bd 0c2f 06be b54e edbd f9b8 373e
00000360: 82a4 dd3c 213b 3e3d e58d e33c 97b9 e4bc
00000370: 2cdd 30bc d076 cdbc e210 4c3d 41df 8a3d
00000380: 8e73 2cbd 7f27 8bbc 5b12 a1bc 2a94 e23c
00000390: cc45 98bd 4ff4 c83c 940f 06bc e294 b7bd
000003a0: 8fba 49bc 2b76 b03d bb7c 9b3d 706a 1ebc
000003b0: ae32 6cbd 3e8c 56bd 623c 33be 978e 32be
000003c0: db8e d43c 72ab 19be 13f9 cdbd ab88 e73d
000003d0: 03f7 c23c 0369 d1bd 4e60 c53c e656 8bbc
000003e0: 51be 2fbd 9e3b 073c 042e 223d 378c b23c
000003f0: c5bc 7e3c 0171 9b3c 0719 1a3d aafe 00bd
0.042971175 0.008819668 0.013977921 0.024525005 -0.14613116 0.007758307 0.0033958491 -0.017481487
-0.074410975 0.0997765 0.04297915 -0.0023906173 0.0015904866 -0.19082811 0.053755235 0.03634446
0.0023709463 0.09311466 0.028346414 0.04189586 -0.01630727 0.0443093 0.0148070175 0.07715751
0.037588976 0.06404963 0.115310885 -0.011245833 -0.008961246 -0.03506988 0.0830934 -0.03555496
-0.036981493 0.01529065 -0.020380065 0.03931845 0.048598386 -0.044762913 0.0028071145 0.0556607
-0.07507565 -0.060338166 -0.023458494 -0.06211914 0.012348404 0.05495289 0.036923457 0.025913468
-0.055388063 0.016441341 -0.03593993 -0.12368076 0.057595167 -0.1531336 0.05297859 0.03942958
-0.060813967 0.059551 -0.055948883 -0.11957508 -0.024217347 -0.16768192 -0.025279975 -0.098972045
-0.040872674 0.037416074 -0.0724048 0.117213644 -0.080182865 0.013691728 -0.015386918 -0.0777909
-0.015911896 -0.021097878 -0.060128905 0.040908027 -0.07001649 0.13394912 -0.0831664 0.07887361
-0.04593961 0.011871722 0.0270502 0.10068312 -0.13111582 0.10244669 -0.2280297 -0.08767961
0.0019594803 -0.051535673 -0.0023409398 -0.005217018 -0.008958549 -0.004009372 -0.04211574 0.012868256
-0.045740142 -0.011460772 -0.023359982 -0.016473472 0.049610768 -0.03322171 -0.05089565 -0.17492905
-0.03151546 0.038530122 -0.16984642 -0.086449005 -0.04406056 0.0052946727 0.059674762 -0.0007979066
-0.02521886 -0.055224653 0.049218405 0.067362815 0.14800142 -0.07809731 0.015320004 -0.030641396
-0.13774677 0.06491866 -0.18990198 -0.06943448 -0.034041137 -0.08266626 0.03076241 -0.08338052
-0.02619628 -0.010028162 0.015756903 0.005284867 0.015025946 0.06891802 0.1240954 0.01363644
-0.03838579 -0.030409724 -0.00029289795 -0.08075899 0.018826403 -0.014344809 0.060959212 0.08786953
0.016607301 -0.04309319 0.069489434 -0.0025175903 0.052986663 0.22655772 -0.10814249 0.20676903
0.15971607 -0.025237141 0.003814649 0.03706544 0.025527395 -0.05401668 -0.012450358 0.069581434
0.012380219 -0.07341314 -0.03364334 -0.004811582 0.067729115 0.015384444 0.0846826 -0.057568047
0.04813045 -0.004105119 -0.08134569 -0.015439165 0.05022276 -0.0042639044 -0.0058256993 0.023070991
0.010211189 0.028218037 -0.025746778 -0.082411036 -0.003581079 0.010837599 -0.031881902 0.073579855
-0.014912733 -0.0028467514 -0.0019220667 0.024736626 0.016663339 0.09508532 0.06223627 -0.0073284856
-0.048824187 0.11841724 -0.030535981 0.090043165 -0.023457345 0.0818378 0.1614257 -0.24104571
-0.08761527 0.13393399 -0.053494945 0.05277427 0.034132518 -0.12387669 0.041842956 -0.026735555
0.014392451 -0.10359053 -0.17931391 -0.050218657 -0.09699701 -0.13103884 -0.11587278 0.17941655
0.027055983 0.04644311 0.027777622 -0.027920527 -0.010794919 -0.025081068 0.04982079 0.067808636
-0.04210239 -0.016986607 -0.019662073 0.02765854 -0.07435188 0.024530558 -0.008182425 -0.08963944
-0.012312545 0.08616289 0.0759215 -0.009668931 -0.05766552 -0.05237984 -0.17503503 -0.17437206
0.025947025 -0.15006807 -0.10057273 0.11305364 0.023799425 -0.102251075 0.024093773 -0.01700921
-0.04290611 0.00825396 0.039594665 0.021795375 0.015547936 0.018974783 0.037621524 -0.031492867

cnn.4.bias f4 [64]
00000000: a463 e9be daee c6be 5ba9 54bd d4d4 8fbe
00000010: 4e43 bbbe e636 8b3d 3ccf 12bd 7d17 e73c
00000020: 64a8 c33d 6e95 56be 7e74 d6be aa09 52be
00000030: 549f 2e3e d66b 623d 8065 8cbd 0a0f 2bbe
00000040: ac42 afbd 043a c43e 866f 023f 1e16 edbe
00000050: d3e6 b1bd 34ba 86be 3a4f 6ebe 1e06 e2bd
00000060: da25 5d3e 172e d33e eb24 bebd 76a5 89be
00000070: fe46 ad3e 8c16 15be 2705 7c3e cf3a a63d
00000080: 7629 b53d fb53 a2be 5ab4 2dbf 1af1 cebe
00000090: f2b0 c33d 5d2e 153f 81ed 42be bceb a23d
000000a0: 6a45 683e 0b48 f1bd 8c20 2abe 0ac1 32be
000000b0: 98d1 3a3f f2bd 8dbe ee1f 91be 392d bf3e
000000c0: 4fdc 7cbe 6236 a7b8 78c5 91bc edca 9e3e
000000d0: 9689 b1be ee0a 0f3f 69c5 9fbe 8eeb 05be
000000e0: a584 94be 4767 ddbe 44b5 07bf 95b3 943e
000000f0: 805a 6ebd 7892 1ebe d661 57be 47c4 a73d
-0.45583832 -0.38854104 -0.051919322 -0.28092062 -0.36574787 0.067975804 -0.035842165 0.028209442
0.09553602 -0.2095544 -0.4188575 -0.20511499 0.17052966 0.05527862 -0.06855297 -0.16704956
-0.085576385 0.38325512 0.5095142 -0.46305937 -0.08686604 -0.26313937 -0.2327241 -0.11036323
0.2159647 0.412461 -0.09284385 -0.2688405 0.33843225 -0.14559382 0.2461134 0.081166856
0.08845799 -0.31704697 -0.6785332 -0.4041832 0.09555234 0.5827387 -0.19035913 0.07955119
0.2268273 -0.11781319 -0.16613978 -0.17456451 0.72976065 -0.2768398 -0.28344673 0.3733919
-0.24693416 -7.97331e-05 -0.017794356 0.31014195 -0.34675282 0.5587605 -0.312053 -0.13078138
-0.2900745 -0.43242857 -0.53010964 0.2904326 -0.058191776 -0.15485561 -0.21033415 0.08191734

cnn.6.weight f4 [64, 32, 4, 4]
00000000: ac48 2f3e a051 683e d21f 143e f6e6 dd3d
00000010: 771d 733e 8365 e13d 8391 ef3d 6a6f 3cbd
00000020: 0620 143e 26b8 183d 16e4 f4bd 6cf0 a8ba
00000030: 7805 98bd 9a6f 38bd 2134 ffbd 9766 873b
00000040: c5a2 0dbe 0afc 37be 9fd1 9c3b e097 deba
00000050: b114 3dbd 1b12 143e 3402 1d3c d094 303c
00000060: 2575 b5bd e753 f4bd 54f6 9ebc 06be c63d
00000070: eebe 0b3d 5d64 b5bd 2693 3dbc 575b be3c
00000080: 86cc ec3d 8858 c93d dc02 be3d e136 d93c
00000090: bbf6 8abc 90e7 813e 393f 3dbd 84d3 b6bd
000000a0: 51bc 96bd 614c 033d 4839 eabb 54e0 59bd
000000b0: df5a a63c e541 01bf 9489 31bd 71c8 02be
000000c0: e955 0fbd ec55 7abc 380d aabd f8e2 0dbd
000000d0: cce1 813d a8a6 283c c9a8 66bc f736 67bb
000000e0: 96fe 98bc bd01 7fbc dbd9 a3bd 5697 c13c
000000f0: 077f 03bb f4c8 6f3b 5b6a 263e 8d51 49bd
00000100: b8fb cc3d 64d2 833e 8fdd 913d 445f 4e3c
00000110: 55c5 583d af0c 143e 29f5 45bd f4bd 3cbe
00000120: d31b 87bd fe52 f9bd 0ddb 99bd 7a22 1cbe
00000130: 8c5f abbd cf92 7e3c de19 fbbb 3ce9 c53d
00000140: 4fc4 4a3e f44d 573e 069b 393e 6847 123e
00000150: 2022 6d3d 222b 833e 865f ce3d 2821 993b
00000160: 1579 743b 66ec e33d 3b54 013d ea89 3abd
00000170: ca63 973c 3e97 b6bb 46db 91bd 7f0f 5f3d
00000180: 0bbd 143d d94d dcbb 6658 6f3d d52c 8e3b
00000190: 1417 e23d 1499 8ebd 325f 7b3d e405 ac3b
000001a0: 2d28 5f3c b5bc f8bc 5dcc 1fba 4479 d4bb
000001b0: 677a 913d b1e5 633d d0e8 4cbd b113 d53c
000001c0: 93b3 913b dc7c 2b3d b1c5 8bbc 0506 d43d
000001d0: 484a 21be 5e8a 29bc eff8 bc3d ea07 f9bc
000001e0: 1cf9 993b 16f6 843d 5a7c 163d f2eb 843d
000001f0: f887 a93c 6ce8 4bbc 96f8 663d 8713 b5bc
00000200: bb15 19bd cbf1 153e ac6d 9ebb 10a2 8b3c
00000210: 49e7 613e 80c8 8c3e 324b 1e3e c07d 803d
00000220: fe6e 03bd 0eb9 133e b8fb 753b b798 7abc
00000230: a5fd a3bd e6f1 14bd dd0a d2bd daec 58bc
00000240: a7ff 77bc c2d2 253d 7381 493d 062c 803d
00000250: a9df 24be 342d 18be 7cc3 8a3c 2c9e bd3d
00000260: ec69 30bd 253b 533d 5e23 3e3d 437a 373d
00000270: 9df6 27bd bb0d b23b 2659 713d c3a6 c23d
00000280: f8cd 623d cec6 3c3e 6a74 393c 801a 35bd
00000290: ba2e 103e e38c 983e fee0 e03d 722d 853d
000002a0: 5784 fb3c 6c20 f73d 0a28 cbbb 6bec be3d
000002b0: 6cbe 253c 82b3 163d 570b ccbd bcd5 6fbd
000002c0: 457e e13d f3f4 853e 1dde f33c d4b2 6d3d
000002d0: 1f86 2a3e 719f 7b3e e057 52bc 5bf9 60be
000002e0: 8461 883d c0a2 c33c 0323 f0bc 8a9a 003c
000002f0: 6d49 57bd db0e 11bd 4b46 263d 820c ec3c
00000300: 7af6 3abd 27bf 1b3e 2300 853d 78d9 243d
00000310: 6471 5e3d d167 173e b987 debc 0058 0d3d
00000320: 6829 31bd 7016 b13b fa18 4abd 4628 b13c
00000330: b811 7abc 3867 4e3d e221 453d 8647 40bd
00000340: 60d4 e23d d837 203e fde2 953d 9296 173d
00000350: 6ed4 023e 8623 053e 17d4 bf3c 2ab4 4fbc
00000360: 5249 2bbd 5a53 9dbd 1c27 07bd 4799 ef3b
00000370: 98a9 0bbe ec5d cdbd 1e74 fabc 1d21 e23c
00000380: d440 db3d 0586 423e 615f aa3d 09cc 393d
00000390: 3139 753e 93fe a23e ed43 163e f9e8 6a3d
000003a0: 05cf a83d 6975 283d 56f1 d7bc eb68 0fbd
000003b0: dbca e93a 7349 cebd ed5d eabd db8e b0bc
000003c0: 4c0c 1a3d 88a3 06bd 6002 b83c c64c e5bc
000003d0: 6aa4 913d 7b7c cf3c d8d4 23bd e76f 8a3d
000003e0: a698 85ba 9377 3439 5630 f43c 7acd 5dbc
000003f0: e300 34be 0311 f5bd 777f 2fbd 2538 cf3d
0.17117566 0.22687387 0.14465263 0.10835068 0.23741709 0.1100569 0.11697676 -0.04600469
0.14465341 0.037284993 -0.119575664 -0.0012889034 -0.07422918 -0.045028307 -0.12461115 0.0041321027
-0.13831623 -0.17967239 0.004785731 -0.0016982518 -0.04616231 0.14460032 0.009583045 0.010777667
-0.08860234 -0.119300656 -0.019404568 0.09704213 0.03411763 -0.088570334 -0.011570727 0.023236914
0.11562447 0.09831339 0.09277889 0.026515426 -0.016963353 0.2537198 -0.046202872 -0.08927062
-0.07360137 0.032055262 -0.0071479417 -0.05319245 0.020307003 -0.5049117 -0.043344095 -0.12771775
-0.03499404 -0.015279274 -0.083033025 -0.034640282 0.063418955 0.01029364 -0.014078327 -0.0035280564
-0.018676084 -0.015564379 -0.08000537 0.023631733 -0.0020064728 0.0036588283 0.16251509 -0.04915004
0.10008949 0.25746453 0.07122337 0.012595955 0.052922565 0.14457963 -0.048329506 -0.18431836
-0.06597104 -0.12174033 -0.07512484 -0.15247527 -0.083678335 0.015537932 -0.0076629957 0.096636266
0.19801448 0.2102583 0.18125543 0.14285052 0.057893872 0.25618845 0.100768134 0.004673142
0.0037303616 0.11129074 0.03157447 -0.04554168 0.0184802 -0.0055722287 -0.07121901 0.054458138
0.036313098 -0.0067231474 0.058433913 0.0043388405 0.11039558 -0.06962791 0.061370082 0.0052497257
0.0136204185 -0.03036342 -0.0006095821 -0.0064841826 0.071034245 0.055638973 -0.050026715 0.026010366
0.0044464557 0.041867122 -0.01706204 0.10352711 -0.15750992 -0.010347931 0.09227168 -0.030399282
0.0046988856 0.0649225 0.036739685 0.064903155 0.020694718 -0.01244555 0.056389414 -0.022104038
-0.03737424 0.14643018 -0.0048348513 0.01704505 0.22060885 0.2749672 0.15458372 0.06273985
-0.032088272 0.14426062 0.003753407 -0.015295199 -0.08007363 -0.036363505 -0.10255978 -0.013240064
-0.015136636 0.040484197 0.049195718 0.06258397 -0.16100945 -0.14860994 0.016938917 0.092586845
-0.043069765 0.051570076 0.046420448 0.044794332 -0.041006673 0.0054337657 0.05892291 0.095044635
0.05537221 0.18435213 0.011319259 -0.044214725 0.14080325 0.29794988 0.10980414 0.06502809
0.030702753 0.12066731 -0.0061998414 0.09322437 0.010116201 0.036792286 -0.099631004 -0.058553442
0.11010412 0.26163444 0.029768998 0.058031872 0.16652726 0.24572541 -0.012838334 -0.21970122
0.06659225 0.023881316 -0.02931357 0.007849345 -0.05256026 -0.035414558 0.04059438 0.028814558
-0.045645215 0.15209638 0.06494167 0.040246457 0.054307356 0.14785697 -0.027164327 0.03450775
-0.04325238 0.005404286 -0.049340226 0.02162565 -0.015263014 0.050391406 0.048128016 -0.04694321
0.110756636 0.15646303 0.07318685 0.03700883 0.12776348 0.13001832 0.023416562 -0.012677232
-0.04181797 -0.07681914 -0.032996282 0.0073119733 -0.13638914 -0.1002768 -0.030572947 0.02760368
0.10705724 0.18996437 0.08318973 0.0453606 0.23947598 0.3183485 0.14674349 0.057351086
0.08242611 0.041127596 -0.026360195 -0.035012167 0.0017836945 -0.10072603 -0.11443696 -0.021552494
0.037609383 -0.0328708 0.02246207 -0.02799071 0.071114376 0.025327912 -0.039997905 0.06759625
-0.0010192588 0.00017210683 0.029808205 -0.013537759 -0.17578463 -0.11966135 -0.04284617 0.101181306

cnn.6.bias f4 [32]
00000000: 9c06 cabe 2cb6 04be 0826 a03e 3a07 9f3e
00000010: 7a00 883d 564a 723c 7d03 bb3e 491a c9be
00000020: 45d1 9fbe fd55 863e 9076 cbbb d8e5 843c
00000030: dc02 7e3d 9d2a 1f3e ec73 55be 3e8a 873e
00000040: fabf 003e a11a 28bb 8ecf e53e ca9c 543d
00000050: 108a 823e 0432 573d 15fc 563e b48a 2e3c
00000060: 3734 c83d aae1 c1be 4ce5 3b3d 2783 4ebc
00000070: 83d8 17bf 0228 ee3d 12f5 fbbc 114a e23c
-0.39458168 -0.12960118 0.31279016 0.310602 0.06640716 0.014788231 0.365261 -0.39277866
-0.31214347 0.2623748 -0.006209202 0.01622288 0.062014446 0.155436 -0.20845002 0.26472658
0.12573233 -0.0025650638 0.44884914 0.05190734 0.25495958 0.052537933 0.20994599 0.010653187
0.09775584 -0.3786748 0.04587297 -0.012604511 -0.59314746 0.11628725 -0.030756507 0.027623208

cnn.8.weight f4 [32, 3, 8, 8]
00000000: cf1d 15bc 3272 e5bb a244 b13a ecf9 713c
00000010: 8b9f bf3c 5dc2 bf3c d6e7 993c af23 c73b
00000020: 18be a8bc 8500 b5bc 92c3 6fbc d7a0 15bb
00000030: 2629 d43c b59b 183d e1a6 363d 653e 0c3d
00000040: f59e 16bc 9449 b5bc 622c cdbc 1cc9 d8bc
00000050: f92e 2ebc b6aa 343c 8479 163d be4d 3a3d
00000060: 88e7 d63a 805e edbc a6f3 63bd 6c79 99bd
00000070: db50 65bd 9243 e8bc 0b0d a73c 272c 5c3d
00000080: 8afa 8fbd 003f d9bd 846e 0dbe cd4d 29be
00000090: 8376 edbd f5f8 acbd e656 0cbd 1c3e 2d3c
000000a0: 19b5 1ebe ed57 49be 786b 6ebe a294 84be
000000b0: 06f9 84be e2e9 72be 615a 4fbe a708 1fbe
000000c0: 923d 4dbc cb10 09bd b337 51bd 1455 74bd
000000d0: 44c6 61bd 57df 39bd f82d 0bbd d630 84bc
000000e0: 621e 9d3d 6d75 973d 0738 963d 91d8 a03d
000000f0: 1d21 a43d a832 a23d 40ec 983d 88f2 903d
00000100: 5991 4a3c 9522 5d3c bab1 9d3c 2c4a f93c
00000110: fb08 e83c 5ed0 fc3c 64cf d13c 277e 2e3c
00000120: 22a3 c1bb bc67 44bc bdc4 11bc db2a a4ba
00000130: 2167 e53c 4076 3e3d 8101 743d 510f 413d
00000140: 0208 373c cee2 03bc 6f1c 7fbc 9659 c3bc
00000150: f5d7 babb cc33 be3c f2ca 733d 066d 943d
00000160: 0032 c13c 0076 6dbc c864 3fbd 0fc2 9fbd
00000170: 7bba 2cbd 3d91 81bb 08f1 6c3d 2d5d c93d
00000180: ba8b 17be b4b0 47be 02cd 6dbe cccb 87be
00000190: 33bb 26be d887 03be f85e 94bd b8e3 9dbc
000001a0: b498 7dbe b42f 9abe 2d9d b0be b90c bfbe
000001b0: bfea b4be e6ec a9be fdcb 96be 89db 71be
000001c0: 62fb 99bc 52f1 24bd 3c41 73bd 4574 8bbd
000001d0: 9955 2cbd 87a3 0dbd 2f04 d5bc e81f f7bb
000001e0: 5927 ac3d 193a aa3d e1d0 a73d 6106 b13d
000001f0: 2187 d03d af7c c73d 8b9b b93d 2678 ae3d
00000200: ca22 debc 8e60 a43a 6d8b 883c d5c6 243d
00000210: 0f1e 553d ff1d e9ba e5ba 7dbd 8949 a4bd
00000220: affd bd3d 0c0b 5e3e 724c ca3e f8e9 063f
00000230: 9d62 263f 6330 ea3e 0512 663e 93e2 733c
00000240: a2b8 c43e a90a 053f 7c53 ba3e f8d4 8a3e
00000250: d68a 473f a84d 4e3f ab36 3e3f 563d b83e
00000260: f57a ab3e c620 363e 01d1 8a3e 97b7 ea3e
00000270: 6de2 9e3f b1c8 853f 4c5e 5e3f a847 263f
00000280: 7fc0 d5be cd6b 74bf 39f2 9bbf 870f a0bf
00000290: 2ea7 4cbf 5010 43bf e55a ddbe 5b2a e7bd
000002a0: 203b fc3a ee0d 2cbc c3fe af3d 6dd7 3c3e
000002b0: 3c8b a7be d242 e7be 1ad8 a8be de5e fdbd
000002c0: 701b cd3e e2a6 2c3f ec32 7b3f 0450 993f
000002d0: 8b0e 9d3f de2e 683f f96c 1b3f 84fd be3e
000002e0: af01 c73d 5c2d cd3d 728c bc3d 5497 8b3d
000002f0: fa6c 753d 327d d63c 9c4f 2d3d dc32 7c3d
00000300: bd44 60bc fe14 6dbb 3595 c63b 09a6 723c
00000310: a16c 823c 2edc b23b c750 4bbb 6750 22bc
00000320: 64c1 a53c 6799 1e3d 40d1 653d ab67 953d
00000330: 2a58 8a3d ccdd 513d 21dd 0c3d fc32 863c
00000340: c2d9 353d 525a 973d 8f6e d73d caaf 083e
00000350: 9d0a 083e 117d d93d dd2c 9d3d 9429 493d
00000360: 2304 8c3d 5b4c de3d 9141 213e 7381 473e
00000370: 00db 4f3e 9f8d 2a3e c5d3 fc3d a935 ab3d
00000380: 9c04 d03d 3069 203e a7d1 5f3e ed04 893e
00000390: 6773 973e 0748 803e 9ea2 493e e962 143e
000003a0: 2809 a23d e75a 0a3e a130 473e c47c 783e
000003b0: 26b5 8d3e 730a 6c3e 3046 363e 0140 003e
000003c0: 3633 8d3d 12d1 e33d 38d9 223e 34cb 4b3e
000003d0: bfad 663e b141 413e c3de 183e 7e10 df3d
000003e0: 8bd4 833d e2a9 b93d ba54 f63d 1b81 193e
000003f0: 6657 293e 29ca 0f3e 2444 ee3d 069a be3d
-0.009101345 -0.0070021385 0.0013524482 0.014769059 0.023391506 0.02340811 0.018787306 0.006077252
-0.020598456 -0.022094974 -0.01463403 -0.0022831464 0.025898527 0.03725787 0.044592742 0.03423919
-0.009193172 -0.022129811 -0.025045577 -0.026463084 -0.010631316 0.011027029 0.03673698 0.045484297
0.0016395906 -0.028975725 -0.055652283 -0.074938625 -0.055985313 -0.028352533 0.020391962 0.053753044
-0.070302084 -0.106077194 -0.1381169 -0.16533585 -0.1159487 -0.08445922 -0.03426256 0.01057389
-0.15498771 -0.19662447 -0.23283184 -0.25894648 -0.2597124 -0.23722032 -0.2024932 -0.15530644
-0.012526887 -0.03346328 -0.05107851 -0.05965145 -0.05512072 -0.04537901 -0.033979386 -0.016136568
0.07671811 0.07395444 0.07334905 0.07853807 0.08014128 0.07919818 0.07466936 0.07077509
0.012363755 0.0134970145 0.019249786 0.030430876 0.028324595 0.030861076 0.025611587 0.010650194
-0.0059093395 -0.011987623 -0.008897004 -0.0012524979 0.028003277 0.04649949 0.059571747 0.047133747
0.011171343 -0.00804968 -0.015570744 -0.023846429 -0.0057020136 0.023218058 0.059519716 0.07247357
0.023583412 -0.014493465 -0.046726972 -0.078006856 -0.04217003 -0.0039540813 0.057847053 0.09832225
-0.14799395 -0.19501 -0.23222736 -0.26522672 -0.16282348 -0.12844789 -0.07244676 -0.019273624
-0.24765283 -0.3011452 -0.34494916 -0.37314394 -0.35335347 -0.33188552 -0.29452506 -0.23618902
-0.018796626 -0.040269203 -0.059388384 -0.06809286 -0.04207382 -0.03457978 -0.026002971 -0.0075416453
0.084059425 0.083118625 0.08194137 0.08643795 0.10182024 0.097405784 0.090628706 0.0851901
-0.027116198 0.0012540983 0.016668046 0.040228684 0.05203062 -0.0017785429 -0.061945815 -0.08021838
0.09276902 0.21683902 0.39511448 0.5270076 0.6499422 0.4574004 0.22467811 0.0148855625
0.38422114 0.5196939 0.3639182 0.27115607 0.7794622 0.80587244 0.74302167 0.35984296
0.33492246 0.1778594 0.27112582 0.45843193 1.241285 1.0451871 0.86862636 0.6495309
-0.41748425 -0.9547699 -1.2183295 -1.2504739 -0.79942596 -0.76196766 -0.4323341 -0.112873755
0.0019243695 -0.010501368 0.08593514 0.18441553 -0.32723415 -0.45168167 -0.32977372 -0.1237161
0.40059996 0.6744214 0.98124576 1.1977544 1.2270063 0.90696514 0.60713154 0.37302792
0.09717118 0.10018417 0.09206475 0.06815973 0.05991838 0.026182745 0.04231225 0.06157194
-0.0136882635 -0.0036175842 0.0060602673 0.014810094 0.015920939 0.0054583764 -0.003102349 -0.009906865
0.020233817 0.038720515 0.05610776 0.07295164 0.06755097 0.051236913 0.034390572 0.016381733
0.044397123 0.07390274 0.10519134 0.13348308 0.13285299 0.10619558 0.076745726 0.049111918
0.068367265 0.108544074 0.15747668 0.19482975 0.20298386 0.16655587 0.12345079 0.08359844
0.10157129 0.15665126 0.2185732 0.2676157 0.29580233 0.25054953 0.1969094 0.14490856
0.07911903 0.13511239 0.19452144 0.24266344 0.27677268 0.23050861 0.17800212 0.12524416
0.06894533 0.11123861 0.15903175 0.19901735 0.22527216 0.18872716 0.14928727 0.108918175
0.06437024 0.09065606 0.12027879 0.14990656 0.16537246 0.14041962 0.116340905 0.093067214

cnn.8.bias f4 [3]
00000000: e063 b53e 0b7f bf3e 3012 cb3e
0.3542776 0.37401614 0.39662313
