models/AnnaCNN/decoder_weigths.pth (torch, 978695 bytes, 10 tensors)

cnn.0.weight f4 [512, 64, 2, 2]
000000 f0 69 ef 3d bb 99 b9 be 8a 0b d1 bc e0 ff 13 bd
       0.11690128 -0.362501 -0.025518198 -0.036132693
000010 6e 6b 91 3d 59 56 da bc d9 93 63 3d 8a cf cd bb
       0.07100569 -0.026652502 0.05556092 -0.006280844
000020 d6 61 cf bc 69 28 20 3d c1 93 3c 3e c3 a0 15 bc
       -0.025315206 0.039101038 0.18415739 -0.009132567
000030 bc 2f e8 bc aa 1d da 3c 41 02 89 3d d7 b0 87 3c
       -0.028343074 0.026625473 0.06689883 0.016563816
000040 59 3a 8a bd 41 3e 3b be 80 9a 8c bd ab d2 97 3c
       -0.0674941 -0.18285467 -0.06865406 0.018533072
000050 f9 04 d2 bd 05 11 42 3d 4d ee c4 bd 8b f3 ca 3d
       -0.10254855 0.047379512 -0.09615765 0.099097334
000060 74 7d d0 bd 77 47 34 be 38 fa 0d bb 4d 96 52 ba
       -0.10180178 -0.17605387 -0.0021664035 -0.0008033261
000070 16 b7 aa bc c8 6a 1f 3d 46 c8 1e bc 7a 51 87 3b
       -0.020839255 0.038920194 -0.009691304 0.004129586
000080 0f 06 4a 3c 43 be a3 bb 2a 85 b8 bd 5c 2e 68 3d
       0.012330546 -0.004997046 -0.09009774 0.056684837
000090 ca 09 e1 3c 2f 9b 7b 3c 5b 4f 04 bd f0 77 50 be
       0.027470488 0.015356823 -0.03230224 -0.20358253
0000a0 20 f3 7b 3e 18 aa ea 3d 2d ec a8 3d 65 fc 8e bd
       0.24604464 0.11458224 0.08248172 -0.06981734
0000b0 6a 20 dc bc c0 cf ae 3a f8 9d be bc d8 02 86 3d
       -0.026870925 0.0013337061 -0.023268685 0.06543511
0000c0 13 cc d2 bd e5 ba db bc ca 3d 5d 3d f1 28 06 3e
       -0.1029283 -0.026822517 0.054014005 0.13101555
0000d0 41 c3 d5 3c 2b 8e 87 3d 14 01 94 3c 83 e7 df 3b
       0.02609408 0.06618913 0.01806692 0.0068330183
0000e0 ef 1b 25 3d fc 50 1c 3d 3b 96 0d be 1c 02 09 be
       0.040309843 0.03816317 -0.1382684 -0.13379711
0000f0 6b 02 6b 3d f3 42 65 bd 72 57 18 bd 69 6b 81 3d
       0.057375353 -0.05597205 -0.03719277 0.06319315
000100 cc 89 93 bd 12 0e 07 be 66 e3 67 3c db 62 4c 3d
       -0.07204017 -0.13188961 0.014153337 0.049898963
000110 64 23 3b 3c 0f 10 cf 3d 64 64 bb 3d 63 5d 52 3e
       0.011422012 0.10110485 0.09150007 0.20543437
000120 d3 7e df bd e3 0b bf bd e8 be 1f 3e 49 8a 5f 3c
       -0.10912862 -0.09328439 0.15600169 0.01364381
000130 29 4e 58 3d f6 ce 4f 3d 41 fc 84 bc d5 81 80 3e
       0.052808914 0.050734483 -0.016233565 0.25099054
000140 19 82 4f be 6a 9b 82 bd 3f a3 af bd a3 4c 5e bd
       -0.20264472 -0.06377299 -0.085760586 -0.054272305
000150 12 48 37 ba 57 1a 0b 3e 8e d1 e3 3d 39 a2 22 3d
       -0.00069916353 0.13584267 0.11123954 0.03970549
000160 83 60 db 3d f6 9c d0 3d 82 8e 24 be e6 0b d0 bc
       0.107117675 0.10186188 -0.16069987 -0.025396299
000170 6e 8c c2 bd 63 90 e4 3d a8 a7 14 bd 55 e4 ff 3d
       -0.09499441 0.11160352 -0.036292702 0.12494723
000180 d7 21 e5 3c e7 19 58 3d 73 c7 06 be df be d5 bb
       0.027970238 0.052759077 -0.13162021 -0.0065229977
000190 9e 23 cf 3c ff 4d be 3c 83 1e 6e bd 48 b4 2a 3c
       0.025285538 0.02323055 -0.058134567 0.010418959
0001a0 ad 09 01 3e 57 fd 4a bd d3 4b 61 be 21 86 74 3d
       0.12601347 -0.04955801 -0.22001581 0.059698228
0001b0 08 63 13 bc a9 5b 1b 3e 95 2f 31 3e 6a fd 07 bd
       -0.008995779 0.15171684 0.17303307 -0.03320066
0001c0 bd a5 d2 3a 23 e9 67 3d bb 46 22 bc 89 df 31 bc
       0.0016071122 0.05661882 -0.009904559 -0.010856518
0001d0 b8 a9 57 bd 60 c5 b9 3d 9f cd 22 3b 26 0d 76 3d
       -0.05265209 0.090708494 0.0024841798 0.060071133
0001e0 92 ab 1c bd 85 d9 24 bc fb d0 80 be 8e e5 0e bb
       -0.03824956 -0.010061626 -0.2515944 -0.0021804306
0001f0 81 ab 53 bd 74 5d 1e 3e e1 68 3e bc 0a 32 6b be
       -0.05167723 0.15465337 -0.011621685 -0.22968307
000200 47 12 01 bd 1a 5e 62 bd 5a 86 0c bc d1 8e b2 3c
       -0.03151157 -0.055265523 -0.008576954 0.021796616
000210 27 3f ad 3c 72 35 f8 3c d2 e8 ac ba b7 50 ed ba
       0.021148277 0.030298922 -0.0013191944 -0.001810572
000220 76 8c 39 bb 44 80 41 3d 26 9e 62 3d 4c bf 05 3d
       -0.002831248 0.047241464 0.055326603 0.032653138
000230 56 9d b8 bc 61 5f 9c be 59 99 ae 3d 16 d4 5b 3d
       -0.022535961 -0.30541518 0.085253425 0.053669058
000240 7d ce db 3d 4d 2a be bb 0c 47 b6 3d 44 d0 e7 bc
       0.10732744 -0.0058033825 0.0890027 -0.028297551
000250 21 88 86 3d 7b f2 2e 3d 18 e3 4a 3d fd 0e 8b 3d
       0.06568933 0.042711716 0.04953298 0.06789968
000260 8e 54 32 3d 58 73 52 bd 60 46 65 3c 78 ea 23 3e
       0.04353767 -0.05137953 0.0139938295 0.16007411
000270 2c 62 82 be 33 e5 bd bc 68 cf c1 bc 15 75 55 bd
       -0.25465524 -0.02318058 -0.02365847 -0.05211361
000280 e7 52 25 bc 17 ce b3 bd c0 85 71 3d fc 83 a3 3d
       -0.010090566 -0.08779543 0.058965445 0.079841584
000290 f2 f5 83 3d 45 68 47 3d 39 7d 93 be c8 b2 c9 bd
       0.06443395 0.048683424 -0.28806475 -0.09848553
0002a0 8f 1d 46 3d f9 4d a4 bd 84 cc 0c bd 1e 6b ab 3d
       0.048368033 -0.080226846 -0.03437473 0.0837004
0002b0 53 81 59 3d ab 80 a4 3d d3 62 b8 bd e1 33 1f 3d
       0.05310185 0.08032354 -0.09003224 0.038867835
0002c0 96 b8 9a bb d8 d1 a1 bd 50 51 1a 3e 0f e6 70 bc
       -0.0047217114 -0.07901353 0.15070081 -0.014703288
0002d0 7f 56 46 be 03 f4 46 bb 82 a2 7b bd b5 6e 9f bd
       -0.19368933 -0.0030357845 -0.061434276 -0.077847876
0002e0 12 5e 4e bd a6 62 c4 3d 2c 6e 38 3d 51 d5 4c 3d
       -0.05038268 0.09589128 0.045026943 0.050008122
0002f0 1e dc c0 bd b8 9d 1b 3e 8f 57 85 3b 01 a5 e9 bd
       -0.09416984 0.15196884 0.0040692757 -0.11408425
000300 fe d1 87 3d 2e 48 79 3c 2e 74 c4 bc e1 c3 12 3d
       0.0663185 0.015214963 -0.02398118 0.035831336
000310 06 d7 02 bd 22 1b 31 3e a0 c9 af 3d f3 03 e5 3c
       -0.031943344 0.17295507 0.08583379 0.027955985
000320 59 6b b1 bd 3c 6a 26 3d f1 47 38 bb 4e 27 84 bd
       -0.08663053 0.040628657 -0.0028119052 -0.06452809
000330 f1 9f 8c 3d 21 03 29 bd b8 f6 39 3d d5 76 25 3d
       0.06866444 -0.04126275 0.045401305 0.04039653
000340 82 d4 44 3d 1d 80 ac bc 24 a8 b3 3c 58 bb cd bc
       0.048054226 -0.021057183 0.021930762 -0.025113747
000350 80 a8 3d 3d 4d da a5 ba 42 6e 48 3c d6 0c aa bd
       0.046303272 -0.001265356 0.012233319 -0.083032295
000360 51 6e 49 bd 5b c9 99 3b a6 09 7b bd bd f6 66 bd
       -0.04917747 0.004693193 -0.0612885 -0.05638765
000370 8c 90 de b9 e9 7d 18 bc f3 05 11 bd 66 0c 20 3e
       -0.00042450835 -0.009307363 -0.035406064 0.1562973
000380 14 f9 66 bd 72 62 5c 3d b8 14 64 be 74 59 25 be
       -0.056389883 0.053804822 -0.22273529 -0.16147405
000390 7e 4c d9 bd 64 bb 07 3d 14 be 85 be a8 9b 0e be
       -0.10610293 0.033137694 -0.2612158 -0.13926566
0003a0 0d e0 88 bd 26 84 41 bc 4a 24 2a 3c f2 d0 09 3e
       -0.06683359 -0.011811292 0.010384629 0.13458613
0003b0 f1 e2 d3 bd 25 95 dd bc 63 cf 57 3d 48 88 08 3d
       -0.1034602 -0.027048657 0.052688014 0.033333093
0003c0 ea 62 92 3d cd da 18 bd a6 aa 95 bd a2 12 06 3e
       0.071477726 -0.03731804 -0.07307939 0.13093045
0003d0 a0 62 c0 bc 67 45 4c 3d 27 e6 98 3b d0 f2 96 bc
       -0.023484528 0.049870875 0.004666108 -0.018426329
0003e0 9d 0e 94 3d 8e dd 4f b7 ef 18 78 bd 50 cb e2 3c
       0.0722935 -1.2389746e-05 -0.060570654 0.027684838
0003f0 9b da 83 3d e6 6b 82 3d 57 f1 67 3b 7a ce b8 3d
       0.0643818 0.06368236 0.0035391652 0.09023757

cnn.0.bias f4 [64]
000000 e2 0e 88 bd 0c b9 18 3d 04 7e 52 3d 36 1b bb bd
       -0.06643464 0.03728585 0.05138971 -0.091360494
000010 73 5b 0e bd b8 40 55 bd 67 84 84 bd c2 e3 6f bc
       -0.03475518 -0.052063674 -0.06470566 -0.014641704
000020 b8 14 25 3e b7 9e 3c bd 03 88 8b bd 0f 0a 44 bd
       0.16121185 -0.0460498 -0.068130516 -0.047861155
000030 f1 c7 d8 bc b2 a6 20 3d 21 48 8d 3c 2a 8f bd bd
       -0.026462527 0.039221473 0.017246308 -0.09255822
000040 94 03 60 3d 10 6d 1d 3e 87 f7 73 3d 8b 91 03 3e
       0.054690912 0.15373635 0.059562232 0.12848489
000050 22 01 a5 3d c1 48 49 3d 28 d4 04 3c 48 e4 61 bc
       0.08056857 0.04914165 0.008107223 -0.013787337
000060 4e 04 0e 3e 02 5b c5 3c d5 60 98 bd 85 c7 ac 3d
       0.1386883 0.024091247 -0.07440344 0.08436493
000070 13 6e 9b bd 95 82 28 bd f0 0e 62 3c 7e da 71 3d
       -0.07589354 -0.041140158 0.013797507 0.05904626
000080 b3 b3 75 bd 56 8d 42 3e fe e1 a5 3b b6 f3 88 3d
       -0.059985828 0.18999228 0.0050623408 0.06687109
000090 96 fa 56 3e d7 ad 74 3c fe d9 f3 bd 42 a5 85 bd
       0.20994028 0.014934025 -0.11906813 -0.06525661
0000a0 a4 8c a3 3d 2b 23 11 3e 8e 1c e1 bc 8a 2d 02 3c
       0.079858094 0.14173572 -0.027479436 0.007945428
0000b0 fc 22 4e 3c f7 6f d1 3d 43 a6 8d bd 31 8b ed bd
       0.012581583 0.10226434 -0.069164775 -0.11598814
0000c0 21 b1 27 be 0b d1 51 bc 4c cb 42 3e f0 0a 72 bd
       -0.16376163 -0.012806187 0.19022864 -0.059092462
0000d0 7b 37 40 3d 85 dd 53 bd 62 af 84 3d 12 25 95 3d
       0.04692791 -0.05172493 0.06478764 0.07282461
0000e0 bf 90 41 3e 37 21 de bc 7d 6d 02 3e 8d 2d 4a 3c
       0.18902873 -0.027115447 0.12737079 0.012339962
0000f0 bc 8f 51 bc 9c 32 26 3e 9a 0f 93 bd 71 d5 7b bd
       -0.012790617 0.16230243 -0.0718071 -0.06148285

cnn.2.weight f4 [64, 64, 3, 3]
000000 a0 64 1e bd 33 5c 77 3d 56 2c 0d be 66 cb a2 3d
       -0.038670182 0.060390662 -0.13786444 0.079489514
000010 b0 6c 9a 3b 9b 2b 4d 3d db 1f 90 bd 76 85 82 bd
       0.0047126636 0.050090414 -0.07037326 -0.06373112
000020 b3 b9 ce 3d 64 4c 92 3b c0 0c 89 bb 19 6f c2 3d
       0.10094013 0.004464673 -0.004182428 0.094938464
000030 40 d2 b8 bd 3b 47 db bc bb d2 3f bd d3 07 54 3b
       -0.09024477 -0.026767364 -0.046831828 0.0032353296
000040 e5 ae c3 bd 43 82 47 bd 01 0d 9d 3c c4 95 35 3a
       -0.09554843 -0.04870821 0.01917124 0.0006926919
000050 7c b7 1a bd 6b 5d d7 bd c9 00 84 bd 02 66 08 bd
       -0.03777264 -0.10515865 -0.06445462 -0.033300407
000060 f6 86 08 3d 13 7d 98 bc 23 a3 7d bd 79 d6 30 3e
       0.033331834 -0.018614328 -0.061923157 0.17269315
000070 0b 80 62 3c 51 26 a0 3d 49 1e e5 bd 82 a5 ff bc
       0.013824473 0.07819808 -0.11187417 -0.03120685
000080 06 e0 1c bc 68 8e 14 3d 24 2f 94 bc a9 cb a0 3d
       -0.009574896 0.03626862 -0.018088885 0.07851345
000090 6d 53 4e 3d 1d b5 23 3b 16 8a 1e bd 60 38 d6 bd
       0.05037253 0.0024979778 -0.038705908 -0.104599714
0000a0 77 ac 0a bd 9f 59 95 bd a6 db 91 bc 75 6e 6d 3d
       -0.03385588 -0.072924845 -0.017804932 0.05796667
0000b0 99 c7 09 bd eb 50 c0 bd dd 0e bd 3c be 4d 94 bd
       -0.033637617 -0.09390434 0.023078376 -0.07241391
0000c0 b0 5f ba 3c 5f 0f 91 3c 2e 75 8b 3c 16 b3 90 bc
       0.022750705 0.017707525 0.017023649 -0.01766352
0000d0 88 85 ba bc c0 64 80 3b 16 8a 93 bb aa 69 97 3c
       -0.02276875 0.0039182603 -0.004502545 0.018483002
0000e0 26 6e 11 be 29 a3 98 bd 07 38 7d bd 3b 97 9a bd
       -0.14202175 -0.07452995 -0.06182101 -0.07548376
0000f0 7f 10 cf bd 59 41 eb bc ac a5 ed bd 6b 06 4d be
       -0.10110568 -0.028717684 -0.11603865 -0.2002198
000100 e5 50 9f bd fb d7 11 3e 4a ac 08 bd 53 d0 ab bc
       -0.07779101 0.14242546 -0.033367433 -0.02097336
000110 5e e6 8d 3d 8c 6c 80 bb d2 84 9a bd f3 90 33 bd
       0.06928705 -0.00391919 -0.07544865 -0.043839406
000120 d6 0b 82 bc 48 9a 39 3c 6e 60 60 bd ef c8 af bd
       -0.015874784 0.011328287 -0.054779463 -0.08583247
000130 98 d1 2a 3d db ac 5f bc 51 45 a7 3c b7 37 2b bd
       0.04170379 -0.013652052 0.020418795 -0.04180118
000140 de fb 83 bd 52 26 16 be 49 38 7d bd 7b 61 b4 bd
       -0.06444524 -0.14663056 -0.061821256 -0.088076554
000150 e7 07 d3 bd ff 02 81 bd 5f 89 cb 39 e5 9f e4 bd
       -0.103042416 -0.062993996 0.00038821527 -0.1116331
000160 50 b8 3a 3e 63 5e b1 bc 16 f4 62 3e e9 0f 33 3d
       0.18234372 -0.021651452 0.22163424 0.043716345
000170 30 a0 17 be 52 52 7b be 27 a1 5d bd 97 8d 16 bd
       -0.148072 -0.24543121 -0.054108765 -0.036756124
000180 12 3d 61 be 9d 0c 99 bd 61 4c aa bd 84 bf 92 3d
       -0.21995953 -0.07473109 -0.08315349 0.07165435
000190 86 bb 1b bd af af eb bc dd 96 80 bd c1 1b 67 3c
       -0.038020633 -0.028770296 -0.06278775 0.014105738
0001a0 81 76 2f 3c a5 8a b4 bc cb 13 a0 3c dd d4 05 bd
       0.010709406 -0.022038767 0.019540688 -0.032673705
0001b0 bf af ef bd 3d 9b d8 3c 37 43 b3 3b 63 88 4b bd
       -0.11703443 0.02644121 0.005470659 -0.049690615
0001c0 a4 55 0f 3d 3d fd 5c 3e 45 79 60 be 4f 62 60 bd
       0.034993783 0.21580978 -0.2192126 -0.054781254
0001d0 ec 04 f2 3d c0 64 c5 bc f1 71 86 bc 0a 1c cd 3d
       0.11817345 -0.024095893 -0.016411753 0.10015114
0001e0 b1 9f ed bc 6a a9 9e bc e6 c7 57 3d 1b 30 af bb
       -0.02900681 -0.019367892 0.052680872 -0.005346311
0001f0 a8 32 6b 3a d7 54 2a be 44 a4 6a 3d b8 40 aa 3d
       0.0008972087 -0.16633926 0.057285562 0.08313125
000200 32 2a 8a bd 36 b1 45 be 86 39 26 bd f0 9f 52 be
       -0.06746329 -0.19305882 -0.040582202 -0.20568824
000210 ce f7 1c bd e5 a7 76 bd e5 22 36 3c 2c 0c d8 bd
       -0.038322262 -0.06021871 0.011116718 -0.105491966
000220 64 7b 81 3c de de 9f 3d 73 14 24 bd f1 50 9b bc
       0.015805908 0.078061804 -0.040058564 -0.018959494
000230 2a f9 e0 bc 5f 4c c0 3d 3a 9f f7 bc 7d 89 bd bd
       -0.02746256 0.09389567 -0.030227292 -0.092547394
000240 02 6c c3 bd 7c 3a 34 bd fa 73 67 bd 9b fe 72 bd
       -0.09542085 -0.044001088 -0.05650709 -0.059324842
000250 aa 4f 5f be 55 e3 d6 3d 71 bb 06 be 88 9a f7 3d
       -0.21807733 0.10492579 -0.1315744 0.12090021
000260 c5 87 f6 bc 6f 86 dc 3a 97 70 60 3d 4f a6 50 bd
       -0.030094037 0.0016824732 0.054794874 -0.050939854
000270 9a 52 5e bd 64 19 a4 3c 6f 13 8b bd ba 34 8f bd
       -0.054277994 0.020031638 -0.06790816 -0.06992479
000280 79 ad 16 bd 51 db 7f bd 11 90 04 bd 7e 23 af bd
       -0.03678653 -0.062465016 -0.032363955 -0.085516915
000290 8c 3c 2f bd d6 52 65 3d 0b 9d 3f bd d6 a8 f4 bc
       -0.04278235 0.0559872 -0.046780627 -0.029865663
0002a0 36 0c 0a bd 7e b0 1e ba 3a 2d 52 bc 66 a1 8e be
       -0.03370305 -0.0006053521 -0.012828166 -0.27857512
0002b0 16 32 9d bd 66 ac d3 bd 20 92 4d bb cb 71 75 3d
       -0.07675569 -0.10335617 -0.0031367615 0.059922975
0002c0 a1 ee 85 3d 18 6c 85 bd ba 53 d1 3c 98 19 30 be
       0.065396555 -0.06514758 0.02555262 -0.17197263
0002d0 7e de 5b 3d c8 0a 72 bc 99 75 47 3c d4 c2 a1 bd
       0.053678982 -0.014773078 0.012174034 -0.07898489
0002e0 cb c7 33 bd c0 53 17 3d 88 0e 0b 3c 9c 48 e8 3c
       -0.04389171 0.036945105 0.008487351 0.028354935
0002f0 cc f3 07 3d e4 29 34 be 0a 98 88 bd 65 d6 a8 bd
       0.033191487 -0.17594105 -0.06669624 -0.082440175
000300 ac 01 2c be c1 63 03 bd e6 74 11 ba ce 36 07 be
       -0.16797513 -0.032077555 -0.000554873 -0.132045
000310 93 4e da 3b 7e 2c e7 bd 42 cd f8 bd c5 a7 02 3d
       0.006662199 -0.11287783 -0.12148525 0.03189828
000320 12 75 fc 3d 3d d4 8c 3d f9 09 86 3d 29 48 d7 3d
       0.12327017 0.06876419 0.06544871 0.1051181
000330 e4 7b a3 3d 62 98 1f 3a 18 c4 1e bb d2 ee a3 3b
       0.07982615 0.00060880755 -0.0024225768 0.005002835
000340 dc fd 0f bc 1f 40 3c 3c 4e 0b 0a be fd 4d 09 bc
       -0.008788552 0.011489897 -0.13480875 -0.00838041
000350 1f 75 07 3e 0e b2 de 3c 97 b5 73 bc 58 27 3c be
       0.13228272 0.027184512 -0.014874837 -0.18374383
000360 ed 5c 43 3e 87 01 a8 bd 78 b8 24 bc cf 65 c5 3d
       0.19078417 -0.08203416 -0.010053746 0.09638559
000370 aa df ac bc 64 1f 07 bd 14 c2 66 bd cb 3f c5 bd
       -0.021102745 -0.03298892 -0.05633743 -0.09631308
000380 88 5f ae 3b dd f8 a5 bd 59 4a 82 bd 51 3a 64 bd
       0.005321447 -0.081041075 -0.06361837 -0.055719677
000390 b5 47 8a 3d 6d 88 14 3e d2 e7 47 3d b9 6e 26 bc
       0.06751958 0.14505167 0.048805065 -0.010158234
0003a0 f7 b4 40 3c bc c1 6c bd 14 7c 0a 3e fd 32 55 bc
       0.011761895 -0.057801947 0.13523895 -0.013012645
0003b0 a8 c7 bf 3c 5f 4d 09 3d 43 7e 8d 3c 2f 94 3d bd
       0.023410633 0.033521052 0.01727212 -0.046283897
0003c0 8a 8f 65 bc 47 ec 2d 3d 04 34 43 bd 10 fd 24 3e
       -0.014011273 0.04246166 -0.047657028 0.1611216
0003d0 90 63 d4 bc f8 36 7a bd 77 9e 67 3b 56 c3 39 3d
       -0.025926381 -0.06108758 0.0035342255 0.045352302
0003e0 26 bc de bc 65 56 3b bd 4a 56 3b bc 5f 33 ad bd
       -0.027189326 -0.04573669 -0.011434147 -0.08457064
0003f0 6d 63 15 3e 21 33 a6 bd 4a 0e 32 3e 2f 6e fe 3c
       0.14588709 -0.08115221 0.17388263 0.031058399

cnn.2.bias f4 [64]
000000 14 31 99 bc 34 f7 7b bd ec f3 ca bc 88 ed 93 3a
       -0.01870016 -0.06151505 -0.024774514 0.0011286
000010 7b 48 aa bd 9b 46 d9 3d 4a 8f c1 bc 04 01 e6 3d
       -0.08314606 0.1060917 -0.023627896 0.112306625
000020 da 25 b2 3c e8 07 9d 3d 74 ee 3a 3e f2 15 3a be
       0.021746565 0.076675236 0.18255025 -0.18172434
000030 ef f1 1e 3d 79 2b e8 bd 06 0d ab bd 0c eb 8c 39
       0.038804945 -0.11336417 -0.083520934 0.00026878004
000040 18 9b bb 3c f1 4b fd 3c 3e bd 75 bc 01 5f 5c bd
       0.022901103 0.03092 -0.014998732 -0.05380154
000050 74 25 30 3c e0 7a 5c 3d f2 0d 87 3d d0 38 5a bb
       0.010751117 0.05382812 0.06594457 -0.0033298023
000060 81 fc 41 3d 2c eb 50 bd ee 39 6c bd e0 96 88 bd
       0.047359947 -0.051005527 -0.057672434 -0.06669402
000070 16 f1 43 3d 87 ae 35 be bd 82 9a bd f7 c8 eb 3d
       0.04783734 -0.17742358 -0.075444676 0.115129404
000080 6c 43 0d be 21 5a f8 bd 78 ed 47 bd 3f e9 8e bd
       -0.1379525 -0.12126566 -0.048810452 -0.06978082
000090 b7 ed 09 be cd a3 b1 3d 96 a2 26 bd f4 eb ec 3d
       -0.13469587 0.08673821 -0.040682398 0.11568442
0000a0 ce c1 61 bd 9a cf 68 3d 71 15 95 3d c7 13 19 3e
       -0.055116467 0.05683861 0.0727948 0.1494895
0000b0 48 5d d1 3d 51 e7 e4 bd 5d 53 c8 bc a5 ef 65 3c
       0.1022287 -0.111769326 -0.024453813 0.0140341865
0000c0 08 45 13 3e 34 4a 25 bc e4 d8 c6 bb 00 35 49 3e
       0.14381802 -0.010088492 -0.006068336 0.19649124
0000d0 ec 52 65 bc 87 25 07 3c bf fc bb 3d ac a8 6b 3d
       -0.013996821 0.008248693 0.09179067 0.057533905
0000e0 5a 79 ae 3c d1 08 01 3e 4f fc 73 bd e7 b3 13 be
       0.0212981 0.1260102 -0.059566792 -0.14424096
0000f0 54 c3 4c be 2c 23 96 bd 95 25 8a bd 79 9a c3 3d
       -0.19996387 -0.07330927 -0.067454495 0.09550948

cnn.4.weight f4 [64, 64, 3, 3]
000000 0b ad 4b 3e ec 98 f4 3d 09 c2 e8 3b a4 8b 9a 3d
       0.1989023 0.1194323 0.007103209 0.075461656
000010 f0 a1 24 3d bc 90 d4 bd aa 2c ab 3d c0 a4 29 bd
       0.040193498 -0.103791684 0.08358128 -0.041416883
000020 b5 8a a8 bd 17 7a bb 3b a9 be 69 bd be 2d a9 3c
       -0.08229581 0.0057213414 -0.057066593 0.020651694
000030 5f e2 81 bb ef 04 dd bc 6a 33 90 bd 6c 52 92 3b
       -0.003963753 -0.026979892 -0.070410565 0.004465392
000040 b1 6e ce bd 19 25 2e 3d 79 0a a6 3d 89 0e cb bd
       -0.100797065 0.042515848 0.08107466 -0.09914882
000050 6e ca 0b bc 27 98 1b bb 06 d2 60 3d 38 d5 e3 3d
       -0.00853215 -0.0023741813 0.054887794 0.111246526
000060 75 ed b3 bc 55 6d 02 bd a1 bf 9f bd e1 18 03 bd
       -0.021963814 -0.03184255 -0.07800222 -0.03200615
000070 88 57 bd bc 0a f0 8a 3c 88 8c 09 bd 7b d3 d6 bb
       -0.023113027 0.016960163 -0.033581287 -0.006555972
000080 66 ed e9 bd 89 f5 9a 3d 41 b8 e7 3b 75 a6 aa 3d
       -0.11422233 0.07566363 0.0070715253 0.083325304
000090 28 10 5b bd 2e 55 5e bd cd 02 0c 3c e8 a3 18 bd
       -0.053482205 -0.054280452 0.00854559 -0.03726569
0000a0 d0 2e b5 3b 36 85 8b 3d 38 85 6b bd a3 37 02 bd
       0.005529262 0.06812517 -0.057500094 -0.03179134
0000b0 58 0c dd bd 50 bc 0e 3c 83 7d a5 bd d5 33 c8 3c
       -0.1079337 0.008711889 -0.0808058 0.024438778
0000c0 d5 b8 66 3d 98 47 0d 3e 76 be 49 bd a7 4e 0f bd
       0.056328613 0.13796842 -0.049253903 -0.034987118
0000d0 0f ff 53 3d 00 07 53 bd ad e8 9e bc 5f e4 95 bd
       0.051756915 -0.051520348 -0.019398058 -0.07318949
0000e0 7a 04 20 3d 1e 50 8e 3d 6c 95 58 3d b0 a3 a9 3c
       0.03906677 0.06948875 0.052876875 0.020707935
0000f0 52 54 8d bc 65 00 c6 bc 23 69 84 bd 26 e8 4f 3d
       -0.017252121 -0.02417011 -0.06465366 0.050758503
000100 e6 ea ea 3b 04 ec 08 3d 35 59 89 bc 59 c8 0c bd
       0.0071691154 0.033428207 -0.01676617 -0.034370754
000110 9b d9 9c bd a5 c7 a3 bc ee b6 1d bd 24 84 5d bd
       -0.076586924 -0.019992659 -0.038504533 -0.054081097
000120 c5 5a d2 3a 09 a1 6d 3d a9 a2 22 3d 99 c3 97 3b
       0.001604878 0.058014903 0.039705906 0.0046314714
000130 db a6 0e be 3d a2 0a 3d 1a d7 28 3d 3e a7 5c bd
       -0.13930838 0.03384613 0.04122076 -0.053870432
000140 7a 6a 64 bc f0 16 a8 3b b6 22 79 3c fd b7 d2 3d
       -0.013941402 0.0051296875 0.01520603 0.10288999
000150 37 6b db 3a e3 af 8c 3d b7 3c df 3c b0 7b 80 bd
       0.0016740327 0.06869485 0.02725063 -0.062735915
000160 ec 94 46 3d 29 f0 a7 bd 56 64 24 bc 6b 5f 3f 3e
       0.048481867 -0.08200104 -0.010033688 0.18688743
000170 39 03 39 3e 44 01 e6 3d 46 db 9d bd ce d5 fe 3d
       0.18067636 0.1123071 -0.07707839 0.12443124
000180 ff 5f 2d 39 ba 6d ae bd 77 22 ca 39 f6 20 34 bd
       0.00016534327 -0.085170224 0.0003855412 -0.043976746
000190 15 6e fa bb 86 3f 83 3d e4 34 24 3c cf b9 34 3d
       -0.0076425173 0.064086005 0.010022376 0.044122513
0001a0 88 a2 0a be e4 ba 09 3a af 84 1a bc c1 6f 37 bd
       -0.13538563 0.0005253984 -0.009431048 -0.04478431
0001b0 00 69 14 3e 4a 34 19 bc f1 ee c6 3d cb c4 f7 bd
       0.1449318 -0.009350846 0.09713543 -0.12098082
0001c0 19 a2 0a 3c e6 82 8c 3d f2 8d 7b 3b df 4a d1 bd
       0.008461499 0.068609044 0.0038384167 -0.10219359
0001d0 38 21 23 3d 33 c3 60 3d 56 20 24 3b 48 13 09 3d
       0.0398266 0.054873656 0.0025043688 0.033465654
0001e0 8a 44 da 3c c3 64 0d 3c b0 73 8b 3c df a0 3d bd
       0.02664401 0.0086299805 0.017022938 -0.046295997
0001f0 70 6a 3f 3b f5 a3 ae 3c b7 09 87 bd d9 6d 8c 3c
       0.0029207729 0.021318415 -0.0659365 0.017142223
000200 08 26 3d 3d f7 00 90 3c 7d 0b 16 be 24 43 76 bd
       0.046178848 0.017578585 -0.1465282 -0.060122624
000210 4f d4 25 3b 52 6d 31 3e 38 78 d6 3c 27 eb 6f 3d
       0.0025303548 0.17326859 0.026180372 0.058573868
000220 88 62 71 bc 4e 06 05 bc 87 8c 04 bc f5 b1 1e bd
       -0.014732964 -0.008119179 -0.008090145 -0.03874393
000230 46 d9 10 3d 74 a9 7e bd a0 76 9e bd ac f6 13 bc
       0.035363458 -0.06217332 -0.0773747 -0.009030979
000240 ee 4d 21 3d bf 75 1d bc a6 a5 76 3c 47 f0 07 bc
       0.03938096 -0.009610592 0.015054142 -0.008297033
000250 3f 9f d8 3d d3 0b e5 3d a2 34 39 bd ce 9d 63 3d
       0.10577249 0.11183896 -0.04521621 0.055570416
000260 ea 1a 9e 3d 45 45 3a bd e2 cf 3a bd 9b 67 c3 3d
       0.07719977 -0.045476217 -0.04560841 0.095412455
000270 27 1f 3e 3d ba 83 d9 bb 99 2c 85 3d 77 85 ac 3c
       0.046416428 -0.0066380175 0.06502647 0.021059735
000280 b1 54 8c 3d 20 ff 09 bd 9e 17 93 bd 4d 2a 1d 3d
       0.06852091 -0.03369057 -0.07182239 0.03837042
000290 f5 8c 0c 3d ba c8 b9 3b 04 3c fa 3c 46 a6 73 3d
       0.034314115 0.0056696804 0.030546196 0.059484743
0002a0 bc ce cb bc 3d 6c 82 bd 5b f4 6e 3d a1 4f 3c 3d
       -0.024878852 -0.06368301 0.058338504 0.045974378
0002b0 95 af 8b bd 92 a6 a7 3d 4f 89 06 be 99 bf dc bd
       -0.06820599 0.08186068 -0.13138317 -0.10778732
0002c0 d7 c9 ae 3d 0b 96 37 3b 39 e0 15 bd 37 a4 86 3c
       0.08534592 0.0028013017 -0.03659079 0.016435726
0002d0 78 58 34 3d fc d5 4d be b3 db a3 bb db a2 15 be
       0.044029683 -0.2010116 -0.0050005554 -0.14612906
0002e0 bb 95 05 bc b5 50 2a 3d ba 95 c2 3d a1 d7 82 3c
       -0.008153374 0.041580874 0.09501214 0.01597196
0002f0 fa a6 06 bd f2 c8 90 3d 66 2e ec bc 46 e6 18 bd
       -0.032874085 0.07069577 -0.028830718 -0.03732898
000300 bf 5c 35 3e 82 26 da bd bb 15 02 be 80 9e 20 3e
       0.17711161 -0.10651876 -0.12703602 0.15685463
000310 df 3c 3c be 31 3e 05 3d 65 24 93 3d 27 a8 8d 3c
       -0.18382595 0.032530013 0.07184676 0.017292095
000320 ae e5 30 3d 8e 4f 70 bd 2e 44 50 bd f7 c1 a3 bd
       0.04318779 -0.05866962 -0.05084627 -0.0799598
000330 45 7e 66 bd 7d a3 c0 3d b4 00 92 bb dd 31 8f 3b
       -0.056272764 0.09406183 -0.00445565 0.004369958
000340 a7 9f b0 3c 30 99 9b 3d 49 bc a6 bc d2 48 28 bc
       0.021560503 0.075975776 -0.020353453 -0.010271268
000350 83 14 03 3d 05 be 32 3b 06 30 65 bd a6 a4 ae 3b
       0.032001983 0.0027273905 -0.055954 0.005329686
000360 e1 67 68 bb 13 c2 91 3c 1b bb 1a be d7 2f 80 3c
       -0.0035462307 0.017792737 -0.15110438 0.015647812
000370 66 a9 06 3c a7 d1 3a bd 15 4b 0d 3d 50 fe 0a bd
       0.008219099 -0.045610096 0.034495432 -0.033933938
000380 a1 6d 09 3c 7d 2d 50 bc 51 79 03 3e 98 66 07 ba
       0.008387954 -0.012706158 0.12839247 -0.0005165129
000390 6d ab b9 bc 82 d4 e6 bd b9 43 cc 3d f5 dc 15 bb
       -0.02266475 -0.112710014 0.099738546 -0.0022867296
0003a0 28 82 5e 3d 78 80 0f 3d f3 9e 3c 3d bb 91 2d bd
       0.054323345 0.035034627 0.046050023 -0.042375308
0003b0 1b bd 80 3c d6 c4 3c bc 9d 5d ae bc 94 b2 b7 bd
       0.015715173 -0.011521539 -0.021284873 -0.08969608
0003c0 75 8d 8f bb c7 c9 50 3d a6 6a 48 3d 7b b4 26 3d
       -0.0043808767 0.05097368 0.048929833 0.040699463
0003d0 b8 68 84 bd 84 2b b0 bd ed ad 01 3d fc 4e 31 be
       -0.06465286 -0.0860205 0.03166001 -0.17315286
0003e0 dc 39 a0 bd 06 65 95 3c 5f 7b 60 3d 51 c5 8b 3c
       -0.07823536 0.018236648 0.054805156 0.017061861
0003f0 47 95 06 3d 51 4b 15 3d 05 ec ce 3c ca a7 20 be
       0.032857206 0.03644878 0.025259027 -0.15689006

cnn.4.bias f4 [64]
000000 33 35 c2 bb c0 36 c1 3d ed 73 59 3e 19 a3 56 3d
       -0.005926752 0.09434271 0.21235628 0.052401636
000010 3f 09 1f bd 2f e9 fa bd 87 47 71 be 9a 60 44 be
       -0.038827177 -0.122515075 -0.23562442 -0.19177476
000020 f8 8e ba 3e 86 bf a9 b8 17 9a e5 3d 71 28 46 3c
       0.36437201 -8.094222e-05 0.11211031 0.012094603
000030 d5 fb fd 3d 55 c0 95 3d bd 30 d0 bd 05 e7 84 be
       0.12401549 0.07312075 -0.10165546 -0.25957504
000040 22 65 02 3e 7f 9e d6 3c 2f cc b8 3e 35 5d be bd
       0.12733892 0.026198624 0.3609328 -0.092951216
000050 94 69 ce bd be 55 1f 3d c4 90 16 3c e9 a1 9e bd
       -0.10078731 0.03890013 0.009189788 -0.07745726
000060 bc 5b df bd f8 c9 27 3d b8 0d 1a 3e 9a 43 95 bd
       -0.10906169 0.040964097 0.15044296 -0.072882846
000070 47 dd e1 3b c3 b6 eb 3d bc c1 b5 be b7 a9 51 bc
       0.0068928334 0.115094684 -0.3549937 -0.012796811
000080 36 a0 43 3e 4c 3b 0e 3d 77 91 d3 3d 93 40 66 3c
       0.19104084 0.03472452 0.103304796 0.014053482
000090 f8 a4 9f 3c aa c7 07 3d fb b3 83 be 09 db 37 be
       0.019487843 0.0331494 -0.25723252 -0.17954649
0000a0 cf 0d 21 3d 41 7a 25 bd 93 5d 50 be cb 16 50 3d
       0.03931981 -0.040399794 -0.20348196 0.050802987
0000b0 d5 a6 1f be a9 cb 0e 3d 79 e7 82 3c 05 91 1c be
       -0.15590985 0.034862194 0.015979515 -0.15289696
0000c0 eb 8a 2a 3c 80 20 79 3e e7 42 30 3d 3b 03 c6 3b
       0.010409097 0.24328804 0.043032553 0.0060428656
0000d0 78 1a 82 3d 0c 59 31 be 1e 83 59 be 7b 73 bf bd
       0.06352705 -0.17319125 -0.21241423 -0.09348198
0000e0 78 10 ab bc 71 99 67 3d a2 33 cc 3c e8 d1 2e be
       -0.020881876 0.056542818 0.024926964 -0.1707226
0000f0 ca 68 79 3c f7 62 34 be 7a b7 cb bc 12 3c ea 3c
       0.015222738 -0.17615877 -0.024867762 0.028593097

cnn.6.weight f4 [64, 32, 4, 4]
000000 3d 7e a7 3d fd 1d a8 bc 0e c8 1a bd 80 f7 01 3d
       0.08178375 -0.020522112 -0.037788443 0.031730175
000010 e5 7b 76 3d ca f4 47 be 47 d7 ea 3d 14 9c 82 bd
       0.06017675 -0.19526973 0.11466842 -0.06377426
000020 b1 9b cc bd bb e4 e7 3d 12 b1 47 3e a2 68 94 3c
       -0.09990633 0.11322924 0.1950114 0.018116299
000030 85 c0 87 3c 1a 06 29 3e 2a 17 ad bc 64 93 87 3c
       0.016571293 0.16506234 -0.02112921 0.016549774
000040 79 e9 85 3d 89 e2 ce bd 90 ac 9f bd f7 a2 36 bd
       0.06538672 -0.10101802 -0.077965856 -0.04458901
000050 06 11 4d 3c 6e 26 71 be d9 0c 12 be 17 63 89 3b
       0.012516266 -0.23549816 -0.14262713 0.0041927206
000060 8c 7b 95 bd 21 97 86 bd b4 0a 46 3d f3 b3 df 3d
       -0.07298955 -0.06571794 0.04835005 0.109229945
000070 65 0d 05 bd 20 9d b8 3c 0e 10 f2 3d a8 c1 13 3d
       -0.032483477 0.02253586 0.118194684 0.036073357
000080 14 31 90 3d f8 42 5d bd 1e b9 dc bd b5 44 3b bd
       0.07040611 -0.054018945 -0.10777496 -0.04571982
000090 95 d5 32 bc 36 08 38 bd 7d ff ab 3c 74 84 04 bd
       -0.01091518 -0.044929706 0.02099585 -0.03235288
0000a0 a4 b5 6e 3d ec bd 8c 3d f1 36 04 3e 17 b6 8b bb
       0.058278695 0.06872162 0.12911583 -0.00426365
0000b0 2f b7 d6 3c 6b 79 06 3e f3 92 ac 3d 71 96 ba be
       0.026210396 0.13132255 0.08426466 -0.36442903
0000c0 eb 3f cc 3c 80 69 fe bc f4 78 83 bc 8b 30 88 bc
       0.024932822 -0.031056166 -0.016048886 -0.01662471
0000d0 a2 2c b0 bd 83 c9 09 be 36 de 90 bd c3 a5 6d bd
       -0.08602263 -0.13455777 -0.070736334 -0.05801941
0000e0 50 a0 61 bd 51 be 32 bd 6c 7b 5d 3d 19 84 1f 3d
       -0.055084527 -0.04363853 0.054072782 0.038944338
0000f0 d7 d6 7c 39 d7 54 ac 3c 0c 37 91 3d 11 53 a0 3c
       0.00024112627 0.021036549 0.070905775 0.01957086
000100 9c 7d 4e 3d a4 ab 64 3d 9f 52 f5 3c 70 02 3e 3d
       0.05041276 0.05582775 0.029946623 0.046389043
000110 bd 74 93 be 83 fd b3 bc dc 7c 0b 3e 99 a4 d8 bb
       -0.28800002 -0.02197147 0.13621849 -0.0066114184
000120 95 e5 dd bc 24 67 c7 bd 48 a2 13 3c 21 de 57 3d
       -0.027087012 -0.097364694 0.009010859 0.052702073
000130 12 2a 00 bf e4 9a 33 3d 7c 9d 59 bd 77 e6 30 bd
       -0.50064194 0.043848887 -0.053128704 -0.04318854
000140 2f 8a ce 3c a4 58 66 3d 60 77 8c bd 8c 57 00 bd
       0.025212375 0.056236878 -0.068587065 -0.03133349
000150 60 e7 a1 3d 00 86 0f 3d 94 89 06 bc f9 82 e2 bc
       0.079054594 0.0350399 -0.008211512 -0.027650343
000160 63 72 6a bd e3 15 a5 bc 38 6f 4f bd 1f 47 2e bd
       -0.057237994 -0.020152038 -0.050643176 -0.042548295
000170 fe 8d 9a bd 2a 48 5f bd 19 aa 88 bd 18 27 0d bd
       -0.07546614 -0.05451218 -0.066730686 -0.03446111
000180 0a 71 f8 3d 3d 40 85 3b a3 97 47 bd 03 e1 94 bb
       0.121309355 0.0040664957 -0.048728596 -0.004543425
000190 6e f6 df 3c 5b 55 77 3d 57 1a 39 bd dd 68 3a 3d
       0.027339187 0.060384136 -0.045191135 0.04551016
0001a0 52 13 a5 bd bb 33 81 3c af 44 99 3c 71 9e b0 bc
       -0.08060326 0.015771737 0.018709509 -0.021559926
0001b0 de 10 a4 bd 0d 74 df 3b 7f fb 74 3e 3a 8e de 3b
       -0.0801103 0.0068192543 0.23924063 0.006791857
0001c0 3c 7c 3f bd b0 ef 33 ba 0f 4c e1 bc a5 ef 17 bd
       -0.04674934 -0.00068640243 -0.027502088 -0.037093777
0001d0 ba ea 77 bc c4 ef c7 bd f0 e7 e2 bc 3e 62 ce bc
       -0.015131647 -0.097625285 -0.027698487 -0.02519333
0001e0 1b ae 4b bd ac 48 25 be b9 d7 45 3d 16 ac 29 3d
       -0.049726587 -0.16141003 0.048301432 0.04142388
0001f0 ea c7 bc 3c be 33 ad 3b 38 b8 71 3d df 2a 59 3d
       0.023044545 0.005285709 0.059013575 0.0530194
000200 7b 2e 57 bc d7 4e 65 bd d9 f5 af bd 56 c2 8a 3c
       -0.01313364 -0.05598339 -0.085918136 0.01693837
000210 74 cb 94 bd eb 8f 7f be 71 65 a5 bd 10 6b 8e 3b
       -0.07265368 -0.24957244 -0.08075989 0.004346259
000220 c2 75 89 bd 28 ed b0 bd 90 15 35 bd c0 a8 8f 3d
       -0.06711914 -0.08638984 -0.044210017 0.070146084
000230 28 58 51 bd 7c 1b 33 be 78 6c 19 bd 06 ba c1 bd
       -0.051109463 -0.17490953 -0.03745696 -0.09459309
000240 54 bb a5 bc 7f 3f af bd c6 18 93 bd 42 dc cc bc
       -0.020230927 -0.08557033 -0.071824595 -0.02500737
000250 fd 37 21 bd e9 e2 a4 bd b6 01 fe bc 0a b1 1a 3d
       -0.039360035 -0.08051092 -0.031006675 0.037766494
000260 b9 53 01 3c 45 fa 27 3d f1 7c 87 3d 8e 1b 29 3d
       0.007893496 0.04101016 0.066156276 0.041286044
000270 ed c3 07 3b 0f 64 66 3d a2 d1 f5 3c 25 81 81 bc
       0.0020716146 0.056247767 0.030007187 -0.015808651
000280 f4 aa 1a 3d f7 12 dc bc 9c e7 ef bc 06 29 0d bd
       0.03776069 -0.026864512 -0.029285245 -0.03446295
000290 74 51 cc 3b f2 d9 ef bd f7 1c 15 bd af 0e ec ba
       0.006235296 -0.11711492 -0.036404576 -0.0018009747
0002a0 a2 d0 c1 3c 4b 33 10 bd 30 09 09 3d 64 e8 2b 3d
       0.023659054 -0.035205167 0.033456028 0.04196967
0002b0 75 e8 ae 39 9a e2 7e 3c 3b b9 e4 3a 62 17 f4 bc
       0.0003336106 0.015556956 0.0017450223 -0.029796306
0002c0 50 e7 8a 3d 59 b8 8b bd 67 ec 9f bd 00 53 86 bd
       0.067824006 -0.06822271 -0.07808762 -0.065588
0002d0 2c 31 ff 3a 0c d6 e4 bd 4d 26 90 bc 21 45 47 bd
       0.001946961 -0.11173639 -0.017596388 -0.04864991
0002e0 04 48 64 3c 58 70 61 bc fb 24 8e 3d 89 89 26 bd
       0.0139331855 -0.013759695 0.06940647 -0.040658507
0002f0 11 50 f7 bd 37 0e 2a bc 76 a4 20 3e aa cb c9 3d
       -0.12075818 -0.010379366 0.15687737 0.09853299
000300 c1 63 ab bc 22 45 c7 bd a5 ef 89 bc bc 32 8a bd
       -0.02092159 -0.09729983 -0.016837904 -0.06747958
000310 24 2a 3d bd bc b6 db bd 88 33 40 bd f4 c9 7a bd
       -0.046182767 -0.10728213 -0.046924144 -0.061227754
000320 70 a3 73 bd 05 48 e9 bc 45 aa dc 3b a6 fd 03 bc
       -0.059482038 -0.028476724 0.006734165 -0.00805608
000330 7e 10 19 bc 9b 2b 16 bd 74 97 06 3d 87 f9 b3 3c
       -0.009342311 -0.03666268 0.03285928 0.02196957
000340 be 80 8f bd 72 64 e9 3c 4f 33 aa bd 27 4b 9a bd
       -0.070069775 0.028490279 -0.083105676 -0.075338654
000350 3a 50 4f 3d 73 dc 91 bb 45 9b e7 3a c5 fe 1c ba
       0.05061362 -0.0044513284 0.0017670175 -0.00059888914
000360 21 71 1e bd 19 4b 05 3c c3 9f 0c bd 2d 2b 19 bd
       -0.038682107 0.00813558 -0.03433205 -0.03739469
000370 38 bb 69 3c a6 a2 0e bd 96 15 e0 bd ce d4 23 bd
       0.014265828 -0.034823082 -0.10941617 -0.03999787
000380 0d 48 06 3f e9 65 17 bd 1b c9 70 3e 5c ed 34 3c
       0.5245369 -0.036962423 0.23514216 0.011042919
000390 97 e2 3a ba b2 57 07 3e 1e 94 ba 3b 68 ba 84 bd
       -0.00071291014 0.13217047 0.0056939265 -0.06480867
0003a0 c9 03 3e 3e 07 cf 93 bc 4e 79 b6 bd 62 ce 01 bd
       0.18556131 -0.018043054 -0.08909856 -0.031690963
0003b0 fa 6c 2f 3d ab f2 46 be 07 85 c7 39 1a 2a 84 bd
       0.042828538 -0.19428508 0.0003805535 -0.06453343
0003c0 e8 ca 08 3d 29 c3 3c be de 6b 13 be a9 a6 88 bd
       0.03339663 -0.18433823 -0.14396617 -0.06672413
0003d0 7d 7c c8 bd b2 d8 8e be 58 b1 16 be a0 18 82 3d
       -0.09789369 -0.278997 -0.14716089 0.06352353
0003e0 75 a4 74 bd d8 bb c2 3b 53 c3 92 3d 89 e5 f2 bd
       -0.05972715 0.005942803 0.071661614 -0.118601866
0003f0 54 38 b4 bc 41 14 0a 3d b3 a5 27 bd b5 6c 57 bd
       -0.021999516 0.033710722 -0.040929507 -0.052593905

cnn.6.bias f4 [32]
000000 bb 73 81 3e de e2 d1 be 8c c3 a9 3d b7 a7 ed 3d
       0.25283608 -0.40993398 0.08289251 0.11604255
000010 05 cd 36 3e 70 46 83 3d 1a cb 8d 3e 49 e9 05 3e
       0.17851646 0.06409919 0.27694017 0.13077272
000020 bd 64 91 3e 89 7e 35 3e d0 27 15 3e e8 51 c1 ba
       0.2839717 0.1772405 0.14565969 -0.0014749141
000030 9d c6 9f 3e 5f b8 66 3e b7 bf 3f be bb 36 4a be
       0.31206217 0.2253127 -0.18725477 -0.1974744
000040 3c a5 b9 bd 79 c6 ff 3d 56 80 22 3e a4 cd c8 3d
       -0.09064719 0.124890275 0.15869269 0.09804848
000050 67 41 1f bd 90 4e af 3d 6e bb 16 3e 5b 99 03 3e
       -0.038880732 0.085599065 0.14719936 0.12851469
000060 9d bc 92 3e 17 c4 0a 3e ee 1c ee 3d 5c 0f 77 3d
       0.28659526 0.13551365 0.11626612 0.060317382
000070 32 10 b5 be 21 77 88 3d ee 6b aa be 24 23 c6 3c
       -0.3536392 0.06663347 -0.3328547 0.024186678

cnn.8.weight f4 [32, 3, 8, 8]
000000 5e 50 89 ba 4c ea eb ba d6 72 aa ba a7 59 87 ba
       -0.0010476222 -0.0017998903 -0.0013004194 -0.0010326401
000010 3d 91 c2 b9 42 e2 54 ba ea 08 ab b9 b7 7b 36 ba
       -0.00037110774 -0.0008120873 -0.00032622303 -0.0006961184
000020 c4 73 c6 ba b9 b4 0b bb 90 6e 12 bb 8c a5 f8 ba
       -0.0015140702 -0.0021317436 -0.0022343732 -0.0018970235
000030 f5 13 d9 ba 1b 5c d5 ba 37 b4 b6 ba 9a fd c9 ba
       -0.0016561734 -0.001627806 -0.0013939206 -0.0015410662
000040 0b 40 bf ba 4c 67 1a bb ac ba 2d bb 34 22 24 bb
       -0.001459123 -0.0023560105 -0.002650897 -0.00250448
000050 6f 7c e9 ba 7e 1b c9 ba 4d e1 c8 ba ef a7 fd ba
       -0.0017813573 -0.0015343276 -0.0015325934 -0.0019352416
000060 7f 21 17 bb bb 63 1d bb ce f8 2e bb bd c7 17 bb
       -0.0023060737 -0.0024015743 -0.0026698592 -0.0023159825
000070 9d 8a fa ba d1 a5 d3 ba 5c 00 04 bb 29 d5 17 bb
       -0.0019114796 -0.001614744 -0.0020141816 -0.0023167825
000080 23 82 fa bc a3 52 fb bc bb b9 fb bc 45 d4 fb bc
       -0.030579632 -0.030679053 -0.030728212 -0.030740866
000090 40 db fd bc 65 45 f7 bc 35 f7 f8 bc c6 ff f9 bc
       -0.030988336 -0.030184457 -0.030391315 -0.03051747
0000a0 84 5e 00 bd 94 a5 07 bd 8c b4 0b bd 33 d1 05 bd
       -0.031340137 -0.033116892 -0.03410773 -0.03267021
0000b0 47 97 02 bd bf 26 06 bd 12 49 08 bd bb 6c 05 bd
       -0.03188255 -0.032751795 -0.03327281 -0.032574397
0000c0 73 fb 00 bd 86 fd 06 bd ee 39 09 bd 54 dc 04 bd
       -0.0314898 -0.032956623 -0.03350251 -0.032436684
0000d0 e5 1d 03 bd f3 b0 05 bd b9 a8 06 bd 92 b5 01 bd
       -0.03201093 -0.032639455 -0.03287575 -0.0316673
0000e0 0f 65 f5 bc fe 47 f2 bc e6 ac ed bc 55 24 ed bc
       -0.029955415 -0.029575344 -0.029013108 -0.028947989
0000f0 1c 69 f9 bc ad 16 f5 bc fb 2c f0 bc f6 a8 ec bc
       -0.030445628 -0.02991804 -0.029318323 -0.02888916
000100 8b 10 f0 ba 0d 0c 0d bb 81 4c d8 ba c0 26 c2 ba
       -0.0018315477 -0.0021522075 -0.0016502292 -0.0014812574
000110 32 91 cb ba d0 98 d3 ba 8c ee a1 ba 82 d5 ca ba
       -0.0015530942 -0.0016143564 -0.0012354418 -0.0015475007
000120 32 6e 31 bb 5a 56 3d bb c5 27 25 bb 5a c6 0a bb
       -0.0027073738 -0.002889058 -0.0025200706 -0.0021175356
000130 20 67 30 bb 36 ef 37 bb 65 eb 16 bb d7 91 19 bb
       -0.0026916936 -0.0028066165 -0.002302849 -0.0023432875
000140 de 0d 38 bb 6e fb 5a bb e7 f0 49 bb 95 e8 39 bb
       -0.0028084437 -0.0033414024 -0.0030813755 -0.002836739
000150 b5 c7 2f bb 2d e4 32 bb 21 fd 1d bb 2d 49 44 bb
       -0.0026821916 -0.0027296648 -0.0024107175 -0.0029950843
000160 4b 4c 5d bb c3 da 58 bb 76 fd 4c bb a7 41 3e bb
       -0.0033767398 -0.0033089377 -0.0031279004 -0.002903083
000170 39 3f 3e bb 7b f6 25 bb df 67 33 bb 30 a8 5d bb
       -0.0029029383 -0.0025323916 -0.0027375144 -0.0033822171
000180 36 de 2a bd 4e 1f 2b bd 7f e4 2b bd 0c a2 2c bd
       -0.041715823 -0.0417779 -0.041965958 -0.042146727
000190 14 d4 2c bd 9c bf 2b bd d2 15 2e bd 38 c6 2f bd
       -0.04219444 -0.04193078 -0.04250128 -0.042913646
0001a0 9e 03 31 bd c2 c7 37 bd 25 ac 3b bd e7 24 35 bd
       -0.04321634 -0.04486824 -0.045818467 -0.044224646
0001b0 b7 04 32 bd 1b 37 37 bd a8 95 3b bd b9 06 38 bd
       -0.043461528 -0.044730287 -0.04579702 -0.044928286
0001c0 50 b0 32 bd 9e bf 38 bd 31 39 3a bd 07 4b 36 bd
       -0.043625176 -0.045104615 -0.0454647 -0.044505145
0001d0 24 83 32 bd fa da 36 bd fd d1 39 bd 57 6c 37 bd
       -0.043582097 -0.044642426 -0.045366276 -0.044781055
0001e0 41 3e 2e bd eb 4f 2b bd 55 2e 2b bd a0 ba 2b bd
       -0.04253984 -0.041824263 -0.041792233 -0.041926026
0001f0 e3 5b 2c bd 35 b9 2c bd 5b ff 2d bd 6e 45 2f bd
       -0.042079818 -0.042168815 -0.042479854 -0.042790823
000200 ca e8 43 bb cf 93 34 bb 5c 01 17 bb 28 1a 06 bb
       -0.0029893392 -0.002755392 -0.0023041582 -0.0020462368
000210 3f 98 d3 ba 3f 40 04 bb 49 ab ee ba 67 72 0d bb
       -0.0016143395 -0.0020179895 -0.0018209006 -0.0021583082
000220 67 b5 65 bb cf a0 5f bb 33 08 39 bb f3 57 2e bb
       -0.0035050751 -0.003412295 -0.0028233647 -0.0026602715
000230 d5 54 1b bb 69 9f 31 bb 78 3e 13 bb 04 43 23 bb
       -0.0023701687 -0.0027103072 -0.0022467654 -0.002491177
000240 51 13 76 bb 0b 73 82 bb ad 08 63 bb d5 ec 64 bb
       -0.0037548135 -0.0039809993 -0.0034642622 -0.0034931202
000250 92 fe 22 bb b0 41 30 bb 76 aa 2d bb 56 2b 56 bb
       -0.0024870974 -0.0026894622 -0.0026499308 -0.0032679639
000260 b4 8c 87 bb cc f5 67 bb 2a 32 62 bb 48 cd 62 bb
       -0.004136646 -0.003539431 -0.0034514763 -0.003460722
000270 0f e4 27 bb 5e b9 21 bb 48 5d 27 bb 8f 5f 6e bb
       -0.0025618111 -0.0024677138 -0.0025537778 -0.0036372875
000280 c9 a2 99 bd e2 4b 9a bd 49 56 99 bd 78 18 98 bd
       -0.07501752 -0.07534005 -0.07487161 -0.07426542
000290 d7 f3 98 bd cc 34 9a bd b1 3c 9a bd 67 ba 98 bd
       -0.07468384 -0.075296015 -0.07531107 -0.074574284
0002a0 b8 28 9f bd d6 13 a1 bd db d2 9f bd 4c a8 9b bd
       -0.07771438 -0.078651115 -0.07803889 -0.076004595
0002b0 5e 43 9e bd 19 3b a0 bd 84 23 9f bd a1 07 9c bd
       -0.07727693 -0.07823772 -0.07770446 -0.076186426
0002c0 fc ab a1 bd 83 ba a2 bd 00 bb a0 bd 39 38 9d bd
       -0.078941315 -0.079457305 -0.078481674 -0.07676739
0002d0 42 54 9f bd 32 fc 9f bd 43 76 9f bd 13 4b 9d bd
       -0.07779743 -0.07811774 -0.077862285 -0.07680335
0002e0 e8 09 9f bd 38 2f 9e bd 6b 18 9d bd 0e e0 9b bd
       -0.07765561 -0.0772385 -0.07670673 -0.076110944
0002f0 8d 7c 9c bd 18 d2 9c bd 83 11 9d bd 9b a6 9c bd
       -0.07640944 -0.0765726 -0.07669356 -0.07648965
000300 37 76 5f 3b 52 8a 3d bb 7a 27 5b bc ac 55 97 bc
       0.003409756 -0.0028921557 -0.013376111 -0.018473469
000310 3a c8 5c bc 77 67 55 bb dc 03 b0 3b 66 51 09 3c
       -0.013475472 -0.003256289 0.005371554 0.008381223
000320 c8 8d 42 3a d6 47 94 bc 3b e0 08 bd 70 8f 14 bd
       0.000742164 -0.01810066 -0.033416968 -0.036269605
000330 87 c5 d0 bc 0b d2 27 bc a6 54 5a 3b 7a ed 3d 3c
       -0.025484813 -0.010242949 0.0033314615 0.011592263
000340 6c ed 50 bc 2c 93 00 bd 92 39 27 bd f8 a4 1b bd
       -0.012751918 -0.031390354 -0.040826388 -0.037999123
000350 b5 b7 b0 bc 6c 76 bf bb bc fb c1 3b c2 62 1e 3c
       -0.021571973 -0.0058429744 0.0059199017 0.0096671
000360 0a ba c9 bc b4 89 54 bd 22 17 88 bd 29 e5 7f bd
       -0.024624843 -0.051889136 -0.06645037 -0.062474404
000370 23 0a 45 bd f5 38 c5 bc f9 7a d8 bb 82 73 88 bb
       -0.04810537 -0.02407501 -0.0066064564 -0.00416416
000380 39 13 80 bc 7d 4f 67 bd 49 89 92 bd bc a3 72 bd
       -0.015634166 -0.05647229 -0.07155091 -0.05923818
000390 08 08 20 bd a3 e9 d6 bc a9 28 bb bb 96 1f 05 3c
       -0.03907016 -0.026234454 -0.005711634 0.008125206
0003a0 60 db ed bc f0 9c 6f bd 86 82 92 bd f1 37 a3 bd
       -0.02903527 -0.058499277 -0.071538016 -0.07969654
0003b0 41 02 9d bd 2d 64 69 bd 08 1b 0a bd 2e 12 7a bc
       -0.076664455 -0.0569803 -0.033717185 -0.015263123
0003c0 bf 0c 6c bd cb 4f a4 bd 47 57 bb bd 8a 9a c2 bd
       -0.057629343 -0.08023032 -0.09147506 -0.09502132
0003d0 d8 24 c5 bd 63 e9 ad bd f7 25 91 bd 99 91 6b bd
       -0.09626168 -0.084917806 -0.07087319 -0.0575119
0003e0 70 62 a5 3d 3f bc a4 3d 9a 87 aa 3d e1 8b b9 3d
       0.08075416 0.080437176 0.08326645 0.09059883
0003f0 3b 75 b1 3d b0 52 b2 3d 87 d9 b2 3d a0 c2 a3 3d
       0.08664938 0.08707178 0.08732896 0.07996106

cnn.8.bias f4 [3]
000000 2e f9 a6 3e f7 72 ac 3e ee 60 b6 3e
       0.32611984 0.3368146 0.35620826
