models/AnnaCNN/encoder_weigths.pth (torch, 980743 bytes, 10 tensors)

cnn.0.weight f4 [32, 3, 8, 8]
00000000: e228 bcbd 4432 09bd 24cd 8fbc 4949 aebd
00000010: 89a4 9fbd b59d a9bd 0fbd 74bd e989 a6bd
00000020: 2341 a2bd 8720 5abd cb76 a2bd bc64 c3bd
00000030: 1e7b d2bd d313 76bd e09c d7bd cf7a 36bd
00000040: 6f34 3dbd 4485 9ebd 6ce3 56bd e7fa babd
00000050: 24bd e1bd e713 ecbb 27ac e9bc 6bc6 cebd
00000060: 0722 cbbd 62ed edbd 0df2 28bd bc5f 2abd
00000070: 987f e6bd fb16 74bc ff23 f4bc 1eb8 08be
00000080: eff8 37bd f168 0ebe ad3c d1bd 3bdf 04bd
00000090: d969 51bd 537b 95bd f000 98bd b4c0 eabd
000000a0: c242 87bd dc9b 67bd 792d b6bd fc13 3dbd
000000b0: 0473 ccbd 2eb8 0fbd c5f2 8abd 52e7 10be
000000c0: 14f6 dcbd 24ac 6dbd aec8 b2bd fdeb 9ebd
000000d0: 043f 5dbd 4119 dbbd fe9c a3bd c816 1abe
000000e0: 4974 1cbe 28c8 b8bd 1457 f0bd e0ab 10be
000000f0: 08cf a4bd 6790 d9bd a48a 9ebd a3c5 06be
00000100: f8c5 ee3c cf23 3739 1476 093c d75d db3d
00000110: 66ad de3d 51d5 df3d 86c6 e33d aae2 103c
00000120: a482 933b 542e e03d 067e ef3c 25e0 6d3b
00000130: fa71 cb3d ff68 aa3d bbfa e83d 6b4f 8e3d
00000140: 3687 e63c 14f4 2e3d e594 f23d 33e3 ff3d
00000150: 0e75 133e d400 353c 0259 353d 4925 aa3d
00000160: 97e3 063e 5256 a53d eef8 4f3d a2ae fd3d
00000170: 0d2d 4f3d 4ab4 6b3d b24a 613d 57a9 773d
00000180: 8882 dfbb 5fac ff3d 4b1c 1f3e cff9 6f3c
00000190: fa49 fb3d 3373 843d 0f80 313d cde3 2b3d
000001a0: f9b8 d43c 9d24 6e3c 7cd5 be3d ddd4 bd3d
000001b0: 9c97 b43d 5b54 b43d 63a6 8e3d a112 ce3d
000001c0: 0a33 ab3d e74a 7e3d 5438 083e 15a3 963d
000001d0: e68c 753d f012 8c3d 1d45 cb3d 3fc6 063e
000001e0: b21f 3c3d 83db c83d 2ef3 a23c 9c4f 133d
000001f0: fd38 d43c 77f7 173c 842b a23c 7aa9 c13d
00000200: 31a3 583d bb67 ac3d 6ed5 5f3c 75dd 67bc
00000210: 676c bd3c f7a5 14bd d955 1abb 3671 dc3d
00000220: 2ee6 e33c c5cd 903c 99b0 443d e0b1 fa3c
00000230: 8091 05bd bd11 a03c 2692 84bd 6742 c13c
00000240: 30fe 06bb 5bb6 05bb b724 c0bb dfac ceba
00000250: f082 1f3c 93b5 9439 ab0a 893a 2105 93ba
00000260: 87c4 c0bc 92a3 533c 8008 cbbc 263f a4bd
00000270: a6e3 5c3c fcf0 363a f2e0 44bd 0f1c a53d
00000280: 7277 143d 5abc 533c cc47 c9bc 1522 59bc
00000290: b9b7 05bb aa58 953c 5ef8 333d 63c5 473c
000002a0: f1f2 303d 110e 573d 0e03 3c3d fdb6 f3bc
000002b0: a7b6 d039 3ffb 04bd c6a6 723b 477e 483d
000002c0: 2015 8bb9 1b36 9a3c 3fd7 443d 34b8 e9bc
000002d0: aed8 183d c4d8 3ebb 1c22 c0bc 785d 453d
000002e0: 5d3d df3d c0f1 db3c df28 8b3d a5a2 95bc
000002f0: de3b 5e3d ae63 083d 9f96 963d 95c3 843d
00000300: 2e32 693d b29e 45bd 296c 263d 1779 903b
00000310: 4000 d73b 1904 763d 39df 953d 08df 02bd
00000320: 6905 1cbd 4222 f93c 7211 ccbc 67e2 833d
00000330: 5456 023d 032e 2dbd d352 803d a7b8 b93c
00000340: b5e0 663c 2748 bc3c eb50 66bd 5c48 183d
00000350: 3420 02bd 5bf6 303d 62c6 1f3d b59b 9c3d
00000360: 7438 8ebb c742 4f3d 1026 cebc d7b7 753d
00000370: e2e5 383d 7276 083d ce1d 1f3d 196e 9f3d
00000380: 79d5 593d 603b 29bc 1825 93bc fc07 a03d
00000390: eaeb 2fbd 2112 e3bb aa60 11bc 40f2 dcbc
000003a0: 7534 423d 09ba 1d3c 02a6 c33b a80c c73c
000003b0: 0046 b53c 8045 b93c 2b86 473c d074 5cba
000003c0: ea5d 833d e309 9b3b 5386 35bc 3c74 bc3b
000003d0: 4b63 963d 1577 9f3d 11b1 60bd ebb8 8e3d
000003e0: 51df a5bb 4923 5b3c 04de 25bd e18b e93c
000003f0: eb9c 17bc 33e6 3bbd d49c 24bd 3bd6 283d
-0.09187485 -0.033495203 -0.017553873 -0.08510072 -0.077950545 -0.08282033 -0.059750613 -0.08131773
-0.0792258 -0.053253677 -0.07932814 -0.09540698 -0.10277389 -0.0600775 -0.105279684 -0.044550713
-0.046192583 -0.07740262 -0.05246298 -0.09129887 -0.11022404 -0.007204521 -0.028524471 -0.10096439
-0.099185996 -0.11617543 -0.041246463 -0.041595206 -0.11254805 -0.014898057 -0.02980232 -0.13351485
-0.044915136 -0.1390722 -0.10216651 -0.03243945 -0.051126335 -0.07298913 -0.07422054 -0.114625365
-0.0660453 -0.056545123 -0.08895392 -0.046161637 -0.09982875 -0.035087757 -0.06784586 -0.14150742
-0.10789123 -0.058025494 -0.08729683 -0.07759855 -0.054015175 -0.10698176 -0.07988928 -0.15047753
-0.15278734 -0.09022552 -0.11735359 -0.14128065 -0.080473006 -0.10623246 -0.07741287 -0.1316133
0.029147133 0.0001746558 0.008389968 0.10711258 0.10872917 0.10929359 0.1112185 0.008843103
0.0045016576 0.109463364 0.029234897 0.003629693 0.09933849 0.08320808 0.11375948 0.069487415
0.028140645 0.04271324 0.11844806 0.12494507 0.14400122 0.011047561 0.044274338 0.08307893
0.13172756 0.08073105 0.050774507 0.12386824 0.050580073 0.057544984 0.055002876 0.06046423
-0.0068209805 0.12484049 0.15538137 0.014646961 0.12269969 0.06467285 0.043335017 0.041965295
0.025967108 0.0145350965 0.09318063 0.09269116 0.0881798 0.08805152 0.069653295 0.10062147
0.08359344 0.06208315 0.13302737 0.07355324 0.059948824 0.068395495 0.09925292 0.13161562
0.045928665 0.098074935 0.019891348 0.035964593 0.02590608 0.009275309 0.01979614 0.09456153
0.052890006 0.084182225 0.013661725 -0.014151921 0.02312298 -0.03629109 -0.0023549704 0.10763781
0.02781972 0.017676244 0.04801998 0.030602396 -0.032609463 0.019539708 -0.06473188 0.023591233
-0.0020598285 -0.0020402882 -0.0058637518 -0.0015768072 0.009735808 0.00028364043 0.001045545 -0.0011216738
-0.023531212 0.012917416 -0.024784327 -0.08019857 0.01348201 0.00069786585 -0.048066087 0.080619924
0.036246724 0.0129233245 -0.024570368 -0.013252755 -0.0020403697 0.018230755 0.043938033 0.012193057
0.043200437 0.05250365 0.04590135 -0.029750342 0.00039808938 -0.03246617 0.0037025674 0.048948552
-0.00026527885 0.018824628 0.048056837 -0.028530218 0.037316017 -0.0029120902 -0.023453765 0.048184842
0.10900376 0.026848674 0.06794905 -0.018266032 0.054256313 0.033298187 0.073529474 0.06482617
0.05693262 -0.048247047 0.040630493 0.0044089663 0.006561309 0.0600625 0.07317967 -0.03195098
-0.038091097 0.030411843 -0.024910662 0.06439667 0.03182061 -0.04228021 0.062657975 0.022671057
0.01409166 0.022983624 -0.056229513 0.037178382 -0.031768993 0.043203693 0.039007552 0.07646886
-0.004340226 0.050600793 -0.025164634 0.059989776 0.04514111 0.033316083 0.038846783 0.07784671
0.0531821 -0.0103290975 -0.017962024 0.07814023 -0.042949595 -0.0069296514 -0.008873144 -0.026970983
0.04741331 0.009626874 0.0059707174 0.024298027 0.022128105 0.022616148 0.012177984 -0.00084097404
0.06414397 0.004731403 -0.011079389 0.005751161 0.073431574 0.07786385 -0.054856364 0.06968864
-0.005062022 0.013375112 -0.040494934 0.028509082 -0.009253721 -0.045873832 -0.040188625 0.04121993

cnn.0.bias f4 [32]
00000000: f62d 0bbe d68e 4fbe a2bc 11be 72b7 9fbe
00000010: 1370 313d 2b43 c8bc fe83 a5be 1c9b a4be
00000020: b445 eb3e df42 d43c dd60 b9be 94ae be3b
00000030: 75ec 68be 7926 5b3c 7b1f b4be e2b3 28bc
00000040: cbbf ccbe 6351 82be 52a4 07bd 7805 4cbe
00000050: 94bf a5be ba44 c4bc d3be 06bd 9a1b 9f3d
00000060: 9a05 e2be b4d1 f13e 5155 a23e 9a9e 1a3d
00000070: dfd2 27be 88a1 9ebe 17e4 85be ecc1 e43e
-0.13591751 -0.20269331 -0.14232114 -0.31194645 0.043319773 -0.02444609 -0.32327265 -0.3214959
0.45951617 0.025910793 -0.36206713 0.005819151 -0.22746451 0.013375872 -0.35180268 -0.010296794
-0.39990076 -0.25452718 -0.033115692 -0.19923961 -0.32372725 -0.023958553 -0.032896828 0.077689365
-0.441449 0.47230303 0.31705716 0.03774891 -0.16389035 -0.30982614 -0.2615058 0.446792

cnn.2.weight f4 [64, 32, 4, 4]
00000000: d24e 2c3c 80bd a9bc fce5 36bc 2d66 0fba
00000010: 3df2 d03c 75ac 373c 95df c83c d056 13bd
00000020: 3798 01bd 9c42 0a3b ae42 0fbc 7acc 66bc
00000030: f791 77bc 84fd d8bc 951a ee3c e06d 213d
00000040: ca8e dcbc 7b13 3e3d bff7 5e3d 975d 9c3d
00000050: 38d1 e53c 671a 9f3c 250e 873b 9590 943d
00000060: b24a 563d e906 96b9 6ec2 1b3d 79bd c23d
00000070: 3cde 073d b4af 2d3d d8e8 d33b d453 8e3d
00000080: e73e 47bd 105a e63b 22dd 393d 5851 c83c
00000090: d473 08bd b14a 0e3d 3163 043d 2216 833d
000000a0: 5163 d0bc e90a af3a 4ddf 5f3d 974c 8a3d
000000b0: 8959 303b 3a45 28bd 0da9 3d3d e135 733d
000000c0: 4624 a2bc 0a99 473c f7ba 493c 8b52 7d3d
000000d0: 8a34 853c 3c66 24bc 8503 47bd 4682 333c
000000e0: 5986 0e3d 8c4e 043d 5cdf ddbc 87f2 513d
000000f0: 92aa 233d d6b9 03bb 86eb 68bc 2a6b 773d
00000100: 1317 50bb 5a2b eb3c d4ac 39bd 01e1 953c
00000110: 69af 86bd 7d5e 0bbc a244 59bd e89c 62bd
00000120: 3dd6 883c 396e 863b 2556 64bd 50c7 0cbd
00000130: 7881 06bb 15bb 883b cc67 f0ba 5119 1ebd
00000140: eea5 4a3b 4594 de3b 7644 27bd 035b 9cbc
00000150: 8a1e 3abc b846 c1bc 24b2 e4bb a669 153d
00000160: 9477 c63c 4d7d 023d 1bf8 c33c 454c 28bc
00000170: 682a 16bc 1607 55bb 8e4b d7bc ef49 05bd
00000180: bce3 27bc 594b e43c 4a01 603d a85c 6c3d
00000190: b1d0 d3bc d08f ba3c d5d4 0dbc a9ae ae3c
000001a0: 0c5d 603c 5000 9abc c24b 0bbb 4797 e53c
000001b0: f38c e13c fac8 003c 91bd ed3c 0c2b 28ba
000001c0: d508 8e3c 74e4 043d 3da6 9c3d c32d 113d
000001d0: 32aa a3bc 5efb bc3b 99f3 c9bc f968 923b
000001e0: 0c6c 213c b96f 01bc 7ed9 5e3c 5826 d63c
000001f0: e3f1 1dbd 5622 753c cc13 573d 40dc 853d
00000200: 4899 c43c 9be7 45bd e528 0bbd db37 b3bb
00000210: 7816 b83d b64e 3ebd 6c05 94bd 5c1e b4bd
00000220: 0512 78bd 8c2d 86bd c172 afbd 8bd2 36be
00000230: 2235 59bd 1091 5bbd 6782 febd 9f91 cfbd
00000240: 4b4d fabc 8dbe 3abd 0747 33bd 7280 413c
00000250: df2d e93c e849 f93c 5b4f 85b9 ed61 1d3d
00000260: a99d 9d3c e9d7 ad3c 4c8c 2c3d 4c90 1b3c
00000270: c02e d43c 0f18 3f3d 4d55 963a a1c2 903d
00000280: 44a4 45bd 5ce9 e7bc cdf5 7bbc 5560 92bd
00000290: 02e0 dfbd 3649 cfbc 82d3 2dbd 7784 fa3c
000002a0: 8003 26bc b8fa babc b301 04bc 6b2a 813c
000002b0: e107 7cbd 840f 39bd 257c 753c b7b3 0d3d
000002c0: 3518 8fbd 0c29 b1bb 75f6 843d d77e 24bc
000002d0: 6bc1 44bd fb52 c03d 8cbf ad3d 448d e53b
000002e0: d548 bab9 6e5d 593d 5dd1 1c3d fd2d 95bc
000002f0: b4e4 7b3a 7a15 353d e6ba b2bc 156b 0fbd
00000300: e1c5 35bd 51b6 273c 848a 4a3c bb93 8e3c
00000310: 2561 4bbd 43e8 543c 8461 e5bb e1a3 623c
00000320: aeac 433a 3d07 77b9 46bb 663d 0835 133d
00000330: 3512 073a 4d59 02bd 95f8 d93c f199 b03c
00000340: a46b fcbc 257d 14bd 4026 4b3d 3b83 7fbc
00000350: e23d 1bbc ee5f 0c3d 2dc7 78bb 3a38 f63b
00000360: 6b86 b3bc 06f6 8e3c 8124 243c b23f 433d
00000370: a4cc a7bd 3689 9d3c 0d41 c5bb 0461 d8bc
00000380: dec3 84bd dafb 2ebd e5d7 233d cdac e63c
00000390: ed2d 0ebd 219b 01bc 7a3e 033c 6c8a 963d
000003a0: 5eed c13c 9304 68bc f3dc 013d c64e 493d
000003b0: 9494 edbc 449d 9f3c 62a0 523c 224c 39bc
000003c0: 3ccc 2d3d a2d0 283d 096d fbbc ca67 85bb
000003d0: b575 78bc 7697 243d 0c44 2dbd dc90 1dbd
000003e0: cf79 3739 09ac fcbc e8d8 203c 5040 e7bc
000003f0: 8fa0 e5bc 9768 4dbc b959 ad3c 0065 683c
0.010516839 -0.020720243 -0.011163231 -0.00054702425 0.025506133 0.011210551 0.024520675 -0.035971463
-0.031639304 0.0021096831 -0.008743925 -0.014086837 -0.015110484 -0.026488073 0.02906541 0.039411426
-0.026923556 0.046405297 0.054435488 0.07635038 0.028053865 0.01942177 0.004121559 0.07254139
0.05231733 -0.00028615378 0.03802722 0.09508795 0.033170924 0.04240389 0.006466966 0.06949583
-0.048643973 0.0070297793 0.045376904 0.02445285 -0.033313587 0.0347392 0.03232116 0.06400706
-0.025437983 0.0013354692 0.054656316 0.067528896 0.0026908836 -0.041081645 0.046303798 0.059377555
-0.019792687 0.012182483 0.012312642 0.061846297 0.016260404 -0.01003414 -0.04858734 0.010956353
0.034796093 0.03230147 -0.027084045 0.051256683 0.03995759 -0.002009978 -0.014216309 0.060404934
-0.0031752035 0.028707195 -0.045330837 0.018295767 -0.065764256 -0.0085064145 -0.05304397 -0.05532542
0.01670372 0.004102495 -0.055746216 -0.034369767 -0.0020523947 0.0041726925 -0.0018341481 -0.038598362
0.0030921656 0.0067925774 -0.040836774 -0.019086367 -0.01135982 -0.023593292 -0.006979244 0.036477707
0.024226941 0.031857777 0.023922017 -0.01027209 -0.009165384 -0.0032505444 -0.026281144 -0.03254121
-0.010247167 0.02786796 0.05468873 0.05770555 -0.025856348 0.022773653 -0.0086567 0.021323519
0.013694059 -0.018798977 -0.0021254872 0.028026236 0.02753303 0.007860417 0.029021056 -0.0006415106
0.017338196 0.032444432 0.07648895 0.035444032 -0.019978616 0.00576727 -0.02465229 0.00446808
0.009852421 -0.007900172 0.013601659 0.02614133 -0.03856076 0.0149618 0.052509114 0.0653615
0.023998871 -0.04831658 -0.033974547 -0.005469305 0.089886606 -0.046461783 -0.07227597 -0.08794853
-0.06056406 -0.06551656 -0.085668094 -0.17853753 -0.053029187 -0.05360514 -0.12427216 -0.10135197
-0.030554434 -0.04559188 -0.04376891 0.011810409 0.028464256 0.030430749 -0.0002542686 0.038423467
0.019240217 0.021221118 0.042125985 0.009494852 0.025901198 0.046653803 0.0011469513 0.070683725
-0.04825236 -0.028309517 -0.015378428 -0.0714728 -0.10931398 -0.025303464 -0.042438038 0.030580742
-0.01013267 -0.02282463 -0.008057046 0.015767297 -0.06153095 -0.045180812 0.014983212 0.034595218
-0.06987039 -0.0054065045 0.064923204 -0.010040007 -0.04803602 0.09390827 0.084838 0.0070053656
-0.0003553095 0.053067617 0.038285602 -0.018210405 0.00096089696 0.044209935 -0.021817636 -0.03501423
-0.044378165 0.010236339 0.012362126 0.017404428 -0.04965319 0.012994829 -0.00700015 0.013833017
0.0007464391 -0.00023558452 0.05633094 0.035939246 0.00051525544 -0.031823445 0.026607791 0.02155778
-0.030813046 -0.03625216 0.049597025 -0.015595253 -0.009475203 0.034271173 -0.0037960515 0.007514027
-0.021914681 0.017451297 0.010018469 0.047668166 -0.08193329 0.019230466 -0.0060197175 -0.026413448
-0.06482671 -0.042720653 0.040000815 0.02815857 -0.034711767 -0.007910521 0.008010501 0.073506206
0.023672756 -0.014161247 0.031704854 0.04914739 -0.029001512 0.01948417 0.012855621 -0.011309655
0.0424311 0.041214593 -0.03069164 -0.0040712105 -0.015164782 0.040183507 -0.042301223 -0.038468227
0.00017497617 -0.030843752 0.0098173395 -0.028228909 -0.028030662 -0.012537143 0.021160947 0.0141842365

cnn.2.bias f4 [64]
00000000: 65d5 27be 6523 e13d 8839 d43d 8a11 acbd
00000010: 6b31 babc d415 e33b 3203 46bd e78f cebd
00000020: 0010 c33e 5322 4dbc e8c3 04bd 79c7 f8bc
00000030: b95c a43c c785 ebbb c7c6 5cbd 4b82 a93e
00000040: ea68 8dbc 8e15 50be 6162 2fbe 2d3f bdbd
00000050: bbc8 03bd a76d 97bd 5e25 903c 0411 58bd
00000060: 3b37 a63c 340e 8ebd f03a 3a3d afbe bfbc
00000070: 9adb 8cbc b2f2 af3c 3fbb 92be 1804 90bd
00000080: 75eb bbbc 9b1c 32bd 892e a93e a29f f8bc
00000090: 0cd9 893e 4d85 a9bd 207e 0ebb 5428 8cbd
000000a0: bc05 24bd 8be0 e7bd 3d43 fdbc d53b b73e
000000b0: aade 38bd 9968 f3bc 7cde 87bc ee5e 10be
000000c0: 956f bd3d 8e54 9abc 2dd5 0cbe f159 0ebd
000000d0: 659e 903e 0e16 ee3b 90f8 33be 7db7 acbc
000000e0: 572d 84bd 91c4 cdbc 84dc af3c e381 21bd
000000f0: 7345 0e3d 5d12 06be 69a6 c13c f654 42bd
-0.16389997 0.10993079 0.10362536 -0.08401783 -0.022728642 0.0069300923 -0.04834289 -0.10086041
0.38098145 -0.012520391 -0.032413393 -0.030368553 0.020063745 -0.0071875784 -0.053900506 0.33107218
-0.017261941 -0.20320722 -0.17127372 -0.092405654 -0.032173853 -0.073939614 0.017595943 -0.052750602
0.020290008 -0.06936303 0.045466363 -0.023406355 -0.017194558 0.02147803 -0.28658482 -0.07032031
-0.022939423 -0.04348431 0.33043316 -0.030349556 0.26923406 -0.08277378 -0.0021742657 -0.068436295
-0.04004453 -0.11322125 -0.03091585 0.35787836 -0.045134224 -0.029712962 -0.016585581 -0.14098713
0.09249798 -0.018839147 -0.13753195 -0.034753744 0.28245845 0.0072658127 -0.17575288 -0.021083588
-0.064539604 -0.025118144 0.021467455 -0.03943051 0.0347342 -0.13092943 0.02363892 -0.047444306

cnn.4.weight f4 [64, 64, 3, 3]
00000000: 3572 773b 2ff0 bd3b 8e2e b9bc 382a 8cba
00000010: 5213 d2bc eb82 3cbd eb2f e7bc ec42 023c
00000020: 5f75 093c 9469 cd3b b0a7 e6bc 5697 c33b
00000030: c635 22bd 2c9d 0ebd f37d ec3c 94ca fdbc
00000040: af09 033d ef38 28bd b5e7 32bd 916e 9b3c
00000050: 4c6c 143c 9929 cebb 63f5 2fbd 6f31 b9bc
00000060: db9d 0fbc 607c e53c 57bb 98bc 2d7d d2bc
00000070: 11ec 53bc e469 c8bc 2875 d13b c194 ddbc
00000080: 7cc9 c4bc b34c 1ebd 9549 2dbc 7ab3 8a3c
00000090: e62d 91bc 9496 10bd ec42 0fbd 0676 643c
000000a0: 0b15 f7bb fb7f 213d 63b7 18bd ee7a 1b3d
000000b0: abb5 fd3a e082 bebc 7027 18bd ab68 f2bb
000000c0: 4b4d 98bc cbf5 5ebc eb4b 7f3c 187e aa3c
000000d0: aee2 d23c fe49 ea3c 2a86 c2bc 5754 d6bc
000000e0: fa6c ed3c 15a2 693c cfea 7d3c 2bab 29bd
000000f0: 2deb eebc 0f53 7b3c f399 4abc 8756 0fbd
00000100: 0d2e b0bc c3f3 9bbc 4bb0 623b e96f 4fbd
00000110: 7ac7 4abd 5247 ee3c 8d0b 8c3c ef94 293c
00000120: 338b de3c efdc 7d3c 630e 09bd 9763 28bb
00000130: a5e2 a839 f454 27bd 5dd0 db3a a3f4 0e3d
00000140: c07e 3abd 706b 09bc 5661 e2bb abb4 3e3c
00000150: 03f6 b13c d62d a73c 4b54 9cbb 4067 ffbc
00000160: 560b c3bb cb4a 653c 4067 2a3b de0f bfbb
00000170: 82b5 d5bc 6fbc f4bc 67c8 06bc d238 cabc
00000180: 708e 153d 516e 1abd 2672 803c 00ce 3f3c
00000190: 5c15 3fbd 48e6 ab3c 9689 49bc 202f 17bd
000001a0: 8caa bfbc 6915 39bc 80f2 af3b 723e 35bd
000001b0: 2350 223d 3016 213c dce0 143d 46cc 073c
000001c0: 98a3 833c 53e0 cb3c 9480 163d cb39 77bc
000001d0: ae02 c03c 952c b2bc 842b 6f3c b31c 2ebc
000001e0: b36b e13a 92bd 343c 0a76 ddbc 93f1 143d
000001f0: 0753 4e3b 925b 0ebd 8923 503c 20a4 0a3b
00000200: 607d 43bd 876a 973c 670b 7bbb d77d f33c
00000210: 546a 9437 4a13 983c 399e f1bc e2a2 cbbc
00000220: 1372 47bb d7ae ff3b adf2 223c 0cad ddbc
00000230: 2aa1 113c daf9 f1bc c78e 93bb 08b1 eabc
00000240: 928b 19bd 26b9 cfbc 02e7 0dbd 2c74 0abd
00000250: a0f2 cd3c 2331 90bc c6c1 223d 2323 b03c
00000260: 6305 c3bc 9369 1ebc 52f5 ac3c 86f6 a8ba
00000270: ae58 023c 1caf 17bd 36f0 1a3c f8f0 553c
00000280: 49a4 12bc eec4 d8bc 6900 f53c 6745 cdbc
00000290: e066 0dba 4399 22bd d992 d1bc a6a7 45bd
000002a0: 058f 0bbc 6301 d7bb 9d59 30bd 3ceb 1f3c
000002b0: c688 32bd 1167 ddbc 8a15 003d fa5e 5c3c
000002c0: 7360 48bd d1bb 8d3b 08b5 853c dff6 08bb
000002d0: a936 073d a8b4 1fbd 50f6 a33c 0d5b 85bc
000002e0: a87d 083d c2e5 90bc 0518 adbc eec2 e73b
000002f0: 78c6 81bb 0563 3ebc b2ba 1f3c 8220 f7bc
00000300: 2c99 ee3b de53 36bc 2def 0bbd e90a 8bbc
00000310: ca9a 1bbd 5f96 40bd da5e 0fbd 4045 643b
00000320: 9adb ec3c 4acd b4bc 5ea0 98bc da25 34bd
00000330: f8c7 10bd 3d5f 4a3b 68ef d3bc bf21 003d
00000340: ae77 fd3c f888 11bd 9b11 01bd 16e9 70bc
00000350: 2665 823c b61a ec3b ab51 de3b 0016 ffba
00000360: ab3c afbc 7646 473c a828 843c 9beb 0fbd
00000370: 76a3 b4bc 305e 1abc 5656 f73b f601 2cbc
00000380: 0bea 91bb 3963 abbb f269 9fbc cc21 ba3c
00000390: 9387 023d e0fd 0dbc 3e80 acbb 0146 fdbc
000003a0: 025e 94bc 872d 84bb 3915 c73c d8f2 9e3a
000003b0: bf52 2cbd 6446 073d 57f8 a2bc 6059 0a3d
000003c0: ea50 f0bc fc1f 00bd 132b ec3c f662 d63c
000003d0: 0ba9 8abc 7018 243d 28b1 87bc 5605 1139
000003e0: b41a 02bd afca 1b3d cb03 bc3c 2e9a 09bd
000003f0: a038 cabc d091 73bc 20c8 65bc 7b47 d8bc
0.0037757282 0.0057964544 -0.022605207 -0.0010693735 -0.025643978 -0.04602329 -0.028221091 0.007950526
0.0083898 0.0062686894 -0.028156132 0.0059689684 -0.039602064 -0.03481786 0.028868651 -0.030980386
0.031991657 -0.04106992 -0.043678004 0.01897362 0.009059023 -0.00629158 -0.04295863 -0.02260658
-0.008765663 0.028013408 -0.018644018 -0.025694454 -0.012934701 -0.024464555 0.00639214 -0.02704847
-0.024021856 -0.038647365 -0.010576625 0.016931284 -0.017722081 -0.035299852 -0.03497593 0.013944155
-0.0075403503 0.039428692 -0.037284266 0.03795903 0.001935651 -0.023255765 -0.037146986 -0.0073977313
-0.018591544 -0.013608406 0.015582065 0.02081208 0.025742855 0.028599735 -0.023745615 -0.026163263
0.028982628 0.014259835 0.015497877 -0.041423004 -0.029164875 0.015339627 -0.012365806 -0.03499463
-0.021506334 -0.019037133 0.0034589942 -0.050643835 -0.049506642 0.029086743 0.017095352 0.01035045
0.027165985 0.015494569 -0.033460986 -0.0025694126 0.0003221232 -0.040852502 0.0016770471 0.034901273
-0.045531034 -0.0083874315 -0.006908576 0.011639754 0.021723753 0.020407598 -0.0047707907 -0.031177163
-0.005952279 0.013994883 0.0026001483 -0.005830749 -0.026087526 -0.029875008 -0.008226491 -0.024685297
0.036512792 -0.037702862 0.01567943 0.011706829 -0.04665123 0.02098383 -0.012300869 -0.036910176
-0.023396753 -0.0112966085 0.0053694844 -0.044249006 0.039627206 0.00983195 0.036347255 0.008288449
0.016069219 0.02488724 0.036743715 -0.0150894625 0.023438778 -0.021749774 0.014597777 -0.01062696
0.0017198235 0.011031525 -0.027033824 0.036363196 0.0031482594 -0.034755297 0.012703785 0.0021154955
-0.04772699 0.018483413 -0.0038306357 0.029723091 1.7692488e-05 0.018563885 -0.029494392 -0.024857942
-0.0030432984 0.007802825 0.009945554 -0.027060054 0.008888522 -0.029538084 -0.0045031044 -0.028648868
-0.03748662 -0.02535684 -0.034644134 -0.033802196 0.025140107 -0.017601555 0.039735578 0.02150113
-0.02380628 -0.009668726 0.021113072 -0.0012890853 0.007955713 -0.03703223 0.009456685 0.01305794
-0.008950301 -0.02646109 0.029907422 -0.025057508 -0.0005394053 -0.039696943 -0.025582718 -0.048255585
-0.008517985 -0.0065614446 -0.043054212 0.009760674 -0.04358747 -0.027026685 0.03127054 0.013450379
-0.048920106 0.004325368 0.016321674 -0.00208991 0.033011112 -0.038990647 0.020014912 -0.016278768
0.03332296 -0.017687682 -0.021129617 0.007072798 -0.003960427 -0.011620288 0.0097491015 -0.030166868
0.007281443 -0.011128394 -0.034163643 -0.016972976 -0.037989415 -0.047018405 -0.035002567 0.0034831315
0.028913308 -0.022070546 -0.018631157 -0.04398141 -0.035346955 0.003087952 -0.025870994 0.031282183
0.030940857 -0.035531014 -0.03151093 -0.0147040095 0.015917372 0.0072053326 0.006784638 -0.0019461513
-0.021391233 0.012162795 0.016132668 -0.0351368 -0.0220506 -0.00942187 0.007548134 -0.010498514
-0.004452949 -0.005230334 -0.019459698 0.022721194 0.031867575 -0.008666486 -0.005264311 -0.03091717
-0.018111233 -0.0040337476 0.024302112 0.0012126816 -0.0420711 0.033026114 -0.019893808 0.03377664
-0.029335458 -0.031280503 0.028829133 0.026170235 -0.01692631 0.040062368 -0.016563967 0.00013830265
-0.031763747 0.03803509 0.022951027 -0.033594303 -0.024685204 -0.014866307 -0.014024764 -0.026401272

cnn.4.bias f4 [64]
00000000: ecba 0ebd 4051 c93d ea3a 07bd 85ab e93d
00000010: 94c2 34be 783b 8bbc fe0d d63c 22fd fabc
00000020: 6e57 ffbd 7194 873c a548 eabd 223b 35bd
00000030: ff33 0e3d ba93 33be caf5 483e 79d6 993e
00000040: 604c 38be 1027 fcbc a18b 1c3b f30f a73e
00000050: 0c4f e4bc a38a 17bd c051 1ebd 7e27 23be
00000060: c0b4 5abd 57ba f6bc 05ec 35bd c112 343e
00000070: fdfd 353b 9622 79bc 2f20 b0bd 3560 78bd
00000080: ba51 0fbe 9469 3e3c 786b 25be 51d6 273b
00000090: 9f5c 29be 0308 5c3e 81c0 febd 59bd 113c
000000a0: ca41 603b ebea e9bc f735 ffbd d04a 19bd
000000b0: e9a8 b9bc 44e7 f83d b17a 9abd 7a8e abbd
000000c0: 3c18 33bd 4c2c 9c3d 440f 05bd d67e a7bd
000000d0: fa11 1abd 0eb8 38be 4d28 a9bc 623c b9bd
000000e0: 516c dabc a5b8 8dbd a114 6fbc 03fa 803e
000000f0: e9d9 5e3c 4e7e 0ebe 1580 97bd 2584 413e
-0.03484623 0.0982995 -0.03301517 0.11409668 -0.1765235 -0.01699613 0.026129719 -0.030638281
-0.12467848 0.016550275 -0.11439637 -0.044245847 0.034717556 -0.17536822 0.19625011 0.30046442
-0.17997885 -0.030780345 0.0023886936 0.32629356 -0.027869724 -0.03699745 -0.03865218 -0.15933034
-0.053395033 -0.03011815 -0.04441454 0.17585279 0.0027769797 -0.015206 -0.085998885 -0.060638625
-0.1399602 0.0116218515 -0.16154277 0.002560992 -0.16539238 0.21487431 -0.12439061 0.008895242
0.00342189 -0.0285544 -0.12461465 -0.037424862 -0.02266355 0.121534854 -0.07542933 -0.083767846
-0.043724284 0.076256365 -0.03248526 -0.08178489 -0.0376148 -0.18038961 -0.0206491 -0.0904472
-0.026662977 -0.06919984 -0.014592321 0.25190744 0.0136017585 -0.13915369 -0.073974766 0.18898065

cnn.6.weight f4 [64, 64, 3, 3]
00000000: 832b e2bc 2813 b7bc a1f5 24bc 3f16 e8bc
00000010: 467a f83c c0ef 08bd c7d2 803c 6c43 bdbc
00000020: 5b75 b03c fca8 17bd 2b9f 0f3d e0bc 9bbd
00000030: 7332 4b3d 1515 363d d3ee c83d 2aa8 bdbd
00000040: 4100 62bd b6c4 843d d612 833c bbc9 433c
00000050: 6085 e83b 7caa 163d f681 de3c e71e d33c
00000060: c14a 083d 9480 15bb ef33 283c 4765 96bc
00000070: e549 be3c 3d30 ff3d afe6 1ebb 69e4 2ebd
00000080: 64e5 743d 13fc f3bb 9320 803d b1a8 993d
00000090: 8f2e e2bb 6383 263c ad66 0a3c 0b60 653d
000000a0: b114 c3bc c333 4bbc 61de f63c 7310 08bd
000000b0: 19f1 3c3d 352f 703c 0038 d1bc e48e 043c
000000c0: 4a50 d83c 4155 11bc c01c 49bd 7698 b4bd
000000d0: d3e4 b7bb 5088 123d ea34 4d3c efe5 cf39
000000e0: fc0a 99bc 75a1 0cbb 3766 b3bb 301a 31bd
000000f0: bb66 703b 7574 1b3c 5046 a23c dc3f 05bd
00000100: a005 e03c ea7e 2c3b dc81 2f3c e5df 12bc
00000110: d7d0 febc f404 2f3d 893b b33c 0acb c9bb
00000120: a5b0 f93b d22e 5e3d 0fa0 bb3d 4725 563c
00000130: a451 8dbc 0166 a63d 73be 15be ad56 ffbc
00000140: 0abb aa3b 1d11 473d 192c 05bd ad6c e3bc
00000150: 5a93 ae3c 841b 26bc 20e3 e8bc a26b 16bd
00000160: c823 043c 242d 8f3c 3a08 c3bc d2fe 5b3c
00000170: a531 0cbd 2be4 f83c eee8 fc3c 1f88 a4bc
00000180: 08ab 35be b0a2 5abd c4ea 4b3e 4eb8 58bd
00000190: 7bfa 3ebc 12bf 11bd 03bd 833d dd1a 233d
000001a0: 3152 183d a3c3 9ebc 48e1 2fbc c390 c23b
000001b0: 3331 b0bc f1f1 f1bc 5f45 1d3c 8688 96bb
000001c0: 06a1 db3c a341 3fbc ae8b b23a e405 083d
000001d0: 1663 46bc 7a09 013d cb93 033c ce5b 093c
000001e0: 98c5 e5bb fddf a1bb 94b2 b23c 9617 3abc
000001f0: f994 8e3d 4e27 0bbd e3dd cebd 1e21 253d
00000200: faea 20bd bc1d 92bd ca04 c03d 5d85 55be
00000210: 72f4 503d 0021 d0bd 4773 d1be 4cf9 e1bc
00000220: aab1 413c 6f4b 753d 8d00 093d c449 debc
00000230: 2e9c 043d 248c e93d 4500 283c a68e 70bd
00000240: d196 c1bd ad27 19bd e4f7 0e3d f9b1 ea3c
00000250: d427 1ebd 9dba 923c 3d69 27bc 3525 3abb
00000260: 1d1f 623d 1437 9cbc 6241 b3bc 054b 083d
00000270: beb4 113c 4cc9 32bc 285e dabc a849 a2bc
00000280: 9997 98bd 3366 43bd 64f9 00bd 5b45 6f3c
00000290: b5f0 1d3e 369a a9bc 6937 bb3b 7e6d 563d
000002a0: 37e8 25be 7077 93bd deb0 073e d4e1 0dbc
000002b0: 8278 a8bc 575f 573d 38b1 abbc 60be 01bd
000002c0: 9001 a3bd e1ed 383d 8b5d 813d b597 943c
000002d0: ca5a d63c f049 b2bb 1c51 313c 2cd4 15bb
000002e0: 059d dc3c 7dff 953c dc23 b73b 4824 edbc
000002f0: 26e3 2b3d 33bb 1c3b 64ac 353b cf3d 4cbb
00000300: d070 a6bc 009e 3b3b 80f5 75bc e664 1fbc
00000310: f877 efbb 50b9 b2bc 6e1d cdbc b6dd 8abc
00000320: 8b54 9c3c a622 0e3c 306f aebc abc2 c0bb
00000330: 003e aab9 299c 3f3c a9ca b9bc 8dbd debc
00000340: d3a1 a6bd e3f2 bdbb 4461 003c 2d00 2bbd
00000350: c672 2c3c 2be7 3d3d d89a 7e3d 20a4 963d
00000360: 2c27 a23d 823b 873b 6f7b a93c a1f3 5cbc
00000370: 98e5 2f3d 34f4 88bc b890 ec39 4e56 8abd
00000380: f22b e0bd f83e e7bc 549a 34bc f2cc d83c
00000390: 63cb 8fbc 7b8a d03c 797c 043d c399 ca3c
000003a0: 3711 1cbd 4373 bc3c c4cb abbc 90c8 473b
000003b0: 84be f4bc a042 d2bc f8f8 3bbd be0f 1ebd
000003c0: 719d 0d3d 495b 41bd 070b 5b3c d9df 3ebd
000003d0: e29c 393d cebb 0c3d 9854 2d3d 8a4b 943d
000003e0: cbe6 9f3c a6d5 cd3d b9fe 803d 63d8 58bd
000003f0: 9748 5cbd 6ed0 1338 fb46 d93d f024 dabb
-0.027608639 -0.022348002 -0.010068328 -0.02833092 0.030331742 -0.03343177 0.015725506 -0.023103438
0.021540334 -0.03702639 0.035063904 -0.076043844 0.04960866 0.0444537 0.09811177 -0.092605904
-0.055176023 0.06482832 0.016000193 0.011949952 0.0070959777 0.03678368 0.02716158 0.025771571
0.033274416 -0.0022812234 0.010266288 -0.01835884 0.023228595 0.124603726 -0.0024246385 -0.042698298
0.059789076 -0.007445821 0.06256213 0.075028785 -0.006902523 0.010163161 0.008447331 0.055999797
-0.023813577 -0.012402478 0.030135335 -0.033218812 0.046128366 0.0146596925 -0.025539398 0.008090708
0.026405472 -0.008870424 -0.049099684 -0.08818142 -0.005611995 0.03577453 0.012524823 0.0003965343
-0.018681996 -0.002145854 -0.0054748314 -0.043237865 0.0036682326 0.009488215 0.019808918 -0.032531604
0.027346432 0.0026320764 0.010712113 -0.008964513 -0.031105442 0.042729333 0.021878975 -0.0061582373
0.0076199346 0.05424387 0.09161388 0.013070411 -0.017250843 0.081249245 -0.14623432 -0.03116926
0.005210285 0.048600305 -0.032512758 -0.027761782 0.021310497 -0.010138396 -0.028428614 -0.03672374
0.008065172 0.01747758 -0.023807634 0.013427453 -0.034227032 0.030382236 0.030872788 -0.020084439
-0.17741024 -0.053377807 0.19913775 -0.05291014 -0.011656399 -0.03558261 0.064325355 0.03982054
0.03718776 -0.019380396 -0.010734864 0.005937667 -0.021507835 -0.029534312 0.009599059 -0.0045939116
0.02681018 -0.011673364 0.001362195 0.033208743 -0.012108585 0.03150318 0.008030842 0.008383704
-0.0070120804 -0.0049400316 0.021813668 -0.011358162 0.06962008 -0.03397303 -0.10100915 0.040314786
-0.03928659 -0.07134578 0.093759134 -0.20851655 0.05101437 -0.10162544 -0.40908262 -0.027584694
0.011822144 0.059886392 0.03344779 -0.027134784 0.032375507 0.11403683 0.0102539705 -0.05872979
-0.09452594 -0.037391353 0.034904376 0.028649317 -0.0386122 0.01791125 -0.010217962 -0.0028403525
0.055205453 -0.019069232 -0.021881763 0.03327467 0.00889319 -0.010912251 -0.026656225 -0.019810513
-0.0745079 -0.047704887 -0.031487837 0.014603938 0.15423854 -0.020703416 0.0057133925 0.052350514
-0.16201864 -0.07200515 0.13251063 -0.008659799 -0.020565275 0.052581158 -0.020958528 -0.031675696
-0.079592824 0.045148734 0.0631667 0.018138746 0.026166338 -0.005440943 0.010822561 -0.002286206
0.026930341 0.018310303 0.0055889916 -0.028947964 0.041964673 0.002391529 0.002772116 -0.003116477
-0.020317465 0.002862811 -0.015012145 -0.009728646 -0.0073080026 -0.02181688 -0.025038447 -0.016951423
0.019083282 0.008675253 -0.021293253 -0.005882581 -0.0003247112 0.011694946 -0.022679644 -0.027189994
-0.08136334 -0.0057967766 0.00783569 -0.041748215 0.010525411 0.046363037 0.06215939 0.07355523
0.07917628 0.004126967 0.02068874 -0.01348582 0.042943567 -0.016718008 0.00045121252 -0.067547426
-0.10945882 -0.028228268 -0.011023123 0.026464913 -0.017553037 0.025456658 0.03234527 0.024731522
-0.038102355 0.02300418 -0.020971186 0.0030484535 -0.029876001 -0.025666535 -0.045891732 -0.03858923
0.034573976 -0.047206197 0.013369328 -0.046600197 0.04531563 0.034358792 0.042317003 0.072409704
0.01951923 0.10050516 0.062985845 -0.052940737 -0.053780165 3.5241646e-05 0.106092416 -0.0066572353

cnn.6.bias f4 [64]
00000000: 7888 73bc d7aa db3d bd48 cc3d b899 0cbd
00000010: 522c 7cbd 1948 6bbc f3c1 183e 7360 f53c
00000020: 2572 f6bc a3be b1bd 97b6 3e3b c0d2 fe3b
00000030: e760 d83c 8e98 d2bb 2349 863b effa 293c
00000040: 680c 1dbd 21b1 f23c 45dc 3bbe c072 14bd
00000050: 34dc ee3c ddd8 1ebd 3d62 8ebc a3a1 a23a
00000060: 3372 b73b 94e5 553a 5376 54be 0401 aebc
00000070: 9d9d 4abe 8b00 c53d 8b8a d9bc 8d22 b03c
00000080: 960b 81bc aadf 8cbb b954 2b3d f31f 943e
00000090: 76c4 42be 47cb c1bc 3ffc 09be 573d f1bc
000000a0: 08c2 293e caa1 e3bc 5eeb ae3d 800a 9a3c
000000b0: 34ef dcbd 1d91 85bc b5aa 19bc 1f74 cb3c
000000c0: dc8f 58bc 2a9f c1bd bce7 cdbb 968f 04be
000000d0: 28dc b0bd 63c5 f9b9 8938 83bd 7b50 c9bd
000000e0: c4ec f4bc 0ad7 af3c 9c30 83bd 52b0 c2bc
000000f0: 4e45 15be 4524 623c 6d5f 09bd 6e3e 6d3d
-0.01486408 0.107259445 0.09974811 -0.034326285 -0.061565705 -0.014360451 0.14917736 0.029953217
-0.030083725 -0.08678939 0.0029100531 0.007776588 0.026413394 -0.0064268773 0.004098074 0.010374769
-0.03834191 0.029625477 -0.18345745 -0.036242247 0.029157735 -0.038781036 -0.017380828 0.0012407791
0.0055983304 0.0008159515 -0.20748262 -0.021240719 -0.19786687 0.09619244 -0.02655532 0.02150085
-0.015752595 -0.004299124 0.041828845 0.28930625 -0.19020256 -0.0236565 -0.1347513 -0.029448194
0.16577923 -0.027787108 0.085409865 0.018803835 -0.10787812 -0.016304547 -0.009379079 0.024835644
-0.0132178925 -0.09454186 -0.0062837284 -0.12945399 -0.086357415 -0.00047640046 -0.064072676 -0.098298036
-0.029898055 0.021464843 -0.06405756 -0.023765717 -0.14577219 0.013802593 -0.03353827 0.057920866

cnn.8.weight f4 [512, 64, 2, 2]
00000000: 3053 21bd 1412 983d e4ff e4b8 485d 31bd
00000010: 4504 16bd 30a1 dcbd adcb a33d 8f43 0c3d
00000020: 171c 293d 3499 8dbd b9ea 743d 2970 5abc
00000030: 6232 1c3d f423 983c e6f7 31bd 28f0 673c
00000040: 302d 9ebd 48c2 2f3d 191d 4dbb 7652 823d
00000050: 07f1 79bc a607 153c ce75 543d c0ed 1dbb
00000060: 19e6 1d3d 3338 f33d 1534 bf3b f5bb e73d
00000070: 0177 a23c 09dc ed3b e6cc e53b e6b2 00bd
00000080: 98eb 383c 9ce4 683d 7de6 27bd 30ee 653d
00000090: a3fb de3d e4f4 c9bd 7afc 8d3c 1b1c 9a3d
000000a0: 22b7 59bd 8d5a eb3c a1bf 92bc e703 6bbd
000000b0: 4c0a 3abd 6607 b8bc c325 72bd 6d98 233d
000000c0: 8a64 fabc 78c2 92bc 5257 8c3c 603d c13c
000000d0: 5d6e 703b 7b7b 77bd 86d3 193d b4eb 553c
000000e0: b6d8 973c 7319 dcbc 034a 963d 6ee3 d9bc
000000f0: cfc2 093d a725 07bd 4413 af3c 1942 a4bc
00000100: a550 ccbc 0c65 9bbd 0084 ae3c fc26 bbbb
00000110: cfa5 513c 3f42 343c a4ed 593d af73 983c
00000120: c9b4 773d 2746 c93c 1ab5 df3c 476b 7abc
00000130: 5d3d a9bd 8917 debc 9fbd e8bc c1d6 a43c
00000140: f293 593d 5b3c d63c af5d 0c3d 7718 4abd
00000150: 3eb7 5cbd dab1 3d3d f4a8 643d 804c 6f3d
00000160: 431f 6d3a 0e35 2b3d 5321 9cbb 853a b8bc
00000170: 95c6 7ebd 3dc1 b6bc c988 9d3b a8fc da3d
00000180: bd81 383d 78a4 37bb b26b 913c 061c 5b3d
00000190: 0214 0dbd bb7b 32bd 609f a5bc cf9c 29bc
000001a0: 764b 83bb 1ed2 553d 6562 c93d 8d35 4b3d
000001b0: d351 b3bc 1b78 653d cc1e c3bd 43a2 283d
000001c0: d700 9f3c 59de 8abd e655 e5bd 250d 0f3d
000001d0: a9d6 99bc 8637 b6bd 9508 a2bd 19e9 a73d
000001e0: 864e b93b 0c32 1ebd 11b1 3bbd 4c52 9bbc
000001f0: 97a2 d83c f2c6 22bd e956 353d 0a50 96bb
00000200: 9e55 8bbc 8c35 d93c dd3c 7a3d 7f09 0bbd
00000210: fb74 f23c f836 b23b 761a 25bb 316e 62bd
00000220: c435 5bbd bcff 16bd 26e7 dbbd 834c 9fbd
00000230: 62da a93d 3ad9 2dbd c949 cabc 57a4 d5ba
00000240: facd 0a39 72e3 d13a 4c66 663d 56ae e03c
00000250: 82d3 47bd a65b b2bc b0f7 a63c 313a 30bd
00000260: d6b1 5dbc 0d3b 15bc 4d56 d9bc 23f3 8e39
00000270: e2ca 633c b0cd f93c 680e a83c 8189 49bc
00000280: de59 84bb 3bd3 873d d3fa 6abd 4010 a63d
00000290: 0a75 0dbd 0acb 9bbc 1cf1 d7bc 773b c6bc
000002a0: 3b98 7d3d 89cf 80bc 6e3b 083e 1227 15bd
000002b0: 6f7b 75bd ab22 4d3b 0063 453d ceea cb3c
000002c0: 40bd 6f3c 6693 9d3c b436 75bd c01b af3d
000002d0: b73d c83b efc5 283c 9922 1ebd 1d41 59bd
000002e0: c6f1 253d f056 05bc 2ebf 50bd eaa9 a83b
000002f0: 33ea 8ebb 73a6 6b3d 7953 d7bc c75c a33c
00000300: 40fe 9e3c 00b0 8cb8 5667 a9bc 2096 07bb
00000310: 24ef aebd 41f5 4ebc 9eaf 60bb 48c4 443d
00000320: 6a71 3b3d 28ce 513c d581 a2bc 0834 edbc
00000330: 87ab 623c 6a41 e13c e877 51bd 5338 2f3d
00000340: a865 373d 304b ccbd c389 adbd 59d7 f43d
00000350: cccd 3a3c a86e 7bbd 7c1d 6fbd e870 a93c
00000360: d10f 8bbc 6f3d 91bd 2a1a 42bd 1905 9b3d
00000370: 5022 443d 6860 d9bc 2312 47bd 6756 fa3c
00000380: 8011 10bd f87c 50bd c0c4 78bc cc35 30bd
00000390: 98d1 bd3c d497 843c 4fba 593d 7c9d 40bd
000003a0: daf2 533d fa54 8c3d 0320 46bd a59e f9bc
000003b0: 3649 e9bc a282 723c 3ff2 173d 13c5 2a3d
000003c0: b867 84bc 3eeb 89bd c3e3 32bd 0a29 ef3d
000003d0: 1df2 9ebc 4e34 d9bc f9c7 463d 1b5c 07bd
000003e0: e2c9 4d3d 1a07 f13c 658d 11bd 77dd 5d3c
000003f0: 51e4 ac3c 118e 9bbd 4610 17be 00dd 463e
-0.039385974 0.07425323 -0.000109195506 -0.04330185 -0.036625165 -0.107729316 0.079978324 0.034244116
0.041286554 -0.06913987 0.05979416 -0.013332405 0.038133986 0.018571831 -0.043449305 0.014156379
-0.077234626 0.04290989 -0.003129786 0.063633844 -0.015255219 0.009096062 0.05187016 -0.002409801
0.038549516 0.118759535 0.005835066 0.11315147 0.019832136 0.0072588963 0.007012951 -0.03142061
0.011286639 0.056858644 -0.040991295 0.056135356 0.1088784 -0.09861162 0.017332304 0.07524892
-0.053153165 0.028729701 -0.017913641 -0.05737677 -0.045419976 -0.022464465 -0.059118044 0.039940286
-0.030565519 -0.017914996 0.017131481 0.023588836 0.0036686875 -0.060420495 0.03755524 0.013056684
0.018535953 -0.026867604 0.07338335 -0.026597705 0.03363305 -0.032994892 0.021371491 -0.020051049
-0.024940798 -0.075876325 0.021303177 -0.0057114344 0.0127958795 0.011002122 0.053205147 0.01860985
0.060475145 0.024569584 0.027308036 -0.015284366 -0.08263657 -0.027110832 -0.02841073 0.020121934
0.053119607 0.026151827 0.03426903 -0.049339738 -0.05388569 0.04631219 0.05582519 0.058422565
0.0009045491 0.041798644 -0.0047647147 -0.022488842 -0.0622011 -0.02230894 0.004807566 0.106927216
0.045045603 -0.0028021615 0.017751548 0.053493522 -0.03444291 -0.04357503 -0.020217597 -0.0103523275
-0.0040067984 0.052202336 0.098332204 0.049611617 -0.021889603 0.056022745 -0.095273584 0.04117037
0.01940958 -0.06780691 -0.111980245 0.034924645 -0.018779116 -0.08897309 -0.07911793 0.08198757
0.0056551127 -0.038621947 -0.04582316 -0.01896014 0.026444716 -0.03974051 0.044272337 -0.004587178
-0.017008599 0.026514791 0.0610932 -0.033944603 0.029596796 0.0054386817 -0.0025192774 -0.055280868
-0.05351807 -0.03686498 -0.107374474 -0.07778265 0.08293606 -0.04244349 -0.024693387 -0.0016299587
0.00013237438 0.0016013219 0.0562499 0.02742688 -0.048785694 -0.021772217 0.020381778 -0.043024246
-0.013531169 -0.009108317 -0.02653041 0.00027265502 0.0139033515 0.030493587 0.020514682 -0.01230085
-0.0040390333 0.06632086 -0.05736811 0.08108568 -0.034535445 -0.019017715 -0.026360087 -0.024198277
0.061912756 -0.01572396 0.1330392 -0.036414213 -0.05993217 0.0031301181 0.048190117 0.024892237
0.014632523 0.019235324 -0.059866622 0.08550215 0.0061108726 0.010301097 -0.038607214 -0.053040612
0.040513776 -0.008138403 -0.050963573 0.0051472085 -0.004361415 0.057531785 -0.02628492 0.0199417
0.019408345 -6.708503e-05 -0.020679157 -0.0020688847 -0.08541706 -0.012631715 -0.0034284364 0.04803875
0.045762457 0.012805499 -0.0198373 -0.028955474 0.013834841 0.027497012 -0.051139742 0.042778324
0.04477468 -0.099752784 -0.084735416 0.11955137 0.011401605 -0.061384827 -0.058377728 0.02068372
-0.016975315 -0.07091796 -0.047388233 0.07569332 0.047884285 -0.026535228 -0.04860128 0.030558778
-0.03517294 -0.05090043 -0.015183628 -0.043020055 0.023171231 0.016185679 0.053156193 -0.04702519
0.051745273 0.068521455 -0.048370373 -0.030471155 -0.028477293 0.014801653 0.03709626 0.04169185
-0.016162738 -0.06734322 -0.04367424 0.116777495 -0.019402558 -0.026514199 0.048530553 -0.033046823
0.05024136 0.029422332 -0.035535235 0.013541571 0.021104963 -0.075954564 -0.14752302 0.19420242

cnn.8.bias f4 [512]
00000000: 9279 f2bd 6f38 613d ec99 ed3c 8ac7 cbbd
00000010: 1c3b aabd cf13 e33d aea2 81bd 675a cdbd
00000020: 0976 983e 5af0 47bd 08bb 19bd 9c15 5c3d
00000030: 2334 47bd 8552 4e3d 6841 fa3c 1977 483d
00000040: 03f4 15bc 4767 0abe 7785 a6bb 0ce1 15be
00000050: 5e08 6dbd bc21 873b bd14 bc3c 7b59 913d
00000060: 0b2c 023c 5a5b 73be 7b98 9bbd 0eb3 75bd
00000070: 1a99 0b3d 55e2 b53d bd2c 013d e8ce 803d
00000080: a7ed 303d e461 813d 1891 05bd 104d 74bd
00000090: 749d f1bc 6d20 17bd 7aee cebc a9cf 50bd
000000a0: 831d afbd e400 093e 714b aabc caf4 c03c
000000b0: d6a0 a5bc 808e f43d e42b 073e 9167 e53c
000000c0: 8439 5239 f1b7 50bd 16f2 48bd 237b 363c
000000d0: ec9f 3e3c 1f36 15bd e895 ad3d 01bd aabd
000000e0: 4c2a 22be 7916 4a3d f78a 8abd 5d46 c7bb
000000f0: 4847 8ebd 88f3 a9bd a82f 6abe 64b2 d4bc
00000100: 284c fdbc a55b f4bc 5db4 8bbd 1e73 003d
00000110: 78ca 0fbd f183 b23d 77d0 14bd 19c5 033d
00000120: ec09 58be edd3 023d 06d8 23bd bdf5 ddbd
00000130: b847 cfbd fcf0 55bd 8d8e 7ebd 4aef dd3c
00000140: 9b6a b93d ec0a 13bd 9dba cabc 376f 0c3d
00000150: da6f fbbc e71c 83bd 2491 37bd 3efd 07be
00000160: f4a7 30be 65a7 1abd 7acf 6cbd 69ad 59bd
00000170: 1608 fcbc c270 85bd 2c11 b3bd 0c33 52be
00000180: 2240 c2bc dee2 eabd 5cc2 dd3c eb4a e5bc
00000190: e98d abbd 87ca 4dbd c331 cdbd 8e3c 1dbe
000001a0: 069b 98bd 8548 80bd bd43 ea3d 1c44 d9bd
000001b0: 8f89 c7bc 3eab 1dbd 4b53 d3bd 7065 d7bd
000001c0: 1669 0cbc 0d0b 10bc df86 3dbd a5f5 17bd
000001d0: 8bc6 9fbd 9d6d df3d 894d b9bc 7b50 2ebd
000001e0: f471 553d 41b5 b2bc a219 20be 531b a53e
000001f0: f44b 27bd b2b7 a4bb a00b 9bbd 846a 62bd
00000200: 92db e0bd 8de9 3e3d 9d26 96bd 75ed ab3d
00000210: e834 adbd 38bf 553c 3776 9cbc 3835 8bbc
00000220: cc32 20be 54f2 c6bc 2422 6fbd f4c3 1c3c
00000230: 8a21 c2bc c77a f93d 26b1 94bc 471f 02bd
00000240: 98b5 0ebc ccfd 4d3d 36c7 df3c 9a75 383c
00000250: a0d1 953b 6d09 9bbc adbe 24bd b716 00bc
00000260: 5bb0 64bd 2313 2a3d 21d4 e73b 1de0 92bd
00000270: f09f 163e 1a57 e93b 6102 07bd a135 ecbc
00000280: 14ac 97bc e12c 82bd 2ac9 4fbc 9cdc 72bd
00000290: 5c19 73bd 9065 97bc bc2d eabc a1d9 4ebc
000002a0: 54f5 17bd 7e73 dcbd 9416 0f3b 2ce4 07bd
000002b0: d4cc 903c 96b3 643b 0341 12be 89e7 cfbd
000002c0: cd87 7f39 ae2f d43c eacd 70bd 8640 80bd
000002d0: 10f3 053d 44f1 c4bc 859c 9bbc e856 85bd
000002e0: da18 c0bd b57d aabb a593 ca3d 70b6 75bd
000002f0: 99f7 72bc 6fd4 af3d f14b 163d fa49 5cbd
00000300: c636 a93e 510c 61be 1602 82bb 0be2 7ebb
00000310: ca4f 5d3e 07d2 56bd c301 90bd 7813 bdbc
00000320: 889d 9b3c 807c d9bc 9c1f 05bd 6ef6 e63d
00000330: 2b7e b83c dedd 4bbe 9c6e 7a3c ca0e 05bd
00000340: d0ea 08bc a272 83bb 6ae1 32bd c7d9 ccbc
00000350: 1ba6 973d 2c98 c6bd 8222 863d c791 15be
00000360: aa68 4cbc 97be 4cbe b851 3abc 31a1 20be
00000370: 8c6d db3d 9ef0 e1bc b2e3 cdbd de43 a3bb
00000380: b24c 913d 3bc7 6abd 4dd0 983c 90b3 c73d
00000390: 351c 8fbd 9933 3cbd a58d 75bd f36b 24bb
000003a0: dad8 55bd 3419 82bc 2292 813c 4183 31bc
000003b0: 8ca1 d4bb 6a31 05be b4b8 debd 7b56 9d3e
000003c0: f790 4cbc 481c 72bc b771 783e 840a d4bd
000003d0: 520e 30be 3292 a1bd 06a8 093d d96c 1a3d
000003e0: a612 89bb 06ca 163c 2fe7 d6bc 7011 0a3d
000003f0: 8739 37be a18c 00be e8f8 68bd 3e16 0cbd
-0.11839594 0.05498546 0.02900406 -0.099501684 -0.083120555 0.110877626 -0.06329857 -0.100270085
0.29777554 -0.0488132 -0.037531883 0.053731546 -0.048633706 0.050371666 0.030548766 0.048941705
-0.009152415 -0.1351596 -0.005081828 -0.1463663 -0.057869308 0.0041238945 0.022959108 0.07097145
0.007945071 -0.23765317 -0.07597443 -0.059985213 0.034081556 0.0888106 0.031536806 0.06289464
0.043195393 0.06317499 -0.032609075 -0.059643805 -0.029494025 -0.036896158 -0.025260199 -0.05097929
-0.08550551 0.13379246 -0.020787926 0.023554225 -0.020218294 0.11941242 0.13200337 0.028003486
0.00020048587 -0.05095667 -0.049058996 0.0111377565 0.011634808 -0.036428567 0.08475858 -0.08336831
-0.15836447 0.049337838 -0.06764787 -0.006081386 -0.069471896 -0.08298403 -0.22869742 -0.02596397
-0.030920103 -0.029828856 -0.06821511 0.031359784 -0.0351052 0.08716572 -0.03633162 0.03217039
-0.21097535 0.03194039 -0.040000938 -0.108378865 -0.10121101 -0.052231774 -0.062147666 0.027091641
0.090535365 -0.035899088 -0.024747187 0.03428575 -0.030692983 -0.06401997 -0.04481615 -0.13280198
-0.17251569 -0.037757296 -0.057815053 -0.053143892 -0.030765574 -0.065156475 -0.0874351 -0.20527285
-0.023712222 -0.11469053 0.027070217 -0.027989825 -0.083766766 -0.050241973 -0.10019257 -0.15355131
-0.074514434 -0.06263832 0.11438701 -0.10608694 -0.024357585 -0.038493387 -0.10318621 -0.105173945
-0.008569976 -0.008791697 -0.0462712 -0.0370995 -0.07801541 0.10909579 -0.02261998 -0.04255722
0.052110627 -0.021814944 -0.15634778 0.3224741 -0.04084392 -0.005026781 -0.07570577 -0.055277362
-0.1097938 0.04660945 -0.07331584 0.08394901 -0.08457357 0.013046078 -0.019099338 -0.01699315
-0.15644377 -0.024285473 -0.05838217 0.009568203 -0.023697633 0.12181621 -0.018150877 -0.03176811
-0.0087102875 0.050290868 0.02731667 0.011258507 0.0045721084 -0.018925393 -0.040220905 -0.007817916
-0.05583225 0.041522156 0.0070748483 -0.071716525 0.14709449 0.007120979 -0.032961253 -0.028834166
-0.01851467 -0.06356216 -0.012682239 -0.05929242 -0.059350356 -0.018481046 -0.028586261 -0.012625129
-0.037099198 -0.10764216 0.0021833526 -0.033176586 0.017675795 0.003489708 -0.14282613 -0.10151584
0.00024369285 0.025901642 -0.058790125 -0.06262307 0.032702506 -0.024040826 -0.018995533 -0.06510717
-0.0937974 -0.0052029737 0.09891442 -0.05998844 -0.01482954 0.0858544 0.036693517 -0.053781487
0.330496 -0.21977355 -0.003967534 -0.0038892056 0.21612468 -0.05244639 -0.07031586 -0.023080572
0.018996015 -0.026548624 -0.03250085 0.112774715 0.0225211 -0.19908854 0.01528516 -0.032484807
-0.008356765 -0.004011468 -0.043672003 -0.025006188 0.07404729 -0.09696993 0.065495506 -0.14606391
-0.012476126 -0.1999458 -0.011372022 -0.1568649 0.10714254 -0.027580556 -0.10053195 -0.0049824556
0.070947066 -0.057318907 0.018654013 0.09751046 -0.06987802 -0.045947645 -0.059949536 -0.0025088757
-0.05220876 -0.015881158 0.015816752 -0.010834516 -0.0064889845 -0.13007131 -0.10875073 0.30730042
-0.012485734 -0.014777251 0.24262129 -0.10353568 -0.17192963 -0.07889213 0.033607505 0.03770146
-0.0041831313 0.00920344 -0.026233284 0.033708036 -0.17893039 -0.12553646 -0.056878 -0.0342009
