models/AnnaCNN/encoder_weigths.pth (torch, 980743 bytes, 10 tensors)

cnn.0.weight f4 [32, 3, 8, 8]
000000 e8 cf e4 3c aa b1 27 bd 24 67 e1 3c cb 04 85 3c
       0.027931169 -0.040940918 0.027515002 0.016237637
000010 99 e0 ef ba 8e 37 ba 3d 09 3e d3 3c ad 68 e5 3c
       -0.0018301188 0.090926275 0.025786417 0.028004015
000020 cc d4 17 3c 0d 7a 34 3c 98 59 fb bc 6a f7 f4 3c
       0.009267043 0.011015427 -0.03068237 0.029903132
000030 f9 6f e2 3b d1 70 43 bd 12 73 9d 3c 1d 10 d1 bc
       0.006910321 -0.047715012 0.019219909 -0.025520379
000040 5c bf e8 bc e6 b8 85 bd 8e 6d b4 3a 22 37 9c bc
       -0.02841156 -0.06529407 0.001376556 -0.019069258
000050 cb d0 47 3d 90 8f 09 3c ca 5c d4 bc 2a 70 ec 3c
       0.048783105 0.008396044 -0.025923152 0.028862078
000060 b4 11 3d bd 57 70 c6 bd 4e a2 83 bd a5 94 82 bc
       -0.04615946 -0.09689396 -0.064274415 -0.01594002
000070 1c 41 7a bc b2 07 b5 bc 30 04 d7 bc 10 af 3d 3b
       -0.015274312 -0.022098396 -0.026247114 0.0028943457
000080 d0 15 dd bd 14 f8 ec bc 78 91 40 bd 43 15 68 3c
       -0.10795176 -0.028926887 -0.04701373 0.014165225
000090 46 cc a1 3c 9e 7c 58 3d f5 d8 a9 3b 56 52 0c bc
       0.019750725 0.05285322 0.005183334 -0.008564552
0000a0 8b ff 8e bb ef 31 f3 bc f2 c7 9b 3d f4 6c 51 3d
       -0.004363959 -0.029686896 0.07606496 0.051129296
0000b0 77 35 96 3d cd 82 ea 3c 04 43 61 bd 15 09 95 3c
       0.07334416 0.028626824 -0.05499555 0.018192807
0000c0 99 8c df bb b5 ec 0f bd 75 e5 f1 3b 23 9e 42 3b
       -0.0068221805 -0.03513785 0.0073820897 0.0029696308
0000d0 6e 40 bc bc ba 24 45 3d dc f0 df 3c a1 93 8b 3d
       -0.022979941 0.04813073 0.02733653 0.06815267
0000e0 a2 71 ba 3b 29 ce 21 3d 06 e6 1c 3d ef 6f 8c 3d
       0.0056898156 0.03950325 0.038305305 0.06857287
0000f0 ce 61 92 3d ed aa 35 3d 77 d1 68 3c d7 b3 3d 3c
       0.07147561 0.04435246 0.014210097 0.011578522
000100 a2 40 d0 bb 80 7e 1f 3d 16 e7 45 3d 2c 5f bf 3d
       -0.006355361 0.038939 0.048316084 0.093443245
000110 11 05 e5 3d 06 52 78 3d f3 ef 17 3d c4 bc 2e 3c
       0.11182607 0.0606251 0.037094068 0.010665122
000120 73 ed af bc f6 49 aa 3c 03 28 80 3d 8b b2 27 3d
       -0.02147553 0.02078722 0.06257632 0.040941756
000130 fa c6 a3 3d 8f f9 a4 3d 2a d8 b5 3d 1e d8 95 3d
       0.07996936 0.08055412 0.08879121 0.07316612
000140 3b 29 be 3b ed 3e 08 3d 95 14 22 3c fd f5 3c 3d
       0.005803255 0.033263136 0.009892602 0.04613303
000150 9d b3 9c 3d 6b 6f 5c 3d 7c 7b f7 3c a4 e0 9a 3d
       0.07651446 0.053817194 0.03021025 0.07562378
000160 64 8c 3b bd 1e 0a 8a bc ce dd 1e 3d b5 43 42 3d
       -0.045788184 -0.016850527 0.03878575 0.04742785
000170 1d 53 a1 bb 26 d6 83 3d d4 2a 99 3c 7f 8c d0 3c
       -0.004923238 0.0643733 0.01869718 0.025457619
000180 01 68 19 bc ba ea 9d ba 71 43 80 3b ea f1 99 3d
       -0.009363175 -0.0012048103 0.0039142896 0.075168446
000190 96 eb c6 3d 3c e7 34 3d fa e3 d7 3d e0 5a c3 3d
       0.09712903 0.044165835 0.1054153 0.095388174
0001a0 09 51 0a bd 82 bf 2a bd 43 46 ae 3d e1 16 aa 3d
       -0.033768687 -0.041686542 0.08509495 0.08305145
0001b0 6a 6c e6 3b 94 13 a7 3d e6 79 05 3d da 1b 91 3d
       0.007031967 0.08158031 0.032586955 0.070853904
0001c0 3d 50 93 3c 4b 92 c1 3c 80 a8 3d bb 99 8d a5 3d
       0.017982597 0.023629328 -0.0028939545 0.08083648
0001d0 95 6c 04 3d ee d3 b3 bc 07 45 8c ba 57 b4 a5 3d
       0.032330114 -0.021951642 -0.0010701724 0.08091038
0001e0 8b ac 11 bc d5 9e 62 3d a2 74 82 bb 7b 65 c6 3c
       -0.008891235 0.055327255 -0.003981189 0.024218312
0001f0 c1 f9 89 3d 60 9b 32 3d 03 34 ad 3d 41 2d 77 3d
       0.0673709 0.04360521 0.08457186 0.060345892
000200 73 6a 81 bd 85 bd a8 3b 56 da 42 3d 7e db 8e 3c
       -0.06319132 0.0051495456 0.047571503 0.017438646
000210 b4 25 42 3c f2 c1 21 3d 01 b4 2a bd 7f 85 0a bd
       0.011849809 0.0394916 -0.04167557 -0.033818718
000220 30 01 45 bc 2e 18 01 bc 61 c8 08 bd b1 39 e7 3a
       -0.012024209 -0.0078793 -0.03339422 0.0017641095
000230 97 df b6 3b 21 58 80 3c bc a1 f9 bc bd 17 7f bd
       0.005580853 0.015667023 -0.030472629 -0.062278498
000240 99 be c2 bd d0 b1 14 bd d6 8a ea bc bf 2c 81 bd
       -0.0950901 -0.036302388 -0.028630655 -0.06307363
000250 c4 d2 77 bd 0c 05 c4 3b 69 54 0c 3d 4e 42 3e bd
       -0.060503736 0.005982047 0.034260187 -0.04644995
000260 1c 77 10 be ba 79 fb bd b4 8c 0f bd a0 b4 f0 bd
       -0.14107937 -0.12279077 -0.035046294 -0.117532015
000270 64 bd 80 3a b5 af 55 bd c0 de 4b bc 21 dc 07 3d
       0.0009822068 -0.05216952 -0.012443244 0.033168916
000280 eb 2b 67 bc f8 9f 04 bd 34 b5 57 3c 00 ed 22 3d
       -0.014109592 -0.03237912 0.013165761 0.039776802
000290 8d 02 24 bd c7 8d 72 bd 1d 7e b3 bc f0 cb a4 bc
       -0.040041495 -0.05921724 -0.021910721 -0.020116776
0002a0 10 30 f3 bd f4 db 47 bd c5 77 cd bd 7c 47 17 bc
       -0.118744016 -0.048793748 -0.1003261 -0.009233352
0002b0 83 5f fc bc c6 86 22 3c 64 69 26 bd 0f 56 de bc
       -0.030807262 0.009919828 -0.040627852 -0.027140645
0002c0 05 f0 ab bd b1 33 d7 bc dd a2 ba bb d3 12 a7 3c
       -0.083953895 -0.026269766 -0.0056956843 0.020394718
0002d0 99 06 ec 3c e2 d3 5b 3b 4a 6a 9f 3c c5 14 1d bd
       0.02881174 0.003354304 0.019459862 -0.038349885
0002e0 95 f2 9c bd de a2 42 bc 15 63 64 bd 4a 96 a4 bb
       -0.07663456 -0.011879651 -0.055758554 -0.0050227987
0002f0 f9 ce b3 bc 35 7e 18 3a e5 8e d0 bb 17 ff 76 3c
       -0.021949278 0.0005817146 -0.0063646906 0.015075467
000300 3f a9 43 bd 47 3e 71 3d 91 eb 3e bb ef 96 01 3d
       -0.047768828 0.058897283 -0.0029132108 0.031638082
000310 72 55 67 bc 3e e7 f1 bc 6d 8d 3c 3d 0a 17 0f bd
       -0.014119493 -0.02952921 0.04603331 -0.03493408
000320 f4 7d 66 bc ce 6c 1a 3a 1c bc 18 bd dc bb 62 3d
       -0.0140681155 0.0005890847 -0.03728877 0.055354938
000330 77 fa f2 bb 67 c7 2c 3d 46 e2 3d 3d 28 f9 d8 3c
       -0.0074151116 0.042182352 0.04635837 0.026485994
000340 14 3a df bc 2b f2 e2 3b bc 5c 42 3c 4f c6 23 3d
       -0.027249373 0.0069258413 0.01186293 0.039984044
000350 64 6a 86 3d be 90 2a bd be 1b 50 bd 2b 3f 0c bd
       0.06563261 -0.041641943 -0.050807707 -0.03423993
000360 f1 a3 67 bd 60 f1 26 3d 5b ae 90 bc b3 56 35 bd
       -0.05655283 0.040757537 -0.017661264 -0.044272136
000370 6f d8 41 bd 3b 37 8a 3d 85 eb c1 bc a0 8f 65 3a
       -0.047325548 0.067488156 -0.023671875 0.00087570585
000380 dd c9 4e 3d 5a d9 ee bc 0c 07 13 3d 94 a2 15 3d
       0.05048548 -0.029156376 0.035895392 0.036532
000390 65 93 c6 bc 87 ab 1c bd 07 e6 6c 3d fc 8a 48 3c
       -0.024240205 -0.03824952 0.05783656 0.012240168
0003a0 dd ff d6 3b 6a 29 24 bd 8d e9 44 3d 9d 5f 48 3d
       0.006561263 -0.040078558 0.048074294 0.04891931
0003b0 2f fe 38 bd 8a 01 0d bd ad a1 b9 3c 85 2f d0 bc
       -0.045164283 -0.034425296 0.0226601 -0.025413284
0003c0 ef 96 6b 3b a0 74 56 3d 20 80 ea 3c 02 15 53 bc
       0.0035948118 0.052357316 0.028625548 -0.012883427
0003d0 2f 12 4b 3d 06 d0 74 bd 8e 22 86 3d fe f3 87 bc
       0.049577888 -0.0597687 0.065495595 -0.016595837
0003e0 ef f3 e2 bc c3 62 29 bc 32 d0 20 bd 9e 66 61 3d
       -0.027704207 -0.010338488 -0.03926105 0.055029504
0003f0 12 95 2b 3d 41 b5 12 bd b5 bd 85 bd af a2 c5 3b
       0.04189021 -0.03581739 -0.06530324 0.0060313563

cnn.0.bias f4 [32]
000000 79 46 a4 be 8c b6 6c be 73 c3 1c 3d e1 7f 61 be
       -0.32085016 -0.23116511 0.038272332 -0.22021438
000010 66 08 ec bd c5 31 1a 3e f0 f8 9c bd bf f7 90 be
       -0.115250394 0.15058048 -0.076646686 -0.28314015
000020 77 7c 75 3e e9 33 cd bc 68 2e 8a 3e 3a da c1 be
       0.23973261 -0.025049167 0.2698853 -0.37861806
000030 59 38 8d be 6e 42 43 3c 23 40 d6 3e e9 4e 9d be
       -0.27582052 0.011917694 0.41845807 -0.30724266
000040 72 40 44 bc 64 7c a5 be 76 14 8b be d7 f4 91 bd
       -0.011978256 -0.32321465 -0.27164048 -0.071267776
000050 8c f0 c1 3c 9c 4c 74 be ce 4c e7 3e 6b 8d 8a be
       0.023674272 -0.23857349 0.45175785 -0.27061018
000060 51 b7 5a 3c 08 87 32 be df a6 6c be 78 8c b7 3d
       0.01334937 -0.17434323 -0.23110531 0.08962339
000070 d2 1b f0 bc 2d 8d 71 be 96 6a b2 be 62 bb 9f 3e
       -0.02931014 -0.2358901 -0.34846944 0.3119765

cnn.2.weight f4 [64, 32, 4, 4]
000000 d5 59 0e 3d a7 a5 ca bc fb 74 a1 bb 0c ee 9a 3d
       0.03475364 -0.024737192 -0.0049272752 0.07564935
000010 f8 bc 11 bb 5d 17 8c 3b 91 d4 98 bd 0d 9d 49 3d
       -0.0022237878 0.004275246 -0.07462419 0.04922204
000020 a6 bb 01 3d 2f bb 8f ba 39 27 05 bd 1f 52 56 3c
       0.031673096 -0.0010965819 -0.03250811 0.013081103
000030 5e 4f ab 3c 91 66 6c 3c 78 a3 63 bd bd b2 96 3c
       0.020911869 0.014428751 -0.055575818 0.018395776
000040 34 a1 ed 3c 68 9f 32 bc c5 a6 37 bc 90 a3 7d 3d
       0.029007532 -0.010902263 -0.011209195 0.061923563
000050 cf be d9 3c 48 f9 da bc 5b ce b9 bc 0b 41 ef 3c
       0.026580242 -0.026730195 -0.022681406 0.02920582
000060 30 a9 6d bc e4 7a a5 bc 98 51 93 bc 91 fd 67 3d
       -0.0145056695 -0.0202002 -0.017983243 0.056638304
000070 fd 07 b2 bb d1 aa c4 3c 6b c7 dd 3b 38 a5 f3 3c
       -0.005433081 0.024007233 0.0067681572 0.029741868
000080 31 e8 be 3c f8 52 29 3d f7 1c 02 bd c1 6d 4e 3d
       0.023304077 0.04133889 -0.031765904 0.05039764
000090 a1 6f 9b 3c dc 66 be bb d0 64 a9 3c 21 11 32 3c
       0.018974127 -0.0058106016 0.020677954 0.010868342
0000a0 b4 98 88 bc 90 10 02 bd 07 cd 2b bc 59 88 81 bc
       -0.016674377 -0.031754076 -0.010485894 -0.015812086
0000b0 a5 6f c9 3c a8 c6 08 bc 5d 24 55 3c 35 46 7b bc
       0.02458937 -0.008348145 0.013009158 -0.015336563
0000c0 59 8c bf 3c ec e3 ab 3c 2f 06 76 3d 8f 09 84 3d
       0.023382353 0.020982705 0.06006449 0.06447136
0000d0 6f 3a 07 bd 44 d6 d2 3c 22 6d 23 3c c2 e1 28 3d
       -0.03301471 0.025736935 0.00997475 0.041230924
0000e0 47 0b aa bc 3e 97 ed bc 05 2a 23 3d 4a ee ea 3b
       -0.02075733 -0.029002782 0.039834995 0.0071695196
0000f0 d0 e6 67 bc 3d 0d 96 3c 3d 0a 8b bc a4 3a 53 3d
       -0.014154151 0.01831686 -0.016972655 0.051569596
000100 c2 2e 84 3c b2 b0 02 3d 40 49 e6 3c 23 ed 46 3d
       0.016135577 0.03190679 0.0281111 0.048565995
000110 79 77 c3 bc ad 90 8e 3b ef 8d 94 3a 4b 37 d2 3b
       -0.02386068 0.004350743 0.0011333803 0.006415283
000120 5f b3 7c bb bf 33 6a bb ac 45 6b bc 8d 5e 20 3d
       -0.0038559062 -0.003573641 -0.014359873 0.03915267
000130 04 5d 8d 3a 71 d1 1d 3d c8 6f 4b 3c 88 15 9b bb
       0.0010785167 0.038529817 0.012416787 -0.0047327913
000140 2b ae 30 bc ee 08 e1 bc 93 b2 b9 bc af 3a 99 3d
       -0.010783712 -0.027470078 -0.022668159 0.07481896
000150 54 05 21 bd 6b 39 20 bd 16 79 2d bd d9 c5 c0 3d
       -0.039311722 -0.039117258 -0.042351805 0.094127364
000160 eb 0f 46 ba 5f 28 ab bc 2c ed 04 3b 82 63 cd 3d
       -0.00075554725 -0.020893274 0.0020282967 0.10028745
000170 36 bf 13 3d df 4c 98 bc 82 3c aa 3c 06 f3 15 3d
       0.036071025 -0.018591342 0.020780805 0.03660872
000180 34 ab f2 bc 87 5d 37 3d d7 52 2d 3c 91 a1 09 be
       -0.029622652 0.04476693 0.010578833 -0.13440539
000190 bd 27 6a 3d af c2 05 3e bf d7 1d 3e 83 0d f9 bd
       0.057166804 0.13062547 0.15414332 -0.1216078
0001a0 de 7b a2 3c f3 9b 06 3e ce 3c 98 3e df d3 65 bd
       0.019834455 0.13145427 0.2973389 -0.05611026
0001b0 29 24 01 3d b7 60 33 3d 81 5b 8f 3e 83 e9 7e 3d
       0.031528626 0.043793406 0.279995 0.062234413
0001c0 49 e2 a8 3c 8c e8 81 3c 6e ca 93 3c df 97 45 bc
       0.020615714 0.015857957 0.018040862 -0.012060135
0001d0 26 0a 53 3c d5 94 0a 3c fe 00 9f 3c 2b 42 2b 3d
       0.012880838 0.008458336 0.019409653 0.04181115
0001e0 c3 69 a5 bc 82 b2 3b bd 56 d3 88 bd 1b b6 47 3d
       -0.020192033 -0.045824535 -0.06680934 0.048757654
0001f0 77 68 a6 3c fb e8 50 bb 82 33 c0 3c 28 1d 55 3c
       0.020313485 -0.0031877148 0.02346206 0.01300744
000200 38 1f cd bc 3f d7 a3 bb cb a9 f7 bc ba 62 79 3d
       -0.0250393 -0.0050000246 -0.03023233 0.06088517
000210 a1 ae 0a 3d 5f 6d 6f bc fb 65 9d 3b 89 b2 c3 3c
       0.033857945 -0.014613478 0.004803417 0.023888843
000220 a4 7e 14 3c 65 b0 ee bc e6 a3 ec bc cc 22 a3 3c
       0.009063397 -0.029136846 -0.028886747 0.019914053
000230 e4 87 2e bc 02 93 9a bc 7a 45 7d bb cb fa c1 39
       -0.010652516 -0.018868927 -0.0038646148 0.00036998684
000240 51 c1 9f 3c b4 df 80 3d be 17 bd 3d 6b 58 bc 3d
       0.01950136 0.06292668 0.09233044 0.09196552
000250 58 c9 78 3d 14 47 09 3d f6 f6 bc 3c ff bb cc 3d
       0.06073889 0.03351505 0.023066979 0.09996795
000260 3e 2f 23 3d d7 b8 8f bc d6 1d 6b bd a4 40 06 3d
       0.039839976 -0.017544193 -0.0574015 0.03277649
000270 bc b4 93 bd 00 9f a9 bd 28 55 7e bd 4e 58 ca bc
       -0.07212207 -0.0828228 -0.06209293 -0.02470031
000280 47 19 8b bc c5 63 2e bc 2e d5 07 bd 03 be fe bd
       -0.016979827 -0.010643904 -0.03316229 -0.124385856
000290 ca 19 ec bc 01 e2 bd 3c c6 41 01 bd be 9d c3 bd
       -0.028820891 0.023179056 -0.031556867 -0.09551571
0002a0 47 fb 22 bd 35 0a 40 bd 01 df 01 3d 4d e9 ab bd
       -0.039790418 -0.046884734 0.031706814 -0.08394108
0002b0 c7 c4 ce bc 45 19 41 bc d8 e0 8a bd b7 9a 44 bd
       -0.025240315 -0.01178581 -0.06781167 -0.04799911
0002c0 93 ae 1a 3d d6 c0 a4 bb 13 e6 cd 3a df 9f c1 3d
       0.037764143 -0.0050278706 0.0015708826 0.09454321
0002d0 9f fd 00 3c 8a 14 14 bd cb 52 17 bd 46 24 33 3e
       0.007872968 -0.0361524 -0.036944192 0.17494306
0002e0 90 4c 53 3c ea ab 7d bc 5d 22 85 bc f3 c4 e0 3d
       0.012896672 -0.015482882 -0.016251737 0.10975065
0002f0 06 2f b0 bb 80 ee 17 3d 08 89 be 3c 8f 31 e2 3d
       -0.0053766994 0.037092686 0.023258701 0.11044609
000300 de bd a0 bc 01 cf 29 3c 5b f2 d7 bc f6 ec 9f 3c
       -0.019621786 0.010364295 -0.026360681 0.019522171
000310 5b 02 ea bc 69 99 00 bd fb fb c6 bc 4f 7b 58 3d
       -0.028565576 -0.031396303 -0.024290076 0.05285197
000320 7e 4b c9 3c 17 dd 2c bd 8b eb 5f bd f1 33 9c 3c
       0.02457213 -0.042203035 -0.05466799 0.019067736
000330 2c 30 44 3b 79 1e f8 3c 51 9f 16 3b 3e 5c d6 3c
       0.002993594 0.030287968 0.0022983144 0.026167031
000340 d5 b7 dd bc 11 31 aa bc 73 22 bb 3c 1a 62 08 3d
       -0.027065197 -0.02077535 0.022843575 0.033296682
000350 5d 76 12 bd f0 36 f9 bc 93 5a e9 bb cd e5 15 3c
       -0.03575741 -0.030421704 -0.007121393 0.009149027
000360 36 7d 9c 3c 09 96 9e 3c 68 88 06 3d 0c 64 17 3c
       0.019102674 0.019358652 0.03284493 0.009240162
000370 3d b8 30 bd b6 26 f0 bc d5 3f 76 bc 71 3e a3 bb
       -0.043144453 -0.029315334 -0.015029867 -0.004981809
000380 f8 89 88 bd ed 06 f4 bc db 0f 37 be 10 54 7e be
       -0.066669405 -0.029788459 -0.17877142 -0.24836755
000390 6e 32 90 bc 2d 5e 42 3c 8f 84 c8 bd 40 a2 8a be
       -0.017602172 0.011863274 -0.097909085 -0.27076912
0003a0 dc 1d c0 bc 03 e6 a0 bd db 03 e7 bd 50 8c 56 be
       -0.023451738 -0.07856371 -0.11280032 -0.20951962
0003b0 3f 05 61 bd 54 18 05 bd 03 9b 4c bd 1f 6d df bd
       -0.054936644 -0.032493904 -0.04995252 -0.10909485
0003c0 c0 e1 9d 3c 62 20 03 3d 07 62 20 ba e9 c4 8c 3d
       0.019272685 0.032013305 -0.0006118123 0.06873495
0003d0 7a f1 0b 3d ae 77 05 3c cd 46 0e 3d 2a b3 7f 3d
       0.034165837 0.00814621 0.03473549 0.062426724
0003e0 62 6e a1 3c 53 f5 5a 3c 96 9b c4 bc c0 73 7c 3c
       0.019705955 0.013364154 -0.02399997 0.015408456
0003f0 07 63 70 bb ba 3a 64 3b f6 9f 10 bc ec 9a a8 bb
       -0.0036680119 0.0034825043 -0.0088272 -0.0051454213

cnn.2.bias f4 [64]
000000 21 69 27 be cc 71 02 3d 86 37 6c 3c eb 36 ee 38
       -0.16348697 0.031846806 0.014417535 0.000113589536
000010 f5 22 cb bc 52 17 7e bd 01 0d f1 3c 52 c0 36 3e
       -0.024796942 -0.06203396 0.029425146 0.17846802
000020 b0 ae d0 bd a4 fa bf bd a6 c8 60 3b e3 a3 38 3e
       -0.10189569 -0.09373978 0.0034299283 0.18031268
000030 1e c7 07 be 1f ad 29 be 2a 60 b3 bc f8 84 88 3d
       -0.13259551 -0.16569947 -0.02189644 0.06665987
000040 41 ff 37 bc 00 93 52 bd 57 ba 50 be 22 7a cd 3c
       -0.011230291 -0.05140972 -0.20383583 0.025082652
000050 13 c9 c8 3d f0 df b8 bd e5 0d 26 3d 99 68 74 3e
       0.09803977 -0.09027088 0.040540595 0.23868026
000060 78 82 78 bc 91 3a 44 be a4 53 19 bc 39 6b 00 bc
       -0.015167825 -0.19162966 -0.00935832 -0.007838064
000070 5b e9 4e bd fb 39 f9 bd de 06 3e bd 42 6a 9f bc
       -0.050515514 -0.12169262 -0.046393268 -0.019459847
000080 f4 2b a8 bc 7c b6 58 3e 75 5b 39 3e ae 53 6d bd
       -0.020528771 0.21163362 0.18101294 -0.05794113
000090 8e f7 b4 bb c6 55 0c bd f7 12 47 bc 56 60 c7 3c
       -0.005522675 -0.034261487 -0.012150518 0.024337929
0000a0 71 f1 ba 3d d7 72 b0 bb 89 55 05 be f0 a7 4b bd
       0.091280825 -0.0053847837 -0.1302091 -0.049720705
0000b0 ba 52 90 bd 2e 4f 7c bd dc e8 19 bd aa 99 59 3c
       -0.07047029 -0.06159895 -0.037575588 0.013281265
0000c0 98 31 14 bd 37 5c 52 3d 14 0e 0a 3c 22 1e 49 3b
       -0.03618011 0.051357474 0.008426208 0.0030688127
0000d0 d2 d4 7c 3e c6 23 ab 3e b7 cc 0f be 49 7e c6 3d
       0.2469056 0.3342573 -0.14042936 0.09692056
0000e0 23 66 b9 3d 25 8b b7 3d 33 1e 86 bc d4 56 87 bd
       0.09052684 0.089620866 -0.016371822 -0.06608358
0000f0 c5 88 0d be d8 0c 2c 3d d8 39 97 3b bf 73 1f 3c
       -0.13821705 0.042004436 0.00461505 0.009732186

cnn.4.weight f4 [64, 64, 3, 3]
000000 fa 30 19 bd cd b6 2b bc 69 1c 41 3d 75 ae 38 bd
       -0.037400223 -0.010480595 0.047146235 -0.04508825
000010 23 a8 b0 bc 46 95 16 3b 37 12 b6 3b 56 2d ee bc
       -0.021564549 0.0022977157 0.0055563706 -0.029074352
000020 ef c9 2a 3d d9 50 c0 3b 27 a3 29 3c 6a e3 70 3c
       0.041696485 0.005869013 0.01035384 0.014702657
000030 17 2d 81 3c ab 58 b1 bc 2d 75 55 bb 15 64 d5 bb
       0.01576857 -0.021648725 -0.0032571063 -0.006512175
000040 f2 da a8 bc f5 cc 23 bd aa c7 6b 3c 2c a6 dd 3a
       -0.020612214 -0.039990384 0.014390865 0.0016910485
000050 90 70 13 3c 2d 20 51 3c 98 8c e2 bc a6 4c 51 bc
       0.008999005 0.012764019 -0.027654931 -0.012774622
000060 5b 6d 3e bd af 85 8d 3c df 59 25 3c 1d b0 8f bc
       -0.04649101 0.01727566 0.010092228 -0.017540032
000070 e7 1a 18 3d ed 66 43 3d e3 ec 10 3d 7f 7b 04 bd
       0.03713503 0.04770558 0.035382163 -0.032344338
000080 07 08 53 bd 89 b8 08 3d 8c 01 90 3b 31 3c 2d 3d
       -0.051521327 0.03337911 0.0043947157 0.04229373
000090 3e 69 3a 3c e9 5f 27 3d d2 c9 26 3c 3a 4b 80 bb
       0.011377631 0.04086295 0.010179954 -0.0039152177
0000a0 8d 40 1e 3d 4c 0a 09 3d 76 10 c4 3c b1 fa e0 bc
       0.03863578 0.033457085 0.02393363 -0.027463289
0000b0 68 ee 06 3d eb 66 04 bd 53 16 13 3c 29 f7 b8 3d
       0.032942206 -0.032324713 0.0089774905 0.09031517
0000c0 0f 1f d0 3a a4 c1 f2 bc 32 64 92 3d 03 af 65 bd
       0.0015878397 -0.02963335 0.07148017 -0.056075107
0000d0 4a 06 8e bd b2 6a b0 3d fc 97 3e bd 4a 68 0b 3c
       -0.06934793 0.086141005 -0.046531662 0.008508751
0000e0 c9 f0 02 bd bd a3 e5 3c 65 e7 24 bc 35 38 ea bc
       -0.031967912 0.028032178 -0.010064934 -0.028591255
0000f0 4b c3 76 3c dd 3f 71 bc fa 33 17 3c 0f ae ad bc
       0.01506121 -0.014724699 0.009228701 -0.021201162
000100 e7 b0 20 3c 97 2f f0 3d 4b 02 35 ba 30 09 ea 3b
       0.009807802 0.11727827 -0.0006904944 0.0071422085
000110 4d 69 ec 3d a7 8c bc 3d 67 19 fc 3d 0c 4f 9d bc
       0.11543522 0.09206515 0.123095326 -0.019202732
000120 6a ee 4e 3d ef 0f 56 3d 8b 59 aa bb c6 75 9b 3a
       0.050520338 0.05226129 -0.0051986626 0.0011860661
000130 a3 19 48 3d fb 86 1b 3d f3 fb 59 3d 16 58 18 3d
       0.048852574 0.037970524 0.053218793 0.03719338
000140 f9 3d c0 3c 40 7e 3c bd 02 da c6 bd df 3e f7 bd
       0.02346705 -0.04601884 -0.097095504 -0.120725386
000150 ad 12 05 3d f8 07 bd bc 5d e6 0f be 6c 31 5f be
       0.032488514 -0.023075089 -0.1405272 -0.21796197
000160 64 3f 5b bd 0b 9a 86 3d 7e 0b 94 3d 50 44 b3 3c
       -0.05352725 0.0657235 0.072287545 0.02188316
000170 29 db 67 3c ad a3 02 3d 90 5c d0 3c 14 3a 03 3d
       0.014151373 0.031894375 0.025434762 0.03203781
000180 48 8e 4c 3d 3c 79 cc ba 7a 73 eb 3c 11 f0 41 bc
       0.049940377 -0.0015600096 0.028741587 -0.011837021
000190 6b 04 19 3d ee d6 40 3e 89 bb 34 3e ee f9 b9 bc
       0.03735773 0.18831989 0.17649664 -0.022702184
0001a0 d6 bf 29 3d 4a e5 36 bd ce 3e 08 be 3f 4b b6 3e
       0.041442715 -0.04465226 -0.13305208 0.35604283
0001b0 84 45 ec 3a 3b f0 4d 3c 58 46 77 3d ef ac d4 3c
       0.0018026088 0.012569482 0.06036982 0.025961367
0001c0 f8 95 93 3d c4 dc f6 bd d2 9e 65 3e bb a0 de 3d
       0.07206339 -0.120538265 0.22423866 0.10870501
0001d0 19 fa 9c be 13 26 51 bc 9f 5e 2e 3d 8f ce 6b bd
       -0.3065956 -0.012765425 0.042570706 -0.057570037
0001e0 05 cc 11 3d e4 af 42 3d 54 36 cc 3b 54 6a 9b 3d
       0.03559496 0.047531024 0.0062320624 0.0758864
0001f0 d4 1f 91 bd 96 a3 20 bd 4c 7a a9 3d 44 08 13 bc
       -0.07086149 -0.039218508 0.082752794 -0.008974139
000200 16 9f fe bd f0 cf 4f 3b ad f5 3f bc df 51 0e bc
       -0.12432687 0.0031709634 -0.0117162885 -0.008686512
000210 08 4f 90 be f4 b3 60 bd 89 31 07 3e 40 e1 05 3d
       -0.28185296 -0.054859117 0.1320249 0.03268552
000220 83 33 0c bd 38 b4 01 3e c3 c8 c4 bd 17 2e 47 3c
       -0.034228813 0.12666404 -0.09608605 0.012156985
000230 4e 38 4a bd 30 f5 32 3e 3f 9d 04 bc 00 3f a2 bd
       -0.049370103 0.17476344 -0.008094131 -0.079221725
000240 ac 75 24 3d 76 f4 fc bc f9 ac 14 3d ac 55 18 bc
       0.040151283 -0.030878287 0.036297772 -0.0092977695
000250 28 6d 85 3d 26 3d 98 3c 40 19 99 3b b7 df b6 3d
       0.065149605 0.018583845 0.0046721995 0.08929389
000260 23 3d 5e be 16 f5 02 bd 0f 15 fd bb 6c 70 26 3d
       -0.2170301 -0.031972013 -0.0077234576 0.040634558
000270 8b 40 1a bd 81 5c 2c bc ce 72 ef bb 4d 8b 0b 3d
       -0.03765921 -0.0105201015 -0.007307387 0.034068394
000280 46 6d 56 bc 03 bd 24 bd 52 b7 16 bc bc 6a e5 bd
       -0.013087576 -0.040219318 -0.00919898 -0.112019986
000290 0b 61 5f bd 1a 37 95 bd 76 23 78 bc 38 ff bf 3a
       -0.054535907 -0.072859004 -0.015145173 0.0014648205
0002a0 d1 14 39 3d 51 5e 59 be 18 5b c7 bd f8 7a 07 3c
       0.045185868 -0.21227385 -0.09734172 0.008269064
0002b0 67 20 c9 3c 5b f9 b9 3c a6 e4 30 bd 30 35 4f bc
       0.024551583 0.02270191 -0.043186806 -0.012646958
0002c0 eb 8b 0e bc 92 80 c5 bc 20 c4 c8 3c 12 fc f8 bc
       -0.008700351 -0.024109159 0.024507582 -0.030393634
0002d0 85 89 98 3d 3e 92 3b 3d 29 e7 be bc 1f a7 29 3c
       0.07448105 0.045793764 -0.023303585 0.010354786
0002e0 92 5a 93 3d 60 96 98 3c 8d 26 eb 3d 2e 4c 5d bc
       0.07195009 0.018626392 0.11481962 -0.013506932
0002f0 30 4c 83 bd 6e 5c c7 bc 24 f0 e4 bc 13 87 50 3d
       -0.06411016 -0.024336066 -0.02794654 0.050910067
000300 12 e2 a8 3a 35 5c 27 3d 99 03 66 3d de 56 dd bd
       0.0012884757 0.04085942 0.056155775 -0.10807584
000310 99 24 95 bb e0 a9 4c 3c bc d0 f0 bc 63 7a e0 bb
       -0.004551482 0.012491673 -0.029396407 -0.006850527
000320 9a c4 89 3c 3d 0f 54 bd 4e 88 77 bc ec ff a5 3c
       0.01681738 -0.051772345 -0.015108181 0.020263635
000330 df 41 75 3e 8f 1f 3f bc 10 85 8a be 02 8b 97 3d
       0.23950909 -0.011665239 -0.27054644 0.073995605
000340 65 58 1d bc ef c9 06 3e b2 0c 6a 3d 6c cd c7 bc
       -0.009603594 0.13162969 0.057141013 -0.024389945
000350 dd b9 6e bd 1f 16 ca bb aa f9 37 3d f0 68 91 3d
       -0.05828272 -0.006167188 0.044915833 0.07100093
000360 42 cf 46 bc 66 5c c2 ba 1a d4 20 3e 01 77 2e 3d
       -0.012134375 -0.0014828562 0.1570591 0.04259396
000370 a9 b7 80 bd c4 8f 84 bc d3 42 28 3e 4a 65 f1 3c
       -0.062850304 -0.016181834 0.16431741 0.029467244
000380 72 6a ed bc 66 b2 32 3a 89 50 a0 3d 8a aa a2 bd
       -0.028981421 0.00068167446 0.07827861 -0.07942684
000390 d5 f6 5a bd a2 39 3a bd 91 4e c8 3d 97 d5 2b 3e
       -0.053458054 -0.04546512 0.0978061 0.16780697
0003a0 c1 45 c9 bd 77 23 20 3c dc 74 cd bc 91 f0 ad 3c
       -0.098277576 0.0097740805 -0.025080137 0.021232875
0003b0 10 2e fb bb 23 94 0a bd 18 0a c7 b9 cb d0 25 bd
       -0.007665403 -0.03383268 -0.00037963758 -0.040482324
0003c0 28 ab 83 3c 6f 1e 04 3d 67 5c e8 3b 96 c9 61 3d
       0.016072825 0.032255586 0.0070910933 0.055123888
0003d0 88 3d f8 3c 28 91 ec 3d 00 5d 92 3d bb 88 0a be
       0.030302778 0.11551124 0.071466446 -0.13528721
0003e0 fe 79 5a 3b b7 e7 79 bd 63 a6 4f 3d 4b 70 07 3e
       0.0033336873 -0.061011996 0.050695788 0.1322643
0003f0 d7 98 ab bc 2a 30 e4 bc ef 58 f5 bc 54 bb 3f 3d
       -0.020946903 -0.027854998 -0.029949633 0.04680951

cnn.4.bias f4 [64]
000000 e4 a5 c5 3c b9 81 be bd cb 24 2a bd 02 f2 22 bd
       0.024126954 -0.093020864 -0.041538995 -0.039781578
000010 12 8e 07 bd 3e 77 1d 3c 4a 26 f0 bb 83 93 24 bc
       -0.033094473 0.009610949 -0.007328783 -0.010044935
000020 af c6 f8 bc 9e 97 1d bd 64 2e dc 3b 43 f6 43 3e
       -0.030368177 -0.03847467 0.0067193974 0.1913691
000030 ef 94 32 bc c1 3b e6 bb 3e 6c ec bb fd dd f1 bd
       -0.010899766 -0.007026166 -0.007215052 -0.11809919
000040 3c c2 63 bc 36 c5 70 3c c5 36 ad 3d d8 d2 68 bd
       -0.01390129 0.014695456 0.08457712 -0.0568417
000050 d0 ed ab 3c 64 9b ab bc 30 14 91 bc ff f2 ac bc
       0.020987421 -0.02094812 -0.017709821 -0.021111963
000060 44 a2 52 bc 34 5e 17 be 73 89 0d 3c 5a 4a a5 3a
       -0.01285607 -0.1478203 0.0086387275 0.001261066
000070 5b cb 0e 3b d2 bf 90 3c 46 18 43 bd 93 a2 65 bd
       0.002178869 0.017669592 -0.04763057 -0.056063246
000080 59 2d 74 bd e7 f7 b2 bc e1 00 bf 3d 79 33 4a bd
       -0.05961356 -0.021846725 0.093263395 -0.049365494
000090 2a 7b 95 bc 84 a1 ed bb 19 37 0e 3e 45 2d c5 bc
       -0.018247206 -0.00725192 0.13888206 -0.024069438
0000a0 f7 9b 21 bd 1e ee 04 be 7b 2f 35 bd 85 5a 91 3d
       -0.03945538 -0.1298146 -0.044234734 0.07097343
0000b0 4e 50 18 3e 43 ef b2 bd 8b 3c 0c 3d 8c c8 02 3c
       0.14874384 -0.08737042 0.034237426 0.007982384
0000c0 08 df 13 bd 54 62 4f 3d 62 16 8d bc df c6 9a 3d
       -0.03610137 0.050630882 -0.017222587 0.07557463
0000d0 6d 9c 89 3c c4 e9 3f bd 26 4d 26 bd f6 de 8c 3c
       0.016798222 -0.046853796 -0.04060092 0.01719616
0000e0 bb 69 0d bd 7b d0 1a 3d 6c 92 52 bc fb 2b 14 3c
       -0.03452466 0.03779648 -0.0128522925 0.009043689
0000f0 bf bd 76 bd c3 05 89 3d 1f 9e 2f bc 21 df 50 3b
       -0.06023955 0.06690552 -0.010718851 0.0031871276

cnn.6.weight f4 [64, 64, 3, 3]
000000 30 62 16 3d 39 f8 2c bc 1c e3 f9 bc f2 95 55 bc
       0.036714733 -0.010557228 -0.030503802 -0.013036238
000010 2f f5 6a bb b6 8a 55 3c 00 6f 4c 3d 87 19 29 3d
       -0.0035851707 0.01303356 0.049910545 0.04128411
000020 97 b7 44 39 c1 dd 3b bd 2e 11 84 bd 76 af bf bd
       0.00018760409 -0.045865778 -0.06448589 -0.093596384
000030 0b e9 33 bd e3 ec 36 bd e9 7b 06 bd da 5a c7 bc
       -0.04392342 -0.044659507 -0.032833014 -0.024335314
000040 db ed 06 3c 0d 06 14 bd e6 13 db bd 71 5f 54 3d
       0.00823542 -0.036138583 -0.10697155 0.051848833
000050 55 82 dd 3c 77 28 6d bd 3e d0 33 3d 5b a5 1e 3d
       0.027039686 -0.05789992 0.043899767 0.038731914
000060 1c 57 74 ba 0b 19 44 bd 71 59 ea bc 7e 9c 90 3c
       -0.00093208416 -0.047875445 -0.028607102 0.017652746
000070 78 17 87 bd fc e0 01 bd 61 a4 f5 bb 3f 6d a3 3b
       -0.06596273 -0.031708702 -0.007496402 0.0049873884
000080 b6 fc 64 3c 89 db da bc d3 ab 54 3c bf 31 dc 3c
       0.013976267 -0.02671601 0.012980419 0.02687919
000090 f0 91 97 3c d3 ca b7 3c 00 94 56 bd 0c 09 f1 bc
       0.018502206 0.022435581 -0.052387238 -0.02942326
0000a0 a6 2b af 39 0f fd 8e ba 40 72 eb 3c a1 01 b9 bb
       0.00033411122 -0.0010909158 0.028741002 -0.005645946
0000b0 9f ed 4c bc a4 ae 8a bc 47 6a dc bd a6 da 42 bd
       -0.012507825 -0.016928978 -0.10762458 -0.0475718
0000c0 fa 78 36 bc e2 09 17 3d 14 05 15 3d ae d6 93 3d
       -0.0111372415 0.03687466 0.036381796 0.07218681
0000d0 5a 2e 9a ba 6d bf 8e 3c 07 0d 98 3b 16 bd c5 3b
       -0.0011763081 0.017425263 0.004640225 0.0060345037
0000e0 fc a7 15 3d 46 85 dc 3c 95 98 3c b9 df 9e 3c 3d
       0.036537156 0.026919018 -0.00017985918 0.04604995
0000f0 f9 d3 06 bd 7d 8a b1 3c 51 1a 49 3d d6 f2 c3 3c
       -0.032916997 0.021672482 0.049097363 0.023919504
000100 0e a0 0e 3c c6 86 61 3d ef 68 89 ba 7f da 07 bd
       0.008705152 0.05506017 -0.0010483543 -0.03316736
000110 20 40 89 bd 2b 7a 85 3d 73 e7 c8 3c 24 32 59 bc
       -0.06701684 0.06517442 0.024524426 -0.013256583
000120 c8 d7 9b 3c 60 90 cb 3b 86 f7 92 bc 80 1a ee 3c
       0.019023791 0.006212279 -0.017940294 0.02906537
000130 9b 4b 40 bc 9c f5 1d 3d d7 a1 d2 bb 40 c9 d1 3b
       -0.011736776 0.03856431 -0.006427984 0.0064021647
000140 ab 37 25 bd a8 06 f9 3c e0 db fe bc cf 9f 11 bd
       -0.040336292 0.030398682 -0.031110704 -0.035552796
000150 e0 38 9a 3c 1b 7a b0 3c ab 9b d8 ba bd 0b 1d 3c
       0.018825948 0.0215426 -0.0016525885 0.009585318
000160 80 35 e5 3b 20 63 3a 3c a2 db 1c 3d 74 37 03 bd
       0.006994903 0.011376172 0.038295396 -0.032035306
000170 73 19 0c bd 3b b4 e7 bc ab b0 8a bb 9e 9e 8b bc
       -0.034203958 -0.028284183 -0.0042324862 -0.017043408
000180 eb ee a5 bb 0b 5a 35 3c 97 8d 16 3d 84 73 52 3d
       -0.0050638816 0.011068831 0.036756124 0.051379696
000190 45 85 65 3d 02 67 9b 3d 3d 97 a2 3c 1d a1 7d bc
       0.0560353 0.075880066 0.019847507 -0.015480307
0001a0 09 d4 15 bd db a6 5d 3d bd 0e 79 3d 56 71 39 3d
       -0.036579166 0.054114204 0.06080507 0.0452741
0001b0 a1 88 35 bd 3c b4 96 3d 86 40 b1 3d 13 82 e6 3c
       -0.044319753 0.07358596 0.08654885 0.028138196
0001c0 05 32 a2 bb 99 b3 c1 3d 88 f4 1f bd c3 21 14 3c
       -0.0049498104 0.09458084 -0.039051563 0.009041253
0001d0 7c 1d bb 3c c5 e5 01 bd 8b ed ea bb eb 83 80 3c
       0.022841208 -0.031713266 -0.0071694306 0.015687903
0001e0 85 c3 49 bb 2b 8b 93 3c 68 a5 bc bc c0 68 20 bb
       -0.0030786705 0.018010696 -0.02302809 -0.0024476498
0001f0 fb e3 c1 3c 70 ff 8e 3c b9 7a 0b 3d a4 c2 b5 3b
       0.02366828 0.017455786 0.034052584 0.0055468846
000200 23 29 65 3d 88 ce 78 3d db 17 c6 ba d5 ae 50 bc
       0.055947434 0.06074384 -0.0015113311 -0.012736996
000210 ee b6 6e 3d fc de 2d 3d b1 9c 69 3c c0 45 62 bc
       0.058279924 0.042448983 0.01425855 -0.013810575
000220 08 72 57 bd 6b 72 0f be b7 e5 2f bd d4 92 c6 bb
       -0.052598983 -0.1400849 -0.042943683 -0.0060599837
000230 25 f7 f9 3c e9 7f c3 bb b1 e7 0e 3c eb 59 b6 bc
       0.030513356 -0.005966176 0.008722232 -0.022259673
000240 28 19 0a bd d7 9e a5 bc 5f 70 5f 3d 5c 61 93 3c
       -0.033715397 -0.020217342 0.054550525 0.01799076
000250 b8 03 62 bc b8 3f a0 3d 1b ac a7 3c 9f 49 87 3c
       -0.013794832 0.078246534 0.020467808 0.016514597
000260 7d 3d 7f bb 18 62 89 3c 81 f4 62 3c b8 f1 0b 3d
       -0.0038946562 0.016770408 0.01385224 0.034166068
000270 2b d1 b9 bc 8f f1 18 bd eb 82 81 bc b3 9e c7 3c
       -0.022682747 -0.037339743 -0.015809497 0.024367666
000280 99 f6 93 3c 82 2f 3a 3c e5 ec 69 3c 11 5b 17 bc
       0.018061923 0.011363866 0.014277671 -0.0092380205
000290 46 08 0e bb 83 c9 0b 3d 30 5b 5a bb be 90 5f 3c
       -0.0021672412 0.034127723 -0.0033318512 0.013645349
0002a0 25 db 1a 3d 8a a0 8d 3d 27 e9 97 3b e0 7d 03 bd
       0.03780665 0.06915386 0.004635948 -0.032102466
0002b0 77 b0 f9 bb b1 4d 39 3d a8 50 33 3d a3 24 16 bc
       -0.007619913 0.045240108 0.04377809 -0.009164008
0002c0 2c d0 1e 3d 4f 8b f6 3b 3b d0 c8 3c 61 45 37 bc
       0.038772747 0.007523931 0.024513355 -0.011185975
0002d0 23 5b b7 bc b6 eb 8f 3c 57 88 a5 3c 26 5b 1c bc
       -0.022382325 0.01756845 0.020206613 -0.009543216
0002e0 fa 10 05 3c c3 ed 42 bd 34 6b f9 3c 86 f5 9c 3d
       0.008121723 -0.04759003 0.030446626 0.076640174
0002f0 e2 d3 42 3d 13 de ec bc 4b 5e 18 bc bf c3 de bc
       0.04756535 -0.028914487 -0.009299825 -0.027192948
000300 59 f0 a5 ba bf ca f9 bc b8 55 fd 3a b7 65 26 3d
       -0.001266013 -0.030492185 0.0019327914 0.040624347
000310 6c 69 0b 3d 88 09 43 bd 62 4c b1 bd 56 37 b8 bc
       0.034036085 -0.04761651 -0.08657147 -0.022487324
000320 c8 1e 5c bd 8a 18 d1 bc 93 f1 47 3d 70 8c 33 3d
       -0.053740293 -0.025524396 0.048814368 0.043835104
000330 57 43 9b 3c e1 80 0d bd ce 7a 44 bb de 26 d0 bc
       0.018953009 -0.034546737 -0.0029980424 -0.025409158
000340 56 3a 6f ba d7 13 4e bd a0 58 3f bb d2 6a 49 bd
       -0.0009125819 -0.05031189 -0.0029197112 -0.049174137
000350 bc c4 8c bc 10 b3 4e bc ce 54 81 3c ad ae 0c 3d
       -0.017183654 -0.012615934 0.015787508 0.03434627
000360 27 97 ca bb 66 a8 fa 3c cb ba 9e 3c 14 2d 8e 3c
       -0.0061825695 0.030597877 0.01937618 0.01735548
000370 d2 e5 d0 3c df 27 16 3d bc 2d a3 bc 73 8f 9b 3a
       0.025500212 0.036659118 -0.019919269 0.0011868313
000380 10 35 81 3c ed b7 f3 bc b9 90 a7 bc b0 15 e7 bc
       0.015772372 -0.029750789 -0.020454751 -0.028208584
000390 35 a7 d9 bb c2 30 f0 3b e5 9b 0d bd d8 cf 17 bd
       -0.006642247 0.007330031 -0.0345725 -0.03706345
0003a0 c4 ae 1c 3d 26 6b 58 bc f8 4f 67 3d f9 91 94 bc
       0.038252607 -0.01320914 0.05647275 -0.018136011
0003b0 5a d9 8a bd fe 82 01 3c 83 71 1d 39 44 5b 96 3c
       -0.06779738 0.007904766 0.00015014973 0.018354066
0003c0 d2 82 e7 bc e3 13 e6 3b d5 46 e2 3c 76 9e 11 bc
       -0.028260622 0.0070214137 0.027621666 -0.008887878
0003d0 b3 84 ff bc 93 6d 16 bd f4 51 0a 3d eb c6 ef 3b
       -0.031191206 -0.036725592 0.033769563 0.007317414
0003e0 cb 67 0b bc 2b 40 d0 bc 58 07 01 bd 20 3d c6 bb
       -0.008508633 -0.025421223 -0.031501144 -0.006049767
0003f0 d1 40 85 3c 65 7e 01 3d a0 4f 13 bd ea 48 f2 bb
       0.016266258 0.03161468 -0.03596461 -0.007393946

cnn.6.bias f4 [64]
000000 c0 f4 4e 3e eb 60 cc 3c fb 64 f5 3c 1b e8 ef bd
       0.20210552 0.024948558 0.029955378 -0.117141925
000010 66 fd 70 bd ac d3 26 bd c0 a9 80 3a 59 34 fe bd
       -0.05883541 -0.04072921 0.0009816214 -0.12412328
000020 0a aa 9b bc c1 73 a0 3c e4 a7 28 bc 83 1c 24 bc
       -0.01900198 0.019586446 -0.0102939345 -0.010016563
000030 7a 90 5f bd 1b 6d a4 3c 69 89 04 bd 10 24 75 3c
       -0.054581143 0.020071557 -0.032357607 0.014962211
000040 a3 0b 97 bd 8d f7 3a bd fd fe 36 bc 1a 11 48 bd
       -0.073752664 -0.04564624 -0.011169192 -0.048844434
000050 4c e2 a4 bb 73 99 52 bd 34 08 a5 3c 1e 80 16 3c
       -0.0050318595 -0.05141587 0.020145513 0.009185819
000060 5b b8 4c bd 6c aa f7 b9 75 11 b9 3c f7 66 28 3e
       -0.049980503 -0.00047238485 0.022591332 0.16445528
000070 e4 ec 63 bd 54 ab 0c 3d f6 0b e3 bd 1f d0 cd bc
       -0.05564584 0.03434308 -0.11086266 -0.025123654
000080 77 55 8a bc 2f e4 c9 3b de 16 e6 bd 5e 94 99 3c
       -0.016886456 0.006161235 -0.1123483 0.018747505
000090 ad c8 e8 bc f6 de 18 bc 98 13 08 bd e1 a4 87 bd
       -0.028416002 -0.009330502 -0.03322181 -0.06623245
0000a0 4e b6 3c bd 8d fe da bd bb 89 b4 bb 54 ab 82 bb
       -0.046072297 -0.10693083 -0.005509583 -0.003987709
0000b0 c0 26 80 3c 11 3e bb 3c d8 c1 63 bd 39 bc 8d 3d
       0.015643477 0.022856744 -0.055604786 0.06920666
0000c0 bc 5a a3 bc 3c 59 89 bc 63 6c 2d 3e a6 18 b7 bd
       -0.019940726 -0.016766183 0.16935878 -0.08940248
0000d0 1f 6c 31 bd a6 98 97 bc f4 76 02 3d 5d 03 e5 bb
       -0.043316003 -0.018505406 0.031851724 -0.0069889263
0000e0 49 d1 0b 3d d8 29 68 bd ed de 25 3d ad b0 22 3c
       0.034135137 -0.05668053 0.0404958 0.009929818
0000f0 4a 02 1e bd 22 82 7d bd 0d 4b 16 3c 2a 7c 7c bb
       -0.0385764 -0.061891682 0.009173167 -0.0038526156

cnn.8.weight f4 [512, 64, 2, 2]
000000 aa ca eb 3d f1 54 92 3d 43 ac 31 bd f9 50 ff bc
       0.115132645 0.071451075 -0.043377172 -0.03116654
000010 7d 02 33 bc b4 8f b1 bb 05 4a 76 3d 98 b6 57 bc
       -0.010925886 -0.005418742 0.060129184 -0.013166092
000020 07 f2 22 bd 83 dc 3f bc c9 92 d7 bc 24 ac eb 3c
       -0.039781597 -0.011710289 -0.02631511 0.028768606
000030 f4 ed 89 bd ca 35 03 3e 3e 37 38 3c a5 41 42 3d
       -0.06734839 0.12813488 0.0112436395 0.047425885
000040 24 2a 8e bd 2b 75 8e bd 22 92 40 bc 79 ca d2 bb
       -0.069416314 -0.06955942 -0.011753591 -0.006432828
000050 9b 4b 14 bd 31 45 81 3c df 68 8c bd 76 1b 0c 3d
       -0.036204915 0.015780063 -0.0685594 0.034205876
000060 3c 53 66 bd 47 bd 4b 3d d7 3d a8 bc 80 4e 51 bd
       -0.056231722 0.049741056 -0.0205373 -0.051100254
000070 6c ea e0 3c 71 8a 91 bd b2 ce 0f 3d 9f c2 8d bd
       0.027455531 -0.07106484 0.03510923 -0.06921887
000080 01 94 0d 3d ad fd e9 bc 61 f7 67 3d 2a 2c 0f 3d
       0.034564976 -0.028563345 0.056632403 0.034954228
000090 c7 83 46 bd f8 4e 16 be 75 fe 42 3d dd ec 0d 3d
       -0.048465516 -0.14678562 0.04760595 0.03464972
0000a0 64 e1 c1 3c 38 5b b4 bc 6f 24 87 bc 6b 68 59 3c
       0.023667045 -0.022016153 -0.016496865 0.013269524
0000b0 80 9c 1f ba 72 03 5f bd 06 7e 1c bc 32 f3 54 bc
       -0.0006088689 -0.054446645 -0.009551531 -0.012997435
0000c0 4b 03 f9 3c 7b 0a a2 3d 16 b3 57 bd 18 ea 32 3d
       0.030397078 0.07912155 -0.052661024 0.04368028
0000d0 af 0f 98 3d db bf 0a be 82 ce aa 3c f8 8b 42 bc
       0.074248664 -0.1354975 0.020850424 -0.011874191
0000e0 e4 8c a2 bc ff c6 0e 3d 5e 86 dc bc 90 5c ae 3c
       -0.019842573 0.034857746 -0.02691954 0.021284372
0000f0 ff 40 42 3d 07 7a 48 3c 49 69 39 3b ca 21 eb bc
       0.047425266 0.012236125 0.0028291515 -0.028702635
000100 e2 10 cd 3d dd ae f6 bd 89 26 d3 3d 47 e3 34 3a
       0.10012986 -0.12045071 0.103100844 0.0006900322
000110 b8 f8 a9 bc 0f a8 60 bd da 0f 6c 3d 58 a7 34 3c
       -0.020748481 -0.054847773 0.057632305 0.011026226
000120 8b df e7 3b eb 21 30 3d 49 01 e9 3c 72 ab 26 bd
       0.007076209 0.043001097 0.028442996 -0.040690847
000130 de be 94 bc 62 5e 4c bd 37 2c ad 3d d8 85 86 3d
       -0.018157419 -0.049894698 0.08455699 0.065684974
000140 98 ff f4 3c a6 f3 4f 3d 8c a7 91 3d 3a 58 35 3b
       0.029907033 0.05076947 0.07112035 0.0027670995
000150 e0 b5 87 bc 54 b8 86 3d 27 2a 2d bd 66 eb d5 ba
       -0.016566217 0.065781265 -0.042276528 -0.0016320765
000160 16 31 02 3d 94 06 ad 3d 47 bb 30 3d a9 d0 cf 3c
       0.031785093 0.0844852 0.04314735 0.025368052
000170 6e 5b 57 bd 04 8f a3 bc b4 3b 1e bd 9b f5 b0 3c
       -0.05257743 -0.019965656 -0.038631156 0.021601489
000180 87 f8 d7 3c c9 bb d4 3d 1e 85 96 3d fe 33 fe 3c
       0.026363624 0.1038738 0.07349609 0.031030651
000190 2c ff d2 3b 1e 22 d7 3c 4e 6a 83 3b 37 56 75 bd
       0.0064391103 0.026261386 0.0040104752 -0.059896674
0001a0 5e 38 1e bc 95 f2 42 3d c5 c7 52 bd e0 2b 1c 3a
       -0.009656994 0.047594626 -0.051460046 0.00059574656
0001b0 c4 cf 61 bd 6f 84 d5 3c 0a a8 3d bd d3 91 8f 3c
       -0.05512978 0.026064126 -0.046302833 0.01752559
0001c0 14 13 93 bc 9c 7b 8a bd d9 73 fc 3d 73 0c ae 3d
       -0.017953433 -0.06761858 0.12326784 0.08498468
0001d0 bd 2c 28 bd cb 6d 1c bc dd 80 fc 39 1b 25 c5 3c
       -0.04105829 -0.009547661 0.00048161196 0.024065545
0001e0 43 f6 90 3d ed 1f 99 bd 61 3a 8b bd 3b 42 49 3d
       0.07078221 -0.074767925 -0.06798244 0.049135428
0001f0 7c fa 9f bc 25 58 53 3d 6b 39 eb 3d 3e 08 9a bd
       -0.01952862 0.051597733 0.11485561 -0.07521103
000200 c1 f6 22 3d 50 55 4f 3c 6b 14 53 bc 14 43 1e bd
       0.039786104 0.012654617 -0.012883286 -0.03863819
000210 b3 eb 90 bd 58 59 97 bd ad f0 b6 bd 3f 6b 98 bd
       -0.07076206 -0.07390088 -0.08932624 -0.074423306
000220 d3 af b0 bd ac bb ac bc 76 d4 e2 3d 3f 72 d8 bd
       -0.08627286 -0.021085583 0.1107568 -0.10568666
000230 eb 54 66 bd d9 89 90 3d 3f b2 e6 bc 18 eb 3e ba
       -0.056233328 0.07057542 -0.028161166 -0.00072829565
000240 2e a4 c6 3d 36 7a 9a bd 04 86 0a be 91 e0 55 3c
       0.096992835 -0.07542841 -0.13527685 0.013054029
000250 9d db 4a 3d 0a b0 ec bd c0 0f 5e bd e4 ae 64 bd
       0.049525846 -0.11557014 -0.05421424 -0.05583085
000260 88 d9 5d 3d 68 73 1c 3d 28 04 40 bc ba de 46 bd
       0.054162532 0.038195997 -0.011719741 -0.048552252
000270 f5 00 f4 3c c1 ea f5 3c 33 63 3a bd 3d e6 9d 3b
       0.029785613 0.030019166 -0.04550476 0.0048187063
000280 b1 ea 6b 3b d8 50 2f 3d 78 2a 92 bb 6c e4 15 3d
       0.0035998041 0.042801708 -0.004460629 0.036594793
000290 3e 63 3d bd a9 85 df 3d ea 79 9e bd af dc 71 bd
       -0.046237223 0.109141655 -0.07738097 -0.05904835
0002a0 bc 81 5e bd a1 82 4d bc 08 46 33 3d ab 29 1c 3d
       -0.054322943 -0.012543351 0.04376796 0.038125675
0002b0 85 ea 85 bb 3b 18 7a bc cb 12 06 3d e4 df 00 bc
       -0.004086795 -0.015264566 0.032732766 -0.00786588
0002c0 56 0d ff bb d8 a9 0a bd 59 40 3e 3d 33 05 36 bd
       -0.007783572 -0.033853382 0.046448085 -0.044438552
0002d0 43 bf 9c bd 75 76 ea 3c 69 96 95 bd 0e f9 8f bc
       -0.07653668 0.028620938 -0.07304079 -0.017574813
0002e0 78 92 e3 bd ab eb 2d 3d ac 0a 78 3d 12 9e 2c bd
       -0.11111921 0.04246108 0.060557052 -0.042142935
0002f0 9e 2a 4b 3d 44 aa df bd 5c 1a e0 3c dd 11 1e 3d
       0.04960119 -0.109211475 0.02735632 0.038591255
000300 0a 8c 50 3d c3 6e 80 bc de 3c c0 3d f8 d6 90 3d
       0.0509148 -0.015677815 0.093866095 0.07072252
000310 cb 0d 1f bd 32 97 98 bc 51 83 7d 3c 94 10 48 bd
       -0.038831513 -0.018626783 0.015473203 -0.048843935
000320 6a 2e 82 bd f8 b1 68 b8 c0 c9 87 bd 97 eb 9c 3d
       -0.06356509 -5.5478857e-05 -0.06630278 0.07662123
000330 06 03 b7 bd d4 8d e4 3d 6b f9 ba bd 08 b7 20 3e
       -0.089361235 0.11159864 -0.09129604 0.15694821
000340 74 e9 0e ba 93 44 08 3d dd 4b 05 bd 6f 4e 90 3d
       -0.00054516573 0.033268522 -0.032543052 0.0704621
000350 7c ef f1 bb 11 4e c3 bb bb 6b a7 3c a0 f7 79 bc
       -0.007383285 -0.005960234 0.020437112 -0.015256792
000360 80 f0 6d 3d 6b 07 d5 bc 44 0a 22 bd 64 3c 62 bc
       0.058090687 -0.026004514 -0.03956057 -0.013808344
000370 07 ac 8f bc 9f 9e dc 3c 5f 68 00 3d 79 46 61 3c
       -0.017538084 0.026931105 0.031349536 0.013749712
000380 a2 c3 e6 bd b0 6c 24 3b 60 6d c5 3c 16 5d 13 bc
       -0.11267783 0.0025089197 0.024100006 -0.008994361
000390 77 74 d1 3b 2d ab d4 bc 3b 05 04 bc 42 46 cf bb
       0.0063920575 -0.02596053 -0.008057888 -0.006325514
0003a0 6a 93 74 3d 86 f7 f0 3b 5e 67 62 3c 7e 45 a2 bd
       0.059710898 0.007353726 0.01381859 -0.07923411
0003b0 ce 04 03 3a 10 8e 3b 3d 3e 2f 1d bd 24 c2 12 bd
       0.00049979694 0.04578978 -0.03837513 -0.03582968
0003c0 94 9d c9 bb b6 90 3a 3d 50 08 8b bb 16 61 e7 3c
       -0.006152818 0.045548163 -0.0042429343 0.028244536
0003d0 e9 d9 da 3b c6 db d0 3d 58 ad 57 bc 83 5f cc 3b
       0.006678809 0.101981685 -0.013163887 0.006236972
0003e0 6d e4 d7 3c af 8d ca bc b4 af 66 3d f3 76 e1 3c
       0.02635404 -0.024725763 0.056319907 0.02752254
0003f0 46 3f a4 bb c9 92 18 3d 1e 6c 7a 3d bd bf c2 3d
       -0.0050124256 0.03724936 0.061138265 0.095092274

cnn.8.bias f4 [512]
000000 c7 9c 8e bd c1 a6 98 3d 3a 1c 1c bc 01 34 12 bd
       -0.06963497 0.07453681 -0.009528214 -0.035694126
000010 2e 54 06 3e bc 13 e7 3d 34 0f bb ba ae a4 9e bc
       0.1311805 0.11283061 -0.0014271499 -0.019365635
000020 98 93 28 3d c2 d7 80 3d 92 9d 06 3d 23 97 04 be
       0.04115638 0.062911525 0.032865115 -0.12948279
000030 f6 36 b4 bd c5 f5 33 3b ca ba 97 3c c0 ab 08 3d
       -0.087995455 0.0027459722 0.018521685 0.03336692
000040 dd f2 d1 bc b9 d8 51 3d de ed b0 bd 20 b3 a9 3d
       -0.025628502 0.051232073 -0.086391196 0.082861185
000050 03 fd 31 3b 69 d7 7b 3d 90 75 73 bc fe cd 33 3b
       0.0027158863 0.061484728 -0.014859572 0.0027436013
000060 ac 00 ba 3c 0e d8 68 bd ce 89 50 bd e9 bb d0 3c
       0.022705398 -0.05684667 -0.05091267 0.025480228
000070 f8 83 5e 3d 8e 91 dd bd 3b 29 bf 3c 56 23 47 bd
       0.054325074 -0.10818778 0.02333509 -0.048617683
000080 de 9a 15 3e ec f7 d9 bd 7d 88 1f be 97 14 89 3d
       0.14609858 -0.106429905 -0.1557941 0.0669338
000090 bd 1c c0 bc 0f 43 52 3d 65 b4 c0 bc 69 f4 cb 3d
       -0.023451203 0.051333483 -0.023523519 0.09958727
0000a0 bc f5 4d bd 5d 73 71 bd c5 24 77 bd 20 60 07 3e
       -0.05028318 -0.05894791 -0.0603378 0.13220263
0000b0 41 f3 7c 3b ab 70 cd 3b 16 4d 04 3e 64 a5 04 bd
       0.003859714 0.0062695346 0.12920031 -0.03238429
0000c0 5d 3c ee bd 20 0e 39 be c8 8e 43 3d 86 e3 27 bb
       -0.11632607 -0.18071795 0.04774359 -0.0025617792
0000d0 d8 bf 82 bc a2 22 00 bb 80 32 b1 3d d5 95 05 3e
       -0.015960619 -0.0019551893 0.0865221 0.13045438
0000e0 e9 33 eb 3d 19 b9 96 bd 74 54 23 be bc fc 0e be
       0.114845105 -0.07359523 -0.15950185 -0.13963598
0000f0 1f 89 10 bd 34 a4 91 bd 6d 61 5e be f6 17 4a 3d
       -0.03528702 -0.071113974 -0.21716852 0.049339257
000100 55 26 09 be a1 28 22 3d 8e 24 08 3d cc 7e 4a bd
       -0.13393529 0.039589528 0.033237986 -0.04943733
000110 da 51 e6 3d 75 4f 83 3d ff ff 08 3e a5 1a b2 bd
       0.11246081 0.064116396 0.13378905 -0.08696488
000120 3c ba 54 3c b3 4d 04 bc 17 df e9 bd 8b 7c a0 bd
       0.012983855 -0.008075166 -0.11419504 -0.07836255
000130 f9 f8 ae bd 07 18 e2 bd 1a 12 44 ba 6f 02 11 3e
       -0.085435815 -0.11039739 -0.0007479504 0.14161085
000140 9a 2b 1b 3e e6 c2 39 bb f5 e9 7b 3d 41 4e 8c 3d
       0.15153351 -0.0028344928 0.061502416 0.06850863
000150 51 c6 d5 3d e6 5f a1 3a d1 43 72 bd 93 c7 89 3d
       0.104382165 0.0012311905 -0.059146706 0.06727519
000160 02 be c4 3d 3b cb b4 bd 03 fc 89 3c 50 fe 07 3e
       0.096065536 -0.08827826 0.016843801 0.13280606
000170 10 fe 04 bd cc 61 d4 3d 86 60 5e bd 96 5f 47 3d
       -0.032468855 0.10370216 -0.05429127 0.048675142
000180 83 46 a3 bd a2 ca 18 be e8 bb 4b 3e 54 ba fd 3d
       -0.079724334 -0.14921048 0.198959 0.12389055
000190 89 2a 3a bd a6 55 e4 bc 07 d6 44 bd 7e 76 65 3d
       -0.04545072 -0.027872872 -0.048055675 0.056021206
0001a0 76 52 0c be af ce a0 bc 1d 70 00 3c de e4 f9 bd
       -0.13703331 -0.019629804 0.00783923 -0.12201856
0001b0 e1 9a 18 bd 9c 1b 5f 3d 21 19 8c 3c 6c 71 5c 3d
       -0.03725708 0.05446969 0.017101826 0.053819105
0001c0 07 5f 83 bc 8f 87 9c 3d e6 c7 eb bc 4a 41 d1 3c
       -0.016036524 0.07643043 -0.028781842 0.025543828
0001d0 33 37 2e be e0 0a 97 3d 57 c8 04 3e 38 88 ae 3d
       -0.17013244 0.07375121 0.12967049 0.085220754
0001e0 dc 2b 95 bb 65 6e 0f 3e 99 cf 27 be 67 6a 13 3d
       -0.0045523476 0.14006956 -0.16387786 0.035990145
0001f0 92 4b 0e 3e 33 6a df bc 73 c8 ae 3c 35 03 3d be
       0.13896015 -0.02727232 0.021335816 -0.18458255
000200 bd 01 e4 3d 1d cb 01 3d fc 73 04 bd 43 d6 29 3d
       0.11133144 0.031687845 -0.032337174 0.0414641
000210 0f a2 22 3e 94 ac 24 3d 5e 40 8d bc 85 72 d4 bd
       0.15882133 0.040203646 -0.017242607 -0.10373405
000220 34 42 33 bd 1d 58 2a 3e 7f a8 57 3d 9f ed 7b bd
       -0.043764308 0.16635175 0.052650925 -0.06150591
000230 f3 9b c6 3d a8 a0 91 3d b7 15 20 3d 79 96 5b bd
       0.09697714 0.07110721 0.03908321 -0.0536103
000240 35 bf b2 3d 29 47 00 3c e8 f6 18 3d 62 52 03 be
       0.08727876 0.007829466 0.037344843 -0.12824395
000250 3f a7 a2 3c a5 bb 54 bc fd 3c 4c bd b6 7d 95 bb
       0.01985514 -0.012984191 -0.04986285 -0.004562105
000260 26 9d 74 3d 97 6a 50 3d e4 38 9e bd a4 0a c0 3d
       0.05972018 0.050882902 -0.07725695 0.093770295
000270 32 93 b4 3d b5 10 cc 3d 06 a3 77 3d e3 86 93 bd
       0.08817138 0.09964124 0.060458206 -0.07203462
000280 92 f9 54 bd 93 1c 31 3d 60 0b ce bc 6a 7b 85 3d
       -0.05199582 0.04324014 -0.025151908 0.0651768
000290 6e 25 ab bd a8 1a cc 3d b0 25 49 3c c5 75 b3 3c
       -0.083567485 0.09966022 0.012277052 0.021906743
0002a0 6c 77 cd bd 3b 05 08 bd 38 62 33 3d 55 87 fa 3b
       -0.100325435 -0.033208113 0.04379484 0.0076455274
0002b0 e5 3e 58 3d 74 a5 40 3d 78 6d b8 bc 12 26 a6 bd
       0.052794356 0.04703279 -0.022513136 -0.0811273
0002c0 cf 1f cb 3d e8 0f 62 3d 7b 12 a4 3c fb f0 9a bd
       0.099181764 0.05519095 0.020028343 -0.075654946
0002d0 e4 1a 0e be 5f 4e 9d bd 5d 4a 8e 3d c0 e1 62 3c
       -0.13877445 -0.07680964 0.069477774 0.013847768
0002e0 ab ad 25 3e 29 1e 6f 3d e4 7b 05 be 50 3a ba 3c
       0.1617953 0.058378372 -0.13035542 0.022732884
0002f0 fc 73 89 bd 26 97 a4 3d a1 9a 83 3d 30 95 cd bd
       -0.067115754 0.08036642 0.064259775 -0.10038221
000300 4e d4 8f bd 8f b0 55 3c cd 6b 95 3d ce 93 d8 3d
       -0.07022916 0.013042583 0.07295952 0.105750665
000310 b5 ac 0f 3d b6 7c 0b 3e fc 44 b0 bd 2c d1 a7 3d
       0.035076816 0.13621792 -0.08606908 0.08194193
000320 80 d4 99 bd 96 aa bd bc c0 90 0a 3d 34 53 17 3d
       -0.07511234 -0.02315263 0.03382945 0.036944583
000330 89 ed 84 bd 6f 9f 57 bd 78 c3 10 bd 98 41 53 3c
       -0.06490619 -0.052642282 -0.035342664 0.012894057
000340 9a 5a 77 3d b6 51 74 3c d9 92 a7 3d 6c a2 fd 3d
       0.06038914 0.0149120595 0.08182306 0.12384495
000350 b4 56 80 bd 63 dc b0 bd b1 a2 65 bd ec 84 0b bd
       -0.06266537 -0.086357854 -0.056063358 -0.03406231
000360 d1 6a 03 3d d7 ff 09 bd 8e 94 85 3c e2 cb 52 bd
       0.03208429 -0.033691254 0.016306188 -0.05146397
000370 89 9b b3 3c c8 58 35 3e cd 1d 5a bd 5c 91 23 bd
       0.02192475 0.17709649 -0.053251076 -0.039933547
000380 90 3c 0b 3d 88 56 93 bc 1d 11 8b bd 20 23 d9 3d
       0.033993304 -0.017985597 -0.067903735 0.10602403
000390 ac 6d 03 bd 25 92 0a be 4b a7 b1 bc d0 33 bb b9
       -0.032087013 -0.13532312 -0.021686217 -0.00035706023
0003a0 ad ec a9 3d 3a ca d1 3c 2f 26 c8 bc 22 2b f1 3d
       0.082970954 0.025609124 -0.02443227 0.11775805
0003b0 50 f3 01 bd 10 ee d2 3d d7 c6 fd bd b3 36 20 3e
       -0.03172618 0.10299313 -0.12391441 0.15645866
0003c0 ab 2b 6f 3d 74 ab f3 3d 2c ec 21 be 36 af 87 3d
       0.058391254 0.118979365 -0.15812749 0.06625216
0003d0 91 73 b3 b9 8d bb 02 3d 40 4a 06 bd 50 ce 10 3e
       -0.00034227644 0.031917144 -0.032785654 0.14141202
0003e0 7c 26 2e be 97 bd ae bd db 8a 5f 3d 5e 1d 2e 3e
       -0.17006868 -0.08532255 0.054575782 0.1700339
0003f0 94 18 51 3d 73 1c ac 3d 31 9e 60 be ff fb dd bd
       0.05104883 0.08403864 -0.21935345 -0.1083908
