models/AlinaCNN/decoder_weigths.pth (torch, 519943 bytes, 10 tensors)

cnn.0.weight f4 [64, 64, 2, 2]
0.038816586 0.027571857 -0.019900464 0.055800207 0.05227655 -0.034685805 0.0026900992 -0.01617778
0.051125966 0.058764927 0.054713674 -0.02960582 0.05766078 -0.052260123 -0.02912093 -0.005458653
-0.013497412 -0.010427507 0.051575415 -0.0491303 0.022760034 -0.019544631 -0.0052118837 0.02314847
0.008277826 0.008280382 -0.010943346 0.06182103 -0.01861833 -0.052932322 0.014202721 0.05734372
0.04388714 0.027548686 -0.034645386 0.031790704 0.05214511 0.054534204 -0.042189747 0.031006925
-0.056616098 -0.059361614 -0.04188887 0.018191345 0.04817531 -0.008047894 -0.022802167 0.030682666
-0.04545021 0.012397334 -0.023048192 0.054082133 0.022272184 0.009007879 -0.05402147 0.035652008
0.052468322 0.021534689 -0.05144699 0.05648905 0.01406046 0.03915202 0.022116683 0.052394502
0.0075288936 -0.04060665 0.022469176 0.00036688894 -0.050266538 -0.0016447008 0.038953044 -0.01404766
0.04032003 -9.9658966e-05 -0.0020645622 -0.05934935 0.0012761801 -0.026972614 -0.056999467 -0.044578172
0.012329318 0.026851341 -0.061793715 -0.037628688 0.031757757 0.03562486 0.014919773 0.009279072
-0.036663014 -0.017287426 0.030344099 -0.00024104456 0.062144104 0.038229518 -0.029009996 0.0373952
-0.01686772 -0.014599673 -0.041805573 0.0611137 0.03245102 0.011921708 0.009458376 0.039773878
-0.021613903 -0.030062899 -0.027545348 0.026648313 -0.025292426 0.008803822 -0.026027858 -0.060549207
-0.023539022 0.04898987 0.047061823 0.05535619 0.038526855 -0.010346008 -0.05174917 0.024209619
0.003919989 0.037567407 -0.0556027 -0.002470688 0.004273042 -0.013868354 0.049161747 0.009044118
0.01045192 0.027072988 0.021323934 -0.0092735365 -0.00045467168 -0.062001236 -0.01507587 -0.030569002
0.040093485 0.05272855 0.05305532 -0.028340824 -0.04134 -0.0013216445 0.0005642995 -0.0117537305
0.051183417 0.021552831 0.046742596 -0.00080709904 -0.00949125 -0.006808825 0.053807937 0.014340527
0.0527763 0.0205938 -0.025804386 -0.0028062016 -0.05219103 -0.008130804 -0.039056003 0.02759514
-0.03194014 0.046056636 0.013231613 -0.012712799 -0.0055226386 -0.045929573 0.025061138 0.026058763
0.043774568 0.0008634031 0.036606863 0.046317913 0.04776086 -0.012126572 -0.0008366704 0.014711751
-0.02182746 0.008221924 -0.0453692 0.027681462 -0.024505883 -0.006990756 0.020786457 -0.03762703
-0.03030745 -0.014593847 0.06040153 0.048359297 -0.023118727 0.01298172 -0.024089187 0.036795422
0.032737337 0.01843635 -0.03561394 -0.045806494 -0.013679072 -0.021394731 0.049091596 -0.034659885
-0.04761132 0.026790403 0.004100524 -0.05396936 0.032394283 -0.012444675 0.05112224 -0.0038826242
-0.020415708 0.061066814 0.009762764 -0.056832206 0.031492747 0.058481142 0.061300687 -0.034721363
0.0181354 0.0023560151 -0.06391877 -0.0577923 0.010858946 0.061158434 0.023996837 0.044873886
-0.06090501 0.012983248 0.020037644 -0.0032387376 -0.00759577 0.036346637 -0.06737088 -0.024729542
-0.0048622093 -0.011423595 -0.008867219 0.0029854774 0.034711227 0.024027452 -0.002678901 0.05086434
0.008415252 -0.061735436 -0.03719482 -0.032972857 -0.0373613 0.0058697164 -0.057116263 0.008882843
-0.043246366 -0.025670484 -0.0030440222 0.007388003 -0.0006283298 0.0320946 5.6067416e-05 -0.041233838
00000000: 24fe 1e3d 60de e13c 4c06 a3bc c28e 643d
00000010: f01f 563d b412 0ebd 604c 303b 4487 84bc
00000020: 7669 513d 7eb3 703d 721b 603d e887 f2bc
00000030: b62d 6c3d b60e 56bd 048f eebc 80de b2bb
00000040: 4024 5dbc 22d8 2abc be40 533d da3c 49bd
00000050: 4073 ba3c 101c a0bc 73c8 aabb dca1 bd3c
00000060: b89f 073c 70aa 073c b84b 33bc 0c38 7d3d
00000070: 7885 98bc 90cf 58bd 88b2 683c 40e1 6a3d
00000080: 00c3 333d c8ad e13c 52e8 0dbd f836 023d
00000090: 1c96 553d 425f 5f3d 28cf 2cbd 3c02 fe3c
000000a0: 48e6 67bd 2a25 73bd aa93 2bbd 0406 953c
000000b0: 7953 453d 50db 03bc 9ccb babc 375a fb3c
000000c0: 002a 3abd 301e 4b3c 90cf bcbc 3a85 5d3d
000000d0: 2874 b63c c895 133c 9e45 5dbd d707 123d
000000e0: 06e9 563d 8469 b03c 14ba 52bd 1061 673d
000000f0: d85d 663c de5d 203d 0c2e b53c 9e9b 563d
00000100: f0b4 f63b 2953 26bd 4711 b83c 005b c039
00000110: 49e4 4dbd 0093 d7ba 3a8d 1f3d 2828 66bc
00000120: 9e26 253d 0000 d1b8 9b4d 07bb 4e18 73bd
00000130: 8045 a73a acf5 dcbc 4678 69bd 9a97 36bd
00000140: e800 4a3c 58f7 db3c 681b 7dbd 8a20 1abd
00000150: 6c14 023d 60eb 113d 1072 743c 4007 183c
00000160: f52b 16bd 5c9e 8dbc 3094 f83c e8c0 7cb9
00000170: d18a 7e3d 8e96 1c3d 5fa6 edbc b62b 193d
00000180: 2c2e 8abc 7833 6fbc 523c 2bbd 5c52 7a3d
00000190: 5ceb 043d 4453 433c 4ef7 1a3c efe9 223d
000001a0: a40f b1bc 7846 f6bc c8a6 e1bc 904d da3c
000001b0: 1032 cfbc e83d 103c 6038 d5bc 7202 78bd
000001c0: e8d4 c0bc 9aa9 483d e6c3 403d 2cbd 623d
000001d0: 56ce 1d3d 4e82 29bc f0f6 53bd 4053 c63c
000001e0: 4073 803b 48e0 193d a8bf 63bd 44eb 21bb
000001f0: e004 8c3b 1838 63bc d45d 493d c82d 143c
00000200: 883e 2b3c 2cc8 dd3c 88af ae3c 08f0 17bc
00000210: 0061 eeb9 02f5 7dbd c800 77bc d86b fabc
00000220: 1139 243d e4f9 573d 8950 593d 042b e8bc
00000230: 2254 29bd 083b adba 80ed 133a b892 40bc
00000240: b4a5 513d 908f b03c 2a75 3f3d 8093 53ba
00000250: 3081 1bbc 901c dfbb b665 5c3d 88f4 6a3c
00000260: f62b 583d 54b4 a83c b863 d3bc 40e8 37bb
00000270: 43c6 55bd 1037 05bc 30f9 1fbd 340f e23c
00000280: aad3 02bd e2a5 3c3d 68c9 583c 5849 50bc
00000290: 40f7 b4bb a620 3cbd 044d cd3c 3079 d53c
000002a0: f64c 333d 0056 623a 14f1 153d dab7 3d3d
000002b0: e4a0 433d 88ae 46bc 0054 5bba 8e09 713c
000002c0: 80cf b2bc 40b5 063c 0ed5 39bd 3cc4 e23c
000002d0: 90c0 c8bc b612 e5bb 5c48 aa3c cd1e 1abd
000002e0: 5447 f8bc 081b 6fbc 9867 773d 6614 463d
000002f0: 7c63 bdbc 48b1 543c b056 c5bc ccb6 163d
00000300: 9617 063d d407 973c ecdf 11bd 979f 3bbd
00000310: 301e 60bc 0144 afbc 4514 493d 86f7 0dbd
00000320: 1604 43bd 8c77 db3c b05d 863b fa0e 5dbd
00000330: deaf 043d c0e4 4bbc 8e65 513d a073 7ebb
00000340: d83e a7bc 3221 7a3d 00f4 1f3c e3c8 68bd
00000350: 8afe 003d ec89 6f3d 6e16 7b3d fd37 0ebd
00000360: b190 943c 6067 1a3b d8e7 82bd 9eb7 6cbd
00000370: b8e9 313c 4481 7a3d 0495 c43c aecd 373d
00000380: 8877 79bd b0b7 543c fc25 a43c 0041 54bb
00000390: f0e5 f8bb 36e0 143d bef9 89bd 9c95 cabc
000003a0: 2b53 9fbb 082a 3bbc d047 11bc 00a8 433b
000003b0: 5c2d 0e3d 38d5 c43c 8090 2fbb 2057 503d
000003c0: 20e0 093c 4cde 7cbd 9859 18bd 8c0e 07bd
000003d0: 2a08 19bd c056 c03b bef2 69bd 5889 113c
000003e0: 1a23 31bd e84a d2bc 387e 47bb 1017 f23b
000003f0: 80b6 24ba a175 033d ee29 6b38 d0e4 28bd

cnn.0.bias f4 [64]
0.342801 0.056212686 0.19919506 -0.31808907 -0.25055298 0.07172248 0.03359954 0.05004719
0.041420408 0.057476845 0.06692809 0.035344608 0.07320308 0.18579222 0.005534872 0.0276452
0.19502985 -0.04459951 -0.13183784 0.068512425 0.056635864 -0.11478399 0.19528289 -0.10177601
-0.06266856 -0.021229368 0.04487038 -0.03035489 0.028186878 -0.33914015 0.04697277 0.071098834
-0.028007545 0.03782361 -0.029254755 0.015809394 0.3291051 -0.038495913 0.034878835 -0.18785846
-0.041088957 0.04986564 0.053855766 -0.22143464 0.024024377 0.2500008 0.06349722 -0.009878823
0.0062018675 0.048593365 -0.04772794 -0.03007128 -0.23805146 0.05249679 0.24837229 -0.29165563
-0.020988181 -0.2471904 0.051211618 0.046670012 -0.020611051 0.041644223 -0.35379118 -0.20284918
00000000: 9d83 af3e 463f 663d caf9 4b3e 92dc a2be
00000010: 7b48 80be 3ce3 923d ac9f 093d 48fe 4c3d
00000020: 72a8 293d d76c 6b3d 9811 893d 82c5 103d
00000030: 7feb 953d 5140 3e3e df5d b53b 3078 e23c
00000040: e8b5 473e faad 36bd 8000 07be 3e50 8c3d
00000050: 02fb 673d de13 ebbd 3df8 473e f16f d0bd
00000060: 6058 80bd 36e9 adbc 01ca 373d d1aa f8bc
00000070: 2be8 e63c c7a3 adbe 8566 403d 449c 913d
00000080: 1470 e5bc eeec 1a3d aba7 efbc b482 813c
00000090: 7780 a83e e4ad 1dbd 1cdd 0e3d f85d 40be
000000a0: e54c 28bd ea3f 4c3d dd97 5c3d c3bf 62be
000000b0: c5ce c43c 1b00 803e d50a 823d c9da 21bc
000000c0: 0939 cb3b d609 473d 5f7e 43bd 0c58 f6bc
000000d0: c3c3 73be e006 573d 4e55 7e3e e353 95be
000000e0: 68ef abbc 7b1f 7dbe 46c3 513d 0e29 3f3d
000000f0: 82d8 a8bc 2293 2a3d 1e24 b5be b2b7 4fbe

cnn.2.weight f4 [64, 64, 3, 3]
0.023780277 0.0037083277 0.0066851117 0.013176865 0.0064257523 -0.24618866 -0.029348161 0.074256405
0.022911036 0.0316048 0.0003717942 -0.038109347 -0.023074424 0.016333602 0.0558491 -0.08989204
-0.0015197909 -0.00073543243 -0.038667765 -0.009595324 -0.022895658 0.02926582 -0.0052444427 -0.030408083
-0.012470917 -0.0759081 0.006264871 -0.010774229 -0.039892085 0.027784795 0.001808195 0.032380346
-0.19087431 -0.004301504 0.025156366 -0.056202706 0.015349508 0.18552554 -0.003588877 -0.010538765
-0.009818274 -0.0513762 -0.025336092 0.03772198 0.0034092409 0.008899218 -0.013958432 0.15102604
-0.0008777068 -0.033895835 0.17228863 -0.031089887 0.20239301 -0.20967974 0.109369114 0.0029993746
-0.0071311304 -0.028272428 0.039905448 -0.005625903 -0.05358803 -0.029903933 0.075931706 -0.09507856
-0.0027887842 0.010784396 -0.017860817 -0.057190835 -0.106853135 -0.023517039 -0.024370207 0.123392425
0.03355661 -0.068955936 0.015767923 -0.006499967 0.025622368 0.018187448 -0.027020317 -0.0014409989
0.026721638 -0.01620556 0.004321701 0.010322108 9.9060366e-05 0.022964748 -0.04759184 -0.014534291
0.04051928 -0.014644123 0.010824912 -0.0153229665 -0.02968434 -0.0010547825 0.014364325 -0.0025983588
-0.015048571 -0.077496484 0.03728899 -0.010989079 0.006978571 -0.0017998562 0.046090342 -0.057541516
0.0313717 0.09792473 0.051843517 -0.0199179 0.011738153 -0.029521318 0.022236206 0.0017509345
0.010974136 -0.056960564 -0.14062281 -0.12634434 -0.037429035 -0.12402808 -0.009576346 0.08015017
0.08400597 -0.2577561 0.06166812 -0.11419305 0.03533892 0.0005446859 -0.008613996 0.00064629485
0.04768718 -0.019144123 -0.11368877 0.060707774 0.0061394228 0.20578727 -0.0815545 -0.0241683
-0.022073168 0.026913736 0.0019505043 -0.01494836 0.013902935 0.06406057 0.03761715 0.02169935
-0.061482348 0.06530135 -0.022243995 0.06096603 0.05330956 -0.13932563 -0.034445465 -0.09223047
-0.0061627273 0.03919883 -0.026904313 -0.017005652 0.014394405 -0.016849225 -0.06479997 0.011138926
-0.026547132 0.047062982 0.04504134 0.04531955 0.16851214 0.019367011 0.016623368 0.09283999
-0.015134724 -0.03744617 0.05351659 -0.006800766 0.014710747 -0.013186983 -0.015166147 -0.029117707
-0.04099972 -0.099774174 -0.02153229 0.04828709 -0.0011600383 -0.018873218 -0.14413746 0.047281884
-0.046502285 -0.038759228 0.026863663 0.017096326 -0.044511374 0.012643039 -0.034941837 0.039633863
-0.060061894 0.018955577 -0.05500607 0.19761723 0.15018676 0.047689702 0.014601229 -0.047016222
0.0004190482 0.06574588 -0.069556914 -0.06095928 0.007815668 0.023684196 0.0013338862 0.010161106
-0.016586954 -0.014654446 0.031295773 0.027978817 -0.04888872 -0.032565128 0.0096649 0.07815602
-0.004423376 -0.009475611 -0.03298297 -0.042638484 -0.03006507 -0.01883965 0.024931524 -0.0023552505
-0.08465158 0.018539162 -0.026008336 -0.015009557 0.034978908 -0.023064861 0.15279356 -0.105337925
0.016384004 0.06573659 0.005923692 -0.007997806 0.017415134 0.047994725 -0.026323356 0.0059657437
-0.049834166 0.009716356 0.008266256 0.004864766 0.034101747 0.01041867 0.041762237 -0.015378363
-0.0117317075 0.03221066 0.119584866 -0.014262644 0.003359854 -0.08106533 -0.041200075 -0.025635367
00000000: dbce c23c 6a07 733b c80e db3b c7e3 573c
00000010: 1e8f d23b e118 7cbe 8e6b f0bc be13 983d
00000020: edaf bb3c 0974 013d 5fed c239 8c18 1cbd
00000030: 9306 bdbc 0cce 853c 07c2 643d 5119 b8bd
00000040: b833 c7ba 09ca 40ba 1762 1ebd b535 1dbc
00000050: ad8f bbbc dfbe ef3c 93d9 abbb 5f1a f9bc
00000060: d152 4cbc b575 9bbd 8c49 cd3b 6486 30bc
00000070: e265 23bd f09c e33c f500 ed3a 41a1 043d
00000080: 8e74 43be a2f3 8cbb b914 ce3c cf34 66bd
00000090: 817c 7b3c 68fa 3d3e 5d33 6bbb c9aa 2cbc
000000a0: d3dc 20bc da6f 52bd a38d cfbc 5d82 1a3d
000000b0: 926d 5f3b 07ce 113c e8b1 64bc 92a6 1a3e
000000c0: e815 66ba 5cd6 0abd 6e6c 303e 38b0 febc
000000d0: 1d40 4f3e 49b6 56be eafc df3d 2891 443b
000000e0: 42ac e9bb 949b e7bc e573 233d 7f59 b8bb
000000f0: 1f7f 5bbd 18f9 f4bc 1582 9b3d 8cb8 c2bd
00000100: 09c4 36bb 09b1 303c d950 92bc f040 6abd
00000110: d1d5 dabd cea6 c0bc 07a4 c7bc 2bb5 fc3d
00000120: a872 093d c538 8dbd bb2b 813c adfd d4bb
00000130: 00e6 d13c d8fd 943c b659 ddbc e6df bcba
00000140: 56e7 da3c 86c1 84bc 0e9d 8d3b 0f1e 293c
00000150: a1be cf38 9120 bc3c a9ef 42bd 3c21 6ebc
00000160: 8bf7 253d e7ed 6fbc f95a 313c 2e0d 7bbc
00000170: 932c f3bc a140 8aba 5958 6b3c 3a49 2abb
00000180: 488e 76bc 7ab6 9ebd 57bc 183d 8a0b 34bc
00000190: 7fac e43b 27e9 ebba 3ac9 3c3d a7b0 6bbd
000001a0: 9d7f 003d c38c c83d de59 543d dd2a a3bc
000001b0: 6251 403c b1d6 f1bc b428 b63c 9d7f e53a
000001c0: ddcc 333c 7b4f 69bd 6dff 0fbe 6960 01be
000001d0: 304f 19bd 6f02 febd 1be6 1cbc c625 a43d
000001e0: 520b ac3d 9cf8 83be b697 7c3d 0cde e9bd
000001f0: 8bbf 103d 41c9 0e3a b821 0dbc 1d6c 293a
00000200: a253 433d 23d4 9cbc a8d5 e8bd b7a8 783d
00000210: 362d c93b e6b9 523e 0c06 a7bd 99fc c5bc
00000220: cad2 b4bc 327a dc3c 10a8 ff3a f7e9 74bc
00000230: 23c9 633c 3032 833d 7114 1a3d d6c2 b13c
00000240: ead4 7bbd b7bc 853d 0a39 b6bc 84b7 793d
00000250: 205b 5a3d 61ab 0ebe b016 0dbd 54e3 bcbd
00000260: b4f0 c9bb f48e 203d 6f66 dcbc 704f 8bbc
00000270: 83d6 6b3c 6307 8abc d9b5 84bd 0b80 363c
00000280: 5f79 d9bc 1dc5 403d 457d 383d fea0 393d
00000290: 728e 2c3e 91a7 9e3c bb2d 883c e522 be3d
000002a0: a2f7 77bc 2861 19bd 3634 5b3d f6d8 debb
000002b0: 5805 713c 370e 58bc 6e7b 78bc 4288 eebc
000002c0: 53ef 27bd 6756 ccbd 7c64 b0bc afc8 453d
000002d0: 6d0c 98ba 029c 9abc c598 13be a6aa 413d
000002e0: 2e79 3ebd ffc1 1ebd 2f11 dc3c 980d 8c3c
000002f0: 8f51 36bd c024 4f3c 2c1f 0fbd 1e57 223d
00000300: 7603 76bd ba48 9b3c 0b4e 61bd 2c5c 4a3e
00000310: 8fca 193e 4756 433d fe39 6f3c 1594 40bd
00000320: b3b3 db39 c7a5 863d db73 8ebd 70b0 79bd
00000330: 4a0d 003c 5c05 c23c cbd5 ae3a c47a 263c
00000340: 5de1 87bc 3419 70bc ff2f 003d d533 e53c
00000350: 8a3f 48bd 0363 05bd 8759 1e3c 4310 a03d
00000360: f8f1 90bb 983f 1bbc 2719 07bd b1a5 2ebd
00000370: 064b f6bc 9c55 9abc 323d cc3c 8c5a 1abb
00000380: cf5d adbd 71df 973c 6f0f d5bc a5ea 75bc
00000390: 0b46 0f3d 85f2 bcbc ea75 1c3e 69bb d7bd
000003a0: bf37 863c e8a0 863d 881b c23b 3b09 03bc
000003b0: 2faa 8e3c 1e96 443d 14a4 d7bc 497c c33b
000003c0: e91e 4cbd 5a31 1f3c 316f 073c 9d68 9f3b
000003d0: 46ae 0b3d 12b3 2a3c e10e 2b3d 88f5 7bbc
000003e0: 5936 40bc 53ef 033d e9e8 f43d ddad 69bc
000003f0: ff30 5c3b 9405 a6bd 69c1 28bd 4301 d2bc

cnn.2.bias f4 [64]
-0.25022155 0.12666576 0.1653026 -0.17840283 0.19944431 0.08574595 -0.0089652855 0.2510623
-0.09356858 0.10690889 0.15770641 -0.28838468 -0.020179031 0.04469263 -0.06629526 -0.2137393
0.33741868 -0.07471581 -0.16532536 0.10904125 -0.0823713 0.18999454 0.03354568 -0.38710645
-0.35499918 0.15998621 -0.2662342 -0.14214239 0.07817789 -0.22070608 -0.0046850913 0.02758584
0.3842589 0.27082986 -0.37123987 0.09607098 -0.14794144 -0.27945265 0.26778847 -0.17077251
0.07784315 -0.28433976 -0.13338281 -0.04029366 -0.03911586 -0.1714156 -0.19083242 -0.18756007
0.019690262 0.19095689 -0.30136123 -0.1371041 0.2962694 0.18926167 -0.15111186 -0.1830483
-0.051781777 -0.17967828 -0.26796353 -0.0037146239 -0.13226111 -0.0977282 0.039382447 0.18934137
00000000: 0a1d 80be abb4 013e 1645 293e 3baf 36be
00000010: 213b 4c3e 939b af3d 22e3 12bc 3d8b 803e
00000020: e2a0 bfbd 0cf3 da3d ca7d 213e 28a7 93be
00000030: 7f4e a5bc 9f0f 373d cfc5 87bd 7ade 5abe
00000040: 24c2 ac3e 9a04 99bd 0d4b 29be 0551 df3d
00000050: 49b2 a8bd ee8d 423e 3267 093d d132 c6be
00000060: 74c2 b5be 6dd3 233e d94f 88be c68d 11be
00000070: bb1b a03d c600 62be 6585 99bb b3fb e13c
00000080: 95bd c43e 36aa 8a3e 2713 bebe ddc0 c43d
00000090: f67d 17be 6b14 8fbe 921b 893e fdde 2ebe
000000a0: 3b6c 9f3d fb94 91be 8195 08be f70a 25bd
000000b0: f437 20bd 9287 2fbe 9369 43be bf0f 40be
000000c0: 794d a13c 348a 433e 054c 9abe 0465 0cbe
000000d0: 9fb0 973e d0cd 413e 11bd 1abe 0371 3bbe
000000e0: 2119 54bd 95fd 37be 8432 89be 0c71 73bb
000000f0: 756f 07be b925 c8bd 7d4f 213d b4e2 413e

cnn.4.weight f4 [64, 64, 3, 3]
0.13883317 0.12448688 0.08532159 0.09817223 -0.06339249 -0.16617244 -0.10362081 -0.038197484
0.12287454 -0.06415665 -0.015782954 0.118720554 -0.055553827 -0.055686045 0.097155504 0.0057831313
-0.0057903593 0.027407471 0.015104632 0.054805357 0.051388625 -0.026683722 -0.028934086 0.08059302
-0.038671784 -0.0076635517 0.05411725 0.04735691 0.046061143 0.03425288 -0.009198042 0.03841091
0.09558157 -0.052189026 0.026454281 0.08964647 -0.038527653 0.062284164 0.089246064 0.055609666
0.0012321655 0.02343597 -0.03858018 0.09628796 0.0771175 0.07419033 0.25071904 0.005401876
0.052839886 -0.3199846 -0.109344445 0.09913624 0.12869634 -0.0013262954 0.086221285 0.02293193
0.03962223 -0.0008935926 0.038614914 0.064390995 0.071051344 0.027852612 0.046225805 0.015625078
-0.043726873 -0.031823963 0.014146051 0.074917406 -0.2242911 0.01083139 0.11658974 0.035478357
0.13013053 0.0068486477 0.05197897 0.11499077 -0.013021855 0.033551026 0.08064517 -0.17386462
0.032213785 -0.038117252 -0.017313084 -0.033980496 -0.06960388 -0.05682864 -0.13039434 0.015114842
-0.008591756 0.017587695 0.01048773 0.09406591 0.16056116 -0.06499251 -0.0013372593 0.108520485
0.06738209 0.022480696 -0.13480167 -0.015667977 -0.024680052 0.033197135 0.020320239 -0.031563617
0.09758872 0.015891517 -0.044016052 -0.03675706 -0.23701812 -0.10693331 -0.1532949 0.009590018
-0.35425586 -0.032628827 -0.052205205 -0.049157713 -0.032753333 -0.0043980707 0.07823478 0.09356675
0.1665044 0.08254142 0.05199338 0.0407769 0.20160165 -0.19501495 -0.9014011 0.093697146
0.042788383 -0.097289264 0.07953928 0.14854597 -0.06045684 -0.030077415 -0.047798876 -0.09536353
0.011575382 0.028105615 -0.010758322 -0.0047570365 0.17756318 -0.07187303 -0.051026378 -0.261077
0.05103319 0.054920223 0.11121267 0.041207135 -0.04761185 -0.09264249 0.036501043 0.12449049
-0.12945545 0.04754662 0.049119048 0.1333163 0.0740764 0.045460436 -0.023394816 -0.088888325
0.040317457 0.17559701 0.010960308 -0.0258778 -0.02415877 0.0026203112 -0.0030679354 0.00030268863
-0.0068699284 -0.012615399 0.01611716 0.009058199 -0.061673194 0.03061388 0.052062675 -0.16324627
0.068753645 0.021461468 0.012924197 -0.016280904 0.026220517 -0.0030654834 0.074155994 0.06351724
0.07772835 0.14513864 -0.04003794 -0.033463288 0.12856224 0.017117873 0.1383663 0.06896549
0.15510617 -0.14680895 0.0417814 -0.03420735 -0.29486874 -0.13145967 0.0818825 0.15051651
0.006871984 -0.07989892 -0.04809114 0.2128109 -0.061126806 -0.2187732 -0.0380989 0.04340269
0.07790109 -0.010891102 0.101269566 -0.05513603 0.011385917 -0.096060835 -0.064071074 -0.0625558
0.010678751 -0.080022484 -0.016415847 0.010450839 -0.013691238 0.10585898 0.028257811 0.09865149
0.07241137 0.03242475 0.013124486 -0.03137834 -0.028763138 -0.027636409 -0.016563134 -0.088552564
0.02258208 -0.05199678 0.11170705 0.08543546 -0.012669156 0.17431828 -0.14355811 0.034123283
0.037430752 0.09736934 -0.19880153 -0.021294251 -0.09292755 0.11394089 -0.04720396 -0.1452375
0.103655584 0.06271105 0.0067202803 0.060925767 0.12641723 0.09478343 0.08072759 0.055895198
00000000: 482a 0e3e faf2 fe3d 16bd ae3d 860e c93d
00000010: ecd3 81bd 1c29 2abe 2637 d4bd f774 1cbd
00000020: a6a5 fb3d 9064 83bd 414b 81bc c323 f33d
00000030: 698c 63bd 0d17 64bd 77f9 c63d 6c80 bd3b
00000040: 0ebd bdbb a285 e03c 6b79 773c 957b 603d
00000050: e17c 523d d297 dabc 2d07 edbc f40d a53d
00000060: 4e66 1ebd 881e fbbb 0daa 5d3d 52f9 413d
00000070: 9caa 3c3d bf4c 0c3d 62b3 16bc c254 1d3d
00000080: 45c0 c33d 29c4 55bd a6b6 d83c 9298 b73d
00000090: 2ccf 1dbd ae1d 7f3d a4c6 b63d f6c6 633d
000000a0: 9d80 a13a cbfc bf3c 4006 1ebd 9f32 c53d
000000b0: c8ef 9d3d 1af1 973d 3f5e 803e 3802 b13b
000000c0: a36e 583d 06d5 a3be fbef dfbd f107 cb3d
000000d0: f9c8 033e 17d7 adba c994 b03d bedb bb3c
000000e0: eb4a 223d fc3f 6aba ac2a 1e3d 6ddf 833d
000000f0: 5e83 913d 292b e43c 4557 3d3d 2a00 803c
00000100: f31a 33bd d859 02bd d7c4 673c 4c6e 993d
00000110: 91ac 65be 2476 313c 9ac6 ee3d c151 113d
00000120: f040 053e 9f6a e03b e7e7 543d 4880 eb3d
00000130: 9e59 55bc cd6c 093d 4b29 a53d 9109 32be
00000140: 9af2 033d d620 1cbd 2bd4 8dbc 222f 0bbd
00000150: 7b8c 8ebd 26c5 68bd 1886 05be 3ea4 773c
00000160: 70c4 0cbc 1214 903c bad4 2b3c a1a5 c03d
00000170: 256a 243e cb1a 85bd fa46 afba fd3f de3d
00000180: 9fff 893d 7029 b83c 7309 0abe 215a 80bc
00000190: d22d cabc b8f9 073d a176 a63c da48 01bd
000001a0: 98dc c73d ed2e 823c 2d4a 34bd 928e 16bd
000001b0: e1b4 72be daff dabd 57f9 1cbe 731f 1d3c
000001c0: 0661 b5be cea5 05bd 20d5 55bd 9959 49bd
000001d0: 5c28 06bd b11d 90bb 8e39 a03d ed9f bf3d
000001e0: 2180 2a3e 7a0b a93d 03f7 543d ae05 273d
000001f0: aa70 4e3e 00b2 47be 39c2 66bf 4ae4 bf3d
00000200: df42 2f3d 983f c7bd 7de5 a23d 6f1c 183e
00000210: 97a1 77bd e964 f6bc c1c8 43bd f44d c3bd
00000220: aca6 3d3c bf3d e63c ac43 30bc eae0 9bbb
00000230: 1fd3 353e 2b32 93bd 0901 51bd e2ab 85be
00000240: 2e08 513d 07f4 603d 78c3 e33d d0c8 283d
00000250: a504 43bd 59bb bdbd 1e82 153d dff4 fe3d
00000260: f88f 04be 3fc0 423d 0e31 493d 1184 083e
00000270: 5eb5 973d b934 3a3d 7ca6 bfbc 150b b6bd
00000280: eb23 253d b4cf 333e dd92 333c aefd d3bc
00000290: 9de8 c5bc 87b9 2b3b 6a0f 49bb 2eb2 9e39
000002a0: 231d e1bb d2b0 4ebc 2208 843c d768 143c
000002b0: 089d 7cbd f6c9 fa3c ac3f 553d 082a 27be
000002c0: b6ce 8c3d f6cf af3c 03c0 533c 885f 85bc
000002d0: 69cc d63c 47e6 48bb 19df 973d 5415 823d
000002e0: 0b30 9f3d 399f 143e d3fe 23bd cd10 09bd
000002f0: d2a5 033e c83a 8c3c e5af 0d3e c73d 8d3d
00000300: 27d4 1e3e 1655 16be f922 2b3d 021d 0cbd
00000310: 09f9 96be 5d9d 06be 03b2 a73d 0021 1a3e
00000320: 612e e13b 0ca2 a3bd 37fb 44bd 1aeb 593e
00000330: 1a60 7abd 1506 60be 980d 1cbd 05c7 313d
00000340: 9b8a 9f3d 9870 32bc 6b66 cf3d 51d6 61bd
00000350: ff8b 3a3c 8bbb c4bd b237 83bd 411d 80bd
00000360: eef5 2e3c d4e2 a3bd 877a 86bc ff39 2b3c
00000370: 3751 60bc 98cc d83d ed7c e73c cb09 ca3d
00000380: 6a4c 943d d1cf 043d 1608 573c 9386 00bd
00000390: aca0 ebbc c065 e2bc 69af 87bc 0c5b b5bd
000003a0: 0efe b83c 93fa 54bd aac6 e43d c9f8 ae3d
000003b0: 4b92 4fbc 7e80 323e e600 13be dbc4 0b3d
000003c0: fd50 193d 9469 c73d a192 4bbe 4871 aebc
000003d0: cd50 bebd d759 e93d f158 41bd 24b9 14be
000003e0: 6149 d43d a76e 803d cc35 dc3b 4c8d 793d
000003f0: 8573 013e d11d c23d 8254 a53d 5df2 643d

cnn.4.bias f4 [64]
-0.20918795 -0.2912049 0.15424441 0.06739821 0.27033454 0.16707626 -0.15145594 -0.1239842
-0.2188712 0.42330065 0.09377049 -0.09085429 0.35056037 -0.2669742 -0.058203045 0.21098228
-0.38197514 -0.3728593 -0.17464784 0.04296278 -0.2311747 -0.1655242 -0.29711816 0.0174708
0.030618262 0.27690515 -0.1510583 0.13713829 -0.2535788 0.027414484 -0.08173542 -0.06690593
-0.044335727 -0.21266702 -0.17294754 -0.10384717 -0.111047186 0.25888762 -0.0115117775 0.38990077
-0.0026087468 -0.09585899 -0.1615569 -0.26803476 0.05268721 -0.06448251 -0.06933753 0.0035057191
-0.48081133 -0.14456315 -0.19434543 0.29549155 -0.20698442 -0.5397988 -0.12861377 -0.2885535
-0.32021907 0.14192396 0.0066949436 0.41044113 -0.043330424 0.112443104 -0.23314051 0.43911588
00000000: 5e35 56be cf18 95be 3ff2 1d3e 1308 8a3d
00000010: 4a69 8a3e 0a16 2b3e 4417 1bbe 6eeb fdbd
00000020: c61f 60be ddba d83e be0a c03d d011 babd
00000030: a67c b33e d8b0 88be 5166 6ebd bd0b 583e
00000040: 3f92 c3be 6ae7 bebe e2d6 32be bdf9 2f3d
00000050: 10b9 6cbe 2d7f 29be df1f 98be ec1e 8f3c
00000060: 26d3 fa3c 83c6 8d3e 07af 1abe fb6d 0c3e
00000070: 15d5 81be 5794 e03c e664 a7bd fa05 89bd
00000080: 6199 35bd 62c5 59be 2919 31be d3ad d4bd
00000090: b56c e3bd eb8c 843e e59b 3cbc 13a1 c73e
000000a0: 82f7 2abb b851 c4bd 2c6f 25be da3b 89be
000000b0: 8bce 573d 680f 84bd d600 8ebd 35c0 653b
000000c0: e72c f6be 5d08 14be 7d02 47be ab4a 973e
000000d0: b9f3 53be 4130 0abf 54b3 03be 49bd 93be
000000e0: c1f3 a3be 8454 113e 4261 db3b 5725 d23e
000000f0: 3e7b 31bd 9248 e63d 63bc 6ebe ccd3 e03e

cnn.6.weight f4 [64, 32, 4, 4]
0.027239842 0.018367968 -0.006376096 -0.015980646 0.19821876 0.35347608 0.16349395 0.058803584
0.08016946 0.075334445 -0.073938996 -0.069684625 0.18542698 0.05652459 -0.14312354 -0.3071739
-0.018380616 0.046755597 -0.02730272 -0.0069871983 0.026785875 0.009893807 -0.05593716 -0.071792625
-0.008670472 0.03048644 0.029901333 0.024755167 -0.0631339 -0.1523151 -0.30731282 -0.25125363
0.023579996 0.01298184 -0.024522567 -0.014543922 0.11038516 -0.038534664 0.051649448 0.04603126
-0.09481652 -0.053200074 -0.07850971 -0.09171625 0.094684236 0.19155261 0.07663232 -0.15670548
-0.05308442 0.009889092 -0.03671365 0.023554472 0.07021633 0.06593869 0.03651881 -0.047945425
0.10641654 0.03099221 0.025291659 -0.015479015 0.17415547 -0.010522117 0.082858674 -0.097028464
-0.03475676 -0.037734993 0.09378363 0.004190428 0.00014871091 0.008535001 -0.0910659 0.03244773
0.066472955 -0.43807718 -0.10357842 0.07904931 0.032907058 0.107356265 0.04358704 0.050009653
-0.014065651 -0.019018598 0.002765847 0.23682679 0.12554346 0.05076563 0.06842587 -0.12137325
0.17722894 0.11410464 0.10109512 -0.1296244 0.29120314 -0.014051956 0.20429686 -0.13488717
0.056531932 0.08574196 0.011228477 -0.033254724 0.11658367 0.04510195 0.009959192 -0.07000546
0.20684876 0.15709259 -0.115569636 -0.22019897 0.15154128 0.010453602 0.012186729 -0.0995174
-0.016233502 0.039608788 -0.022236567 -0.021615164 -0.0069305133 -0.03292946 -0.07400404 -0.26647142
0.07465775 0.023275997 -0.02810761 -0.16428913 -0.030887272 -0.27122054 -0.07476889 -0.23073018
0.023866504 0.1313919 0.10015708 0.043633483 0.09543412 -0.0182791 0.1271395 -0.018255126
0.0933824 0.24023305 0.16408072 -0.15306151 0.000512456 -0.0069318702 -0.0888652 -0.031886768
-0.0043524103 -0.000981575 -0.045793753 -0.0353429 0.34662947 0.3376855 0.038309664 -0.24609892
-0.003876667 -0.009530459 -0.009342098 0.00037009214 -0.12427541 -0.25236854 -0.11720087 -0.21742202
-0.18973947 -0.18594648 -0.109448686 -0.070185915 -0.20562336 -0.11241843 -0.10148734 -0.1310439
-0.29566976 -0.004891832 -0.038146652 -0.14132126 -0.09659477 -0.26166564 -0.05984244 -0.30111787
0.07524785 0.063686766 0.01846198 -0.00061218394 0.1314957 0.12783223 0.008062164 -0.059065066
0.122250624 0.05150846 -0.0023625114 -0.037998877 0.16854905 0.048345175 0.091023535 0.057317704
-0.027826497 0.046912618 -0.04543814 -0.038347274 0.13579926 0.17536269 0.041928403 -0.035473377
0.22630988 0.1378971 0.054891795 -0.10773735 0.22218952 0.077973895 0.11543981 0.0708533
0.013514512 0.008129126 0.0018293264 0.047981005 0.23163523 0.26180008 -0.055907123 -0.07726516
0.09748544 0.08439726 -0.09746008 -0.13798353 0.1618711 0.043134104 -0.13857041 -0.59492636
0.0026559033 0.040309217 -0.049707077 -0.045482963 0.07619794 -0.01602176 -0.14980313 0.17333321
0.059841312 0.0005231111 -0.06576837 -0.043381594 0.045745 0.10171721 0.06133602 0.26521638
0.17425779 0.24156925 0.16060913 -0.0039266474 0.2194262 -0.034069944 0.21290597 -0.0846575
0.2131064 0.22461696 0.13556653 0.14487016 0.07822439 -0.026652215 -0.003924354 0.021207392
00000000: 1726 df3c 6c78 963c 92ee d0bb d8e9 82bc
00000010: dcf9 4a3e d1fa b43e f56a 273e 07dc 703d
00000020: e32f a43d f248 9a3d 546d 97bd d0b6 8ebd
00000030: 92e0 3d3e 5486 673d fa8e 12be e645 9dbe
00000040: f292 96bc cc82 3f3d f4a9 dfbc def4 e4bb
00000050: 0d6e db3c a219 223c 5d1e 65bd 0308 93bd
00000060: 980e 0ebc b3be f93c a4f3 f43c 59cb ca3c
00000070: 594c 81bd 7df8 1bbe 1b58 9dbe 51a4 80be
00000080: d62a c13c c9b1 543c 8de3 c8bc a149 6ebc
00000090: 9d11 e23d 86d6 1dbd 5f8e 533d 468b 3c3d
000000a0: 2a2f c2bd 52e8 59bd b3c9 a0bd bbd5 bbbd
000000b0: cfe9 c13d 5e26 443e 68f1 9c3d 6777 20be
000000c0: 0c6f 59bd dc05 223c 0d61 16bd 4ff5 c03c
000000d0: 94cd 8f3d dd0a 873d bf94 153d 6c62 44bd
000000e0: eaf0 d93d 60e3 fd3c 7430 cf3c b29b 7dbc
000000f0: d055 323e f564 2cbc cfb1 a93d dcb6 c6bd
00000100: 1b5d 0ebd 0290 1abd a211 c03d dc4f 893b
00000110: 48ef 1b39 64d6 0b3c c280 babd e9e7 043d
00000120: f922 883d a74b e0be ec20 d4bd 9be4 a13d
00000130: 8dc9 063d 9add db3d 5388 323d ecd6 4c3d
00000140: 9e73 66bc e4cc 9bbc 3643 353b b982 723e
00000150: 778e 003e 9fef 4f3d dd22 8c3d 8a92 f8bd
00000160: 817b 353e b2af e93d f50a cf3d 42bc 04be
00000170: 9418 953e 2d3a 66bc 3233 513e dd1f 0abe
00000180: 078e 673d 7b99 af3d a5f7 373c 1b36 08bd
00000190: 6bc3 ee3d d3bc 383d e12b 233c 065f 8fbd
000001a0: 29d0 533e e1dc 203e c6af ecbd d77b 61be
000001b0: a32d 1b3e 9645 2b3c d9aa 473c c7cf cbbd
000001c0: 1ffc 84bc d33c 223d 7629 b6bc 4912 b1bc
000001d0: 5c19 e3bb 0be1 06bd 6e8f 97bd f16e 88be
000001e0: 2ae6 983d 4ead be3c ee41 e6bc 693b 28be
000001f0: 4e07 fdbc 6bdd 8abe 6f20 99bd 8844 6cbe
00000200: b083 c33c 998b 063e 281f cd3d 06b9 323d
00000210: f772 c33d 0dbe 95bc db30 023e c68b 95bc
00000220: 463f bf3d a7ff 753e c704 283e 28bc 1cbe
00000230: 5756 063a be24 e3bb f5fe b5bd b39b 02bd
00000240: aa9e 8ebb 31a8 80ba 3b92 3bbd b7c3 10bd
00000250: 6b79 b13e 1de5 ac3e 98ea 1c3d 5b01 7cbe
00000260: ae0f 7ebb a425 1cbc 990f 19bc ed08 c239
00000270: 1b84 febd 7336 81be 0207 f0bd e1a3 5ebe
00000280: 104b 42be c168 3ebe a226 e0bd a2bd 8fbd
00000290: ee8e 52be a23b e6bd 98d8 cfbd 5f30 06be
000002a0: 0762 97be a94b a0bb aa3f 1cbd 85b6 10be
000002b0: 7bd3 c5bd 0af9 85be 591d 75bd 1f2c 9abe
000002c0: 8b1b 9a3d 356e 823d 943d 973c f87a 20ba
000002d0: cfa6 063e 74e6 023e 2b17 043c 36ee 71bd
000002e0: 895e fa3d 89fa 523d 5dd4 1abb b6a4 1bbd
000002f0: 1f98 2c3e 9705 463d 8c6a ba3d f8c5 6a3d
00000300: 65f4 e3bc 7227 403d 581d 3abd 0812 1dbd
00000310: f60e 0b3e 4792 333e 1ebd 2b3d 884c 11bd
00000320: c7bd 673e e634 0d3e 38d6 603d 66a5 dcbd
00000330: a685 633e c7b0 9f3d b56b ec3d 891b 913d
00000340: f96b 5d3c 0730 053c 02c6 ef3a bb87 443d
00000350: c931 6d3e a90a 863e defe 64bd 323d 9ebd
00000360: 72a6 c73d 78d8 ac3d 2799 c7bd 8e4b 0dbe
00000370: 8ac1 253e 63ad 303d 67e5 0dbe 184d 18bf
00000380: aa0e 2e3b 471b 253d a699 4bbd 584c 3abd
00000390: aa0d 9c3d 1140 83bc fe65 19be 437e 313e
000003a0: 2a1c 753d 6421 093a 91b1 86bd e6b0 31bd
000003b0: 1c5f 3b3d 1d51 d03d 7a3b 7b3d 71ca 873e
000003c0: a270 323e ee5d 773e b876 243e 1bab 80bb
000003d0: 43b1 603e ed8c 0bbd 0604 5a3e e960 adbd
000003e0: 9038 5a3e fd01 663e f4d1 0a3e d858 143e
000003f0: 1c34 a03d bf55 dabc de97 80bb 20bb ad3c

cnn.6.bias f4 [32]
0.068757944 0.08468549 0.28752694 -0.26079223 0.39885476 -0.04525431 0.08560625 0.14271916
-0.094630495 -0.06066299 0.12579833 -0.0027952958 -0.34538624 0.088596255 0.09748347 0.10078824
0.11867369 0.1643527 0.099544786 0.4937998 0.014340076 -0.332568 -0.0018576159 0.015381793
0.15476398 0.045232803 0.13490178 0.13152699 0.0035579111 -0.13662702 0.048289604 -0.2085818
00000000: f7d0 8c3d 966f ad3d bb36 933e 8f86 85be
00000010: b136 cc3e 955c 39bd 5452 af3d f924 123e
00000020: a2cd c1bd c179 78bd 47d1 003e 4831 37bb
00000030: 77d6 b0be f471 b53d 6aa5 c73d 116a ce3d
00000040: 310b f33d 134c 283e 23de cb3d 54d3 fc3e
00000050: a3f2 6a3c 5a46 aabe 3f7b f3ba ea03 7c3c
00000060: 737a 1e3e 0846 393d b123 0a3e 03af 063e
00000070: d82b 693b f4e7 0bbe 52cb 453d 7896 55be

cnn.8.weight f4 [32, 3, 8, 8]
-0.112050645 -0.118759885 -0.060882688 0.03554934 0.1469182 0.17641103 0.10882031 0.013348836
-0.119064234 -0.07122834 0.07198993 0.28866714 0.4621988 0.42316094 0.26797265 0.0791418
-0.11107077 -0.03663362 0.14575002 0.4116009 0.5921923 0.5116762 0.3172161 0.094777696
-0.11000343 -0.054175723 0.096222945 0.3431536 0.46012142 0.37745535 0.2239592 0.036222402
-0.12203096 -0.12969674 -0.08520208 0.031728208 0.044712365 0.020875974 -0.032538474 -0.118582614
-0.11478356 -0.16604929 -0.1913753 -0.1626444 -0.20197871 -0.16541071 -0.15270467 -0.15926611
-0.07396041 -0.13945775 -0.1846213 -0.19320351 -0.22647165 -0.17700212 -0.14276195 -0.12240589
-0.030016124 -0.08233352 -0.13040392 -0.1374553 -0.1433662 -0.114763916 -0.08321652 -0.061468847
-0.09095444 -0.09653883 -0.038560458 0.075856574 0.16585742 0.18523416 0.11231894 0.0074736746
-0.10159558 -0.049595993 0.10389532 0.34131917 0.5017797 0.45627624 0.28687406 0.08020945
-0.103417315 -0.02082826 0.18441357 0.49215177 0.64135236 0.5498618 0.31989926 0.07236753
-0.11152697 -0.04894263 0.12327463 0.39848533 0.45750213 0.37444812 0.19543284 -0.0051880605
-0.13674574 -0.13717236 -0.08224985 0.04956625 0.017603748 -0.002727464 -0.06463846 -0.15410434
-0.10873939 -0.15997672 -0.17666756 -0.13592368 -0.21828082 -0.1799228 -0.1692544 -0.1800864
-0.056354403 -0.11481662 -0.153131 -0.15331508 -0.20821579 -0.16251372 -0.13224009 -0.117612176
-0.008073259 -0.052386224 -0.09036 -0.0895258 -0.11866611 -0.09123694 -0.06851218 -0.05752884
-0.027602198 -0.021882527 0.02523945 0.14165102 0.204338 0.22557367 0.15587111 0.05279465
-0.027494479 0.022249473 0.16548823 0.4012096 0.5364329 0.5038521 0.31809327 0.112328775
-0.03529062 0.044461258 0.2576291 0.5961713 0.7552488 0.631572 0.35532376 0.106853575
-0.033075854 0.018351393 0.19364558 0.46607533 0.51268375 0.40624574 0.2054939 0.033494648
-0.045578573 -0.04068311 0.016980547 0.13526027 0.10126375 0.05785498 -0.011462666 -0.07370876
-0.032433476 -0.06829912 -0.07528135 -0.044330362 -0.10637431 -0.08864823 -0.09202373 -0.10229714
-0.0080086235 -0.04593107 -0.06401112 -0.056984633 -0.101965375 -0.07322366 -0.067713134 -0.068697535
0.017638234 -0.005046663 -0.018987369 -0.014053298 -0.047501687 -0.03175462 -0.035270285 -0.044915356
0.004557807 0.012288479 0.026167417 0.045636777 0.0018541927 -0.0031467201 -0.011632553 -0.016376022
0.0023693922 0.006799471 0.021666547 0.0450564 -0.021457326 -0.021211982 -0.027700793 -0.035180572
0.0028158387 0.008272938 0.022592997 0.044186894 -0.04267879 -0.04302919 -0.047522213 -0.051143605
-0.005181594 -0.0027663014 0.010364295 0.026322093 -0.068497725 -0.06764 -0.070364915 -0.073625095
0.039781105 0.0478162 0.062534854 0.07844986 -0.061105274 -0.062961236 -0.06665359 -0.07362971
0.048565578 0.064136334 0.08299369 0.09909592 -0.047352023 -0.056282714 -0.06745545 -0.07337255
0.057466835 0.07590802 0.09400153 0.106494 -0.031119108 -0.04300373 -0.054178078 -0.059545286
0.059591696 0.08400992 0.0954899 0.101695925 -0.026923727 -0.03651897 -0.043361347 -0.041159026
00000000: cf7a e5bd 6238 f3bd 2060 79bd 2f9c 113d
00000010: ba71 163e 18a5 343e 2fdd de3d 14b5 5a3c
00000020: f3d7 f3bd 2ae0 91bd 756f 933d 2ecc 933e
00000030: 52a5 ec3e 8da8 d83e b633 893e 1915 a23d
00000040: 1279 e3bd 220d 16bd 7e3f 153e 5abd d23e
00000050: ea99 173f 36fd 023f 266a a23e cf1a c23d
00000060: 7a49 e1bd 5de7 5dbd 8910 c53d d4b1 af3e
00000070: 0995 eb3e d441 c13e 8f55 653e f15d 143d
00000080: 5eeb f9bd 39cf 04be 6e7e aebd 70f5 013d
00000090: 5024 373d 1704 ab3c 1047 05bd 71db f2bd
000000a0: a513 ebbd d308 2abe e3f7 43be 418c 26be
000000b0: 82d3 4ebe 6d61 29be 9d5e 1cbe a816 23be
000000c0: 8e78 97bd 03ce 0ebe 5e0d 3dbe 24d7 45be
000000d0: 2fe8 67be 0b40 35be 3030 12be f0af fabd
000000e0: 60e4 f5bc 7a9e a8bd 9b88 05be 15c1 0cbe
000000f0: 97ce 12be 5809 ebbd 6c6d aabd c2c6 7bbd
00000100: 5246 babd 26b6 c5bd 92f1 1dbd b15a 9b3d
00000110: 87d6 293e 06ae 3d3e 7907 e63d bae5 f43b
00000120: 5811 d0bd 2b25 4bbd 12c7 d43d 63c1 ae3e
00000130: a274 003f 0a9d e93e 28e1 923e da44 a43d
00000140: 75cc d3bd 07a0 aabc e9d6 3c3e 51fb fb3e
00000150: ab2f 243f bec3 0c3f d6c9 a33e 6d35 943d
00000160: 4168 e4bd 1178 48bd 6977 fc3d 4506 cc3e
00000170: b83d ea3e aab7 bf3e 8c1f 483e 9b00 aabb
00000180: 1307 0cbe e976 0cbe 9c72 a8bd fb05 4b3d
00000190: bc35 903c 41bf 32bb 2b61 84bd 87cd 1dbe
000001a0: c2b2 debd f0d0 23be 57e8 34be 942f 0bbe
000001b0: 0285 5fbe af3d 38be 0751 2dbe 9268 38be
000001c0: e0d3 66bd fa24 ebbd 5fce 1cbe a1fe 1cbe
000001d0: 8536 55be ff69 26be f269 07be a7de f0bd
000001e0: b445 04bc f092 56bd aa0e b9bd 4d59 b7bd
000001f0: 3807 f3bd 6fda babd 1d50 8cbd 5ca3 6bbd
00000200: 011e e2bc fc42 b3bc f7c2 ce3c f70c 113e
00000210: fb3d 513e c9fc 663e ad9c 1f3e 343f 583d
00000220: 1a3c e1bc 8744 b63c bf75 293e 586b cd3e
00000230: ab53 093f 74fc 003f 1fdd a23e a10c e63d
00000240: e68c 10bd 021d 363d f6e7 833e af9e 183f
00000250: fc57 413f b4ae 213f ffec b53e 0cd6 da3d
00000260: 8c7a 07bd a955 963c 074b 463e 6da1 ee3e
00000270: 3e3f 033f 71ff cf3e fe6c 523e af31 093d
00000280: 99b0 3abd 55a3 26bd ca1a 8b3c ab81 0a3e
00000290: 5e63 cf3d 58f9 6c3d e8cd 3bbc 9ef4 96bd
000002a0: f7d8 04bd 69e0 8bbd 1c2d 9abd c193 35bd
000002b0: c6da d9bd 348d b5bd f076 bcbd 2a81 d1bd
000002c0: 9a36 03bc 3822 3cbd 4318 83bd b868 69bd
000002d0: 39d3 d0bd 49f6 95bd 2fad 8abd 4bb1 8cbd
000002e0: 0f7e 903c 7a5e a5bb 668b 9bbc ce3f 66bc
000002f0: 2191 42bd 2211 02bd 9377 10bd 2af9 37bd
00000300: a859 953b 9e55 493c 0d5d d63c a1ed 3a3d
00000310: 6208 f33a 3439 4ebb 7796 3ebc 0227 86bc
00000320: ce47 1b3b 19ce de3b 0b7e b13c 0f8d 383d
00000330: 46c7 afbc c0c4 adbc c6ec e2bc 8119 10bd
00000340: ef89 383b 388b 073c f314 b93c 51fd 343d
00000350: f4cf 2ebd 603f 30bd a7a6 42bd f57b 51bd
00000360: 5cca a9bb d64a 35bb 01cf 293c 6ea1 d73c
00000370: 8948 8cbd d786 8abd 7b1b 90bd c1c8 96bd
00000380: 83f1 223d ebda 433d 4612 803d 52aa a03d
00000390: 8649 7abd d2f1 80bd ad81 88bd 2ccb 96bd
000003a0: b3ec 463d e959 833d 99f8 a93d cdf2 ca3d
000003b0: 32f4 41bd b488 66bd 1526 8abd 5944 96bd
000003c0: 5862 6b3d aa75 9b3d e083 c03d 8719 da3d
000003d0: 80ed febc ae24 30bd d5e9 5dbd c2e5 73bd
000003e0: 6c16 743d 650d ac3d 3590 c33d f445 d03d
000003f0: 268f dcbc ea94 15bd ab9b 31bd 5e96 28bd

cnn.8.bias f4 [3]
0.3274096 0.34969783 0.36928615
00000000: 3ba2 a73e 980b b33e 1313 bd3e
