models/AlinaCNN/decoder_weigths.pth (torch, 519943 bytes, 10 tensors)

cnn.0.weight f4 [64, 64, 2, 2]
0	0x3d229a3a	0.039697863
1	0x3cddeff0	0.02709195
2	0xbcd5dd55	-0.026106516
3	0xbd067866	-0.032829665
4	0xbd5fd56b	-0.05464689
5	0xbda392e3	-0.07987001
6	0xbd52b245	-0.051439542
7	0x3d963cf8	0.073358476
8	0x3cf7b1ac	0.030236088
9	0xbd80d05d	-0.06289742
10	0xbd10a51c	-0.03531371
11	0xbd14ca2d	-0.036325622
12	0xbd00f776	-0.031485997
13	0xbd2451d3	-0.040117096
14	0xbc97abda	-0.018514562
15	0x3ba48a6b	0.0050213835
16	0xbd75b067	-0.059982684
17	0xbd320074	-0.043457463
18	0xbd609d0b	-0.054837268
19	0x3d0804f1	0.033207837
20	0xbd6f2688	-0.058386356
21	0x3d9a78da	0.07542582
22	0xbd82fcfb	-0.063959084
23	0xbe28fe26	-0.165032
24	0x3c989a70	0.018628329
25	0xbc930c59	-0.017950224
26	0x3cc97f81	0.024596931
27	0x3d773d47	0.060361173
28	0xbd539511	-0.051655833
29	0xbd2c7f1c	-0.04211341
30	0x3da428c5	0.08015589
31	0x3ca801d1	0.020508679
32	0x3d310c3d	0.043224562
33	0xbb177280	-0.0023109019
34	0x3b662a90	0.0035120584
35	0x3cb8f620	0.022578299
36	0x3c1cd31b	0.009571816
37	0xbd710ff8	-0.05885312
38	0xbd4963dc	-0.0491675
39	0xbc1b9dc9	-0.009498068
40	0xbde0192c	-0.10942301
41	0xbcb15961	-0.021649064
42	0xbd2b863d	-0.041876066
43	0x3d1cb5b3	0.03825922
44	0x3d01b754	0.031668976
45	0xbc2e6ef6	-0.010646572
46	0xbd4eaa59	-0.050455425
47	0xbd9f224e	-0.07770215
48	0x3c6914b7	0.01422613
49	0xbd427b19	-0.047480676
50	0xbc9fe9f7	-0.019520743
51	0xbd1633e1	-0.03667057
52	0xbd792802	-0.06082917
53	0xbd3dc9a2	-0.04633487
54	0x3bc2e4d8	0.0059476905
55	0xbd88e496	-0.06684224
56	0xbd22978a	-0.0396953
57	0x3c97da6d	0.01853677
58	0xbd8798a9	-0.066209145
59	0xbd57c0ed	-0.052674223
60	0xbd48f602	-0.049062736
61	0xbb15dbbb	-0.0022866565
62	0xbc8b2f29	-0.016990261
63	0xbd66b1d6	-0.05632194
64	0x3c63a780	0.013894916
65	0x3d46ad8e	0.04850536
66	0xbcade658	-0.021228
67	0xbd9d40e5	-0.07678393
68	0xbd2dabee	-0.042400293
69	0x3cf2b84e	0.029628899
70	0xbd90c0d4	-0.07068029
71	0xbd31040e	-0.043216757
72	0x3cad9703	0.021190172
73	0x3daef71b	0.085432254
74	0xbc596e68	-0.013270952
75	0xbc940d64	-0.018072791
76	0x3d80164a	0.06254251
77	0xbd551cee	-0.052029543
78	0xbbbd5089	-0.005777423
79	0x3c886baf	0.01665291
80	0xbd4ff344	-0.050769106
81	0xbd653854	-0.05596192
82	0xbcf01cb5	-0.029310564
83	0x3d976913	0.07393088
84	0xbd27ecec	-0.04099743
85	0x3ba3108f	0.004976339
86	0xbd0272a2	-0.031847604
87	0xba465e57	-0.00075671583
88	0xbd72e99a	-0.05930481
89	0xbcfe84ce	-0.031069186
90	0x3d1b9d1c	0.037991628
91	0xbe0a1bbb	-0.13487141
92	0x3c993d58	0.018706009
93	0xbd8f55e3	-0.069988035
94	0x3d30bfd1	0.04315168
95	0xbd8ca1ad	-0.06866775
96	0x3d2176d9	0.039419983
97	0xbe2fd90d	-0.17172642
98	0xbd468f92	-0.048476763
99	0x3ba0029e	0.0048831245
100	0xbd8ef824	-0.06980923
101	0xbd88b8c5	-0.06675867
102	0x3c80dcc9	0.015730279
103	0xbd02735f	-0.031848308
104	0xbd61f124	-0.05516161
105	0xbc0153ba	-0.007893497
106	0x3dc03dc9	0.093867846
107	0xbd6022f3	-0.05472083
108	0xbd69c842	-0.057075746
109	0xbd786d35	-0.060651023
110	0xbd27eb6b	-0.040995996
111	0x3c61d2f6	0.013783207
112	0xb9877200	-0.00025834143
113	0x3d8b87b9	0.068129964
114	0x3cde85af	0.027163355
115	0xbbfbebc5	-0.007688018
116	0x3ac80e37	0.0015263025
117	0x3d169b8e	0.036769442
118	0x3bfec0f4	0.0077744666
119	0xbd68ee02	-0.056867607
120	0xbd1de588	-0.038548976
121	0xbab3d03c	-0.0013718675
122	0xbd883392	-0.06650461
123	0xbd34656c	-0.044042036
124	0x3c13b9b7	0.009016446
125	0x3c45f100	0.012081385
126	0x3b667b91	0.0035168866
127	0x3d7b5147	0.06135681
128	0xb9fb2ebb	-0.00047909268
129	0x3b760668	0.003754044
130	0xbce1b55d	-0.027552301
131	0x3c9d6c7e	0.019216772
132	0xbd44b1b8	-0.04802105
133	0xbd6a0bbe	-0.057140104
134	0x3cc83274	0.02443812
135	0xbd07584b	-0.033043187
136	0xbd42e8c9	-0.047585282
137	0xbcbe59a4	-0.023236103
138	0x3cc9636e	0.024583545
139	0x3d567851	0.052360836
140	0xbd56d62d	-0.052450348
141	0x3c952c7d	0.01820969
142	0xbca81edd	-0.02052253
143	0x3c7a29fd	0.0152688
144	0x3bd7c311	0.006584533
145	0x3bef5dc7	0.0073048803
146	0x3d51b3b4	0.05119677
147	0xbd483fcd	-0.04888897
148	0xbd4edf17	-0.050505724
149	0xbd22110a	-0.03956703
150	0xbd163c5c	-0.036678657
151	0xbd8b6aa7	-0.06807452
152	0xbd3365ae	-0.04379814
153	0xbc9a200d	-0.018814111
154	0x3b3ab974	0.0028491886
155	0x3d35cea7	0.044386532
156	0xbd979e3d	-0.074032284
157	0x3d528c06	0.051403068
158	0xbd904143	-0.07043698
159	0x3d8315af	0.0640062
160	0xbd8fd1c5	-0.07022432
161	0xbbc8f572	-0.006132775
162	0x3d23e66c	0.04001467
163	0x3d2db635	0.042410094
164	0xbd5c54b4	-0.053791717
165	0xbcf603c9	-0.030031102
166	0xbcca4d7d	-0.024695152
167	0x3b9f2f5c	0.0048579406
168	0xbcc65930	-0.02421245
169	0x3c5014ef	0.012700303
170	0x3d1c06b7	0.03809234
171	0xbd456f48	-0.04820183
172	0x3d9aacee	0.07552515
173	0xbe808947	-0.25104734
174	0xbe0b26d0	-0.13589025
175	0xbc97120c	-0.018441223
176	0x3e063b30	0.13108516
177	0xbd15e8f9	-0.036599133
178	0xbacb2b39	-0.0015500552
179	0x3cc99b62	0.024610225
180	0x3dc70382	0.09717466
181	0xbd89fbb7	-0.06737464
182	0xbcfba237	-0.030716999
183	0xbb2c4a80	-0.0026289523
184	0x3c47f49c	0.0122043155
185	0xbd865f7c	-0.06561181
186	0xbcd773dd	-0.026300365
187	0xbd20657a	-0.039159276
188	0xbc92921f	-0.017891942
189	0x3c45afd0	0.012065843
190	0xbb37247d	-0.0027945333
191	0xbd00135e	-0.03126847
192	0x3d0ff4a0	0.035145402
193	0xbc8dcaf8	-0.017308697
194	0xbcbb0a66	-0.022832107
195	0xbc88868a	-0.016665716
196	0xbd7cbe56	-0.061704956
197	0xbd0491cd	-0.03236561
198	0x3df141ca	0.117801264
199	0xbc40b7b0	-0.0117625445
200	0xbcc4d51b	-0.024027398
201	0xbd13cab6	-0.036081992
202	0x3d51efa3	0.051253926
203	0xbdd787e8	-0.10523969
204	0x3cb804aa	0.022463161
205	0x3c69631c	0.014244821
206	0x3b859c90	0.0040775016
207	0xbdde37e4	-0.10850504
208	0x3b452d40	0.0030086786
209	0xbbe75bd8	-0.007060509
210	0xbd8add6d	-0.06780515
211	0xbc27f13f	-0.010250389
212	0x3c845c24	0.016157217
213	0x3cbbde08	0.022933021
214	0x3c64868c	0.013948094
215	0xbb0c4ac7	-0.0021406875
216	0xbc677e26	-0.014129197
217	0xbcadd59f	-0.021220027
218	0xbccc35d0	-0.024928004
219	0xbb16f0b3	-0.0023031652
220	0xbe0b6273	-0.13611774
221	0xbd481c52	-0.048855133
222	0xbd7aa846	-0.061195634
223	0xbc4ff659	-0.012693011
224	0x3cc517e3	0.024059242
225	0xbc92f674	-0.017939784
226	0x3d17dbd0	0.037074864
227	0x3d7f422c	0.062318966
228	0x3d361ee3	0.04446305
229	0xbd58ba5b	-0.052912097
230	0xbccf4ab1	-0.02530417
231	0x3dd90261	0.10596157
232	0x3d8d3729	0.068952866
233	0xbd1eef39	-0.03880236
234	0xbcb6d170	-0.022316664
235	0x3d33d73f	0.043906447
236	0xbc87eedb	-0.016593387
237	0xbd3524ca	-0.044224538
238	0x3c037c17	0.008025191
239	0x3d2aee6a	0.041731276
240	0x3d64f35c	0.055896148
241	0xbd544cc3	-0.05183102
242	0x3b0657e6	0.002049917
243	0xbc597efa	-0.0132749025
244	0xbd06b31a	-0.03288565
245	0xbd2cd7d9	-0.042198036
246	0x3d317a7d	0.043329705
247	0x3bf2fb38	0.0074152015
248	0xbd8c20e1	-0.06842209
249	0xbd973026	-0.073822305
250	0xbd0d5ccf	-0.034512337
251	0x3b913d33	0.0044323443
252	0x3af3b038	0.0018591946
253	0x3dfcf66c	0.12351689
254	0x3d1e195f	0.038598415
255	0x3c276120	0.0102160275

cnn.0.bias f4 [64]
0	0x3d4b1796	0.04958304
1	0x3dbc8acc	0.09206161
2	0xbeb8dbaf	-0.36105105
3	0x3ea42134	0.32056582
4	0x3e6a23d1	0.22865225
5	0x3eb70c90	0.35751772
6	0x3d191052	0.03736908
7	0xbd412138	-0.04715082
8	0x3c9bb743	0.019008284
9	0x3d419319	0.047259424
10	0x3ea625e5	0.32450786
11	0xbd1b70a1	-0.03794921
12	0xbcb30997	-0.021855159
13	0xbced3303	-0.028954988
14	0x3d295670	0.0413422
15	0xbd9567d4	-0.07295194
16	0xbc55c9c9	-0.013048598
17	0x3d3e4fb4	0.04646273
18	0xbebf98f2	-0.37421376
19	0x3e29fd51	0.16600539
20	0x3eabfc8c	0.33591115
21	0x3f4ac1dc	0.79202056
22	0xbb2b2c9e	-0.0026119123
23	0x3d8b6e8a	0.06808193
24	0xbd82f833	-0.063949965
25	0xbb6c9cf0	-0.0036104284
26	0xbe5d30d8	-0.21600664
27	0x3d013cfb	0.031552296
28	0xbd820a40	-0.06349611
29	0x3f402689	0.750588
30	0x3d3847db	0.0449904
31	0x3db72f97	0.08944624
32	0x3d4417e6	0.047874354
33	0xbcce3cdb	-0.025175503
34	0xbcf6abbc	-0.030111186
35	0x3d16e656	0.03684076
36	0xbef48187	-0.47755072
37	0xbd001d5f	-0.03127801
38	0xbc496deb	-0.012294273
39	0xbe8cebe3	-0.27523717
40	0x3cfd783d	0.030941123
41	0x3ec92292	0.39284188
42	0xbd9d485c	-0.07679817
43	0xbde6911d	-0.11258147
44	0xbe0ad307	-0.13557063
45	0x3e776186	0.24158296
46	0xbd9c6d5b	-0.076380454
47	0xbeae1192	-0.3399778
48	0xbcf61052	-0.030037079
49	0xbda0061e	-0.07813667
50	0x3d586064	0.0528263
51	0xbe53be14	-0.20677978
52	0xbcfcfb9a	-0.030881692
53	0xbe2a1b40	-0.16611958
54	0xbd3e1c59	-0.046413753
55	0xbc8d6793	-0.017261302
56	0xbdbbc77d	-0.09168909
57	0xbdadb4f6	-0.08481781
58	0xbec00624	-0.37504685
59	0xbe37ec25	-0.17961176
60	0x3d8d18c8	0.06889492
61	0xbe8ee978	-0.27912498
62	0xbd44d0ac	-0.048050568
63	0xbcb00346	-0.021485936

cnn.2.weight f4 [64, 64, 3, 3]
0	0x3bb7c4c2	0.005608172
1	0xbd16c5f4	-0.036809877
2	0xbb138ce2	-0.0022514393
3	0x3ce229f5	0.027607897
4	0x3cc9b8c9	0.024624245
5	0x3c07ac7c	0.00828087
6	0xbd1f2785	-0.038856048
7	0xbc8d618d	-0.01725843
8	0x3cb114aa	0.021616299
9	0xbc151877	-0.009100071
10	0x3cd16e30	0.025565237
11	0x3cbeb428	0.023279265
12	0xbc930886	-0.0179484
13	0x3c60759d	0.013699916
14	0xbbeb9e26	-0.0071904836
15	0xbcbc98b9	-0.023022043
16	0xbc458127	-0.012054718
17	0xbd0dd50a	-0.034626998
18	0x3c8ddf27	0.017318321
19	0xbd46e188	-0.048554927
20	0x3cef4b03	0.029210573
21	0xbb66ed0a	-0.00352365
22	0x3cdcc8a8	0.02695115
23	0xbb84b15e	-0.004049464
24	0xbb757540	-0.003745392
25	0xba9b7e98	-0.0011863289
26	0xbd4a1860	-0.049339652
27	0xbb6aff40	-0.0035857707
28	0xbd1b4c2b	-0.037914436
29	0x3c140f9b	0.009036924
30	0x3d03db37	0.03219148
31	0xbca2327a	-0.01979946
32	0x3d029416	0.031879507
33	0xbc971d45	-0.018446574
34	0xbcb5b8cd	-0.022182846
35	0x3cad1120	0.02112633
36	0xbd134341	-0.03595281
37	0xbd0bc11e	-0.034119718
38	0xbced09a6	-0.028935265
39	0xbd3cdb27	-0.046107437
40	0x3d07bb4f	0.033137616
41	0xbd44c670	-0.048040807
42	0x3b403e2a	0.0029333928
43	0xbb6fc54a	-0.00365861
44	0xbd033ead	-0.032042194
45	0xbbefb682	-0.007315458
46	0xbb665a90	-0.0035149194
47	0x3cf82326	0.030290198
48	0xbcf7732e	-0.03020629
49	0x3d29b910	0.041436255
50	0x3d29dc6a	0.04146997
51	0xbc4f1efe	-0.012641666
52	0x3c2ae984	0.010431651
53	0xbb906186	-0.004406157
54	0x3ce42f79	0.027854668
55	0xba8977c8	-0.0010487968
56	0xbca3098f	-0.019902019
57	0xbca9addf	-0.020712791
58	0x3d2663b7	0.04062244
59	0xbcecae5b	-0.028891733
60	0xbbb91a7c	-0.005648909
61	0xbb9297eb	-0.0044736764
62	0x3bd989fa	0.0066387625
63	0x3d792e53	0.060835194
64	0xbd059e4e	-0.032621674
65	0x3afc7b3c	0.0019262801
66	0xbd02343b	-0.031788092
67	0x3c966f35	0.018363575
68	0x3d139fd5	0.0360411
69	0x3cfcd1a9	0.030861693
70	0x3cc560aa	0.024093945
71	0xbcef9726	-0.029246878
72	0x3cdfe070	0.0273287
73	0x3c88776b	0.016658505
74	0xbc99dfe2	-0.018783513
75	0x3ce323e3	0.027727073
76	0x3b7adfc4	0.0038280347
77	0x3a922199	0.0011148929
78	0x3c8a96f4	0.016917683
79	0xbcb26f16	-0.021781486
80	0x3ccbc5bd	0.024874562
81	0xbbdb1eef	-0.006687037
82	0x3c1585c0	0.009126127
83	0x3d51b75d	0.05120026
84	0x3d42b24d	0.047533322
85	0x3d37ea1d	0.044901002
86	0x3d2c05a6	0.041997574
87	0x3c271c38	0.010199599
88	0xbd5eefe5	-0.054428
89	0x3c9e4c9a	0.019323636
90	0xbc7e3203	-0.015514853
91	0x3d31beb7	0.04339477
92	0xbc9ebb99	-0.019376563
93	0xbcfd29a3	-0.030903643
94	0xbbc5bb6e	-0.0060343063
95	0x3caa6a6b	0.020802697
96	0x3cc7ae62	0.024375144
97	0x3c101129	0.008793154
98	0x3ca78108	0.02044727
99	0xbcdfed33	-0.027334785
100	0x3cc1ed9a	0.023672868
101	0xbd08629c	-0.033297166
102	0x3c007870	0.007841215
103	0xbcff593c	-0.03117048
104	0x3c8618b9	0.01636921
105	0xbba9135d	-0.005159779
106	0xbc9c787e	-0.019100424
107	0x3bd47b75	0.006484444
108	0xbc4e49ea	-0.012590865
109	0xbd0e96ac	-0.03481166
110	0xbc978ee3	-0.01850075
111	0x3aaa111b	0.0012975069
112	0x3c3f3a06	0.011671549
113	0x3d106ac1	0.03525806
114	0xbd48f272	-0.04905934
115	0xbd49cb2d	-0.04926603
116	0xbcd74170	-0.02627632
117	0x3cbf3010	0.023338348
118	0x3bdfdab2	0.0068314904
119	0xbce40e5d	-0.02783888
120	0xbccb743a	-0.024835695
121	0x3cf1a486	0.029497396
122	0x3c49d7cf	0.012319519
123	0x3d006ba7	0.031352665
124	0x3ce028ca	0.0273632
125	0xbcf334a5	-0.029688189
126	0xbcf5d84e	-0.030010369
127	0xbb3cb294	-0.0028792964
128	0x3d1e4bca	0.038646497
129	0xbc4e2f6f	-0.012584551
130	0xbb252868	-0.0025201086
131	0x3d299b78	0.041408032
132	0x3c49ab14	0.012308855
133	0x3aaa107a	0.0012974881
134	0x3d4baffb	0.049728375
135	0x3d342f13	0.043990206
136	0x3d0b813d	0.034058798
137	0x3ceaa55e	0.028643306
138	0xbd39c0d6	-0.04534992
139	0x3c60fce6	0.013732171
140	0x3d2432ec	0.040087625
141	0x3c41b7c7	0.011823601
142	0xbd05a0e0	-0.032624125
143	0x3d6ff62f	0.05858439
144	0x3cf1f690	0.029536515
145	0xbd004893	-0.031319212
146	0x3c1364b8	0.008996181
147	0xbc5ad1fe	-0.01335573
148	0x3c1cd1db	0.009571518
149	0x3c48c264	0.012253378
150	0xbca0dde9	-0.019637065
151	0x3cfa1301	0.03052664
152	0x390f1395	0.00013644838
153	0xbcd9b6d6	-0.02657644
154	0x3bc87722	0.0061177174
155	0x3d00b9be	0.031427138
156	0xbd4d6019	-0.050140474
157	0xbd0443fe	-0.032291405
158	0xbcda48da	-0.026646066
159	0x3c85d7db	0.01633828
160	0x3c75ad39	0.014994913
161	0xbd3e0df0	-0.04640001
162	0xbc6232df	-0.013806074
163	0x3c79208a	0.015205512
164	0x3bc621f1	0.0060465266
165	0xbcc9f1e2	-0.024651472
166	0xbc181eaf	-0.009284659
167	0x3c8aa943	0.016926413
168	0x3891a727	6.945273e-05
169	0xbce897e0	-0.028392732
170	0x3bd43176	0.0064756228
171	0x3c65b93b	0.014021213
172	0xbd14773c	-0.036246523
173	0xbd000030	-0.03125018
174	0x3cdae9f2	0.026722882
175	0x3d2baf05	0.04191496
176	0xbc91a5ff	-0.017779348
177	0xbd05dc44	-0.032680765
178	0xbd356657	-0.044287052
179	0x3ca90e10	0.020636588
180	0x3a430efc	0.00074408925
181	0x3bb449da	0.005501968
182	0x3d3ccc3d	0.046093214
183	0x3a88ef3e	0.0010447276
184	0xbc2b80d9	-0.010467731
185	0xbaf566c9	-0.0018722649
186	0x3c2e71d5	0.010647257
187	0x3d014a45	0.03156497
188	0x3d35ed91	0.044416014
189	0xbc8dd584	-0.017313726
190	0xbc69a002	-0.01425934
191	0x3d3b3366	0.045703314
192	0x3cac552b	0.021036705
193	0xbca6b4ef	-0.020349948
194	0x3cf9818f	0.030457286
195	0xbb960d74	-0.0045792405
196	0x3cb05be7	0.021528197
197	0x3d3cf9bb	0.0461366
198	0x3ca4f392	0.020135675
199	0x3aad45b7	0.0013219629
200	0x3cf41147	0.029793395
201	0xbce33230	-0.027733892
202	0xbd3cef49	-0.046126638
203	0x3ba4d902	0.005030752
204	0xbc4d846b	-0.012543778
205	0xbb89c9ff	-0.004204988
206	0xbcb50e09	-0.022101419
207	0xbcd58fe6	-0.026069593
208	0xbd401825	-0.046898026
209	0xbb8b155a	-0.0042444887
210	0x3d113866	0.035454176
211	0xbce9b9d9	-0.028531002
212	0x3b01507a	0.0019731806
213	0x3c94eb85	0.01817871
214	0x3d498163	0.04919566
215	0x3af9595f	0.0019023827
216	0xbcde0d39	-0.027105914
217	0xbc0bf128	-0.008541383
218	0xbc6f4f13	-0.014606255
219	0xbd689328	-0.056780964
220	0xbcf3eafd	-0.029775137
221	0x3c9a6d8d	0.018851066
222	0x399f6e7a	0.00030409155
223	0xbb865f77	-0.0041007358
224	0x3cac8260	0.021058261
225	0xbba878b3	-0.0051413416
226	0x3d0cc2ad	0.034365345
227	0xbc9b88ef	-0.018986193
228	0x3ceafa1d	0.028683716
229	0x3d4a4dab	0.049390476
230	0x3c6c3b61	0.014418454
231	0x3d0223a3	0.031772267
232	0xbcb058d8	-0.021526739
233	0x3c22a2ed	0.00992654
234	0xb8e77427	-0.000110365734
235	0xbc9f67a4	-0.0194586
236	0x3b31183b	0.00270225
237	0xbcef721c	-0.029229216
238	0xbd13fa99	-0.03612766
239	0xbd1df37d	-0.038562287
240	0x3c222a35	0.009897758
241	0xbd1c276b	-0.03812353
242	0xbbcc9132	-0.0062428946
243	0x3d3aefa6	0.045638703
244	0xbd55b274	-0.05217214
245	0xbb16a2b7	-0.002298517
246	0xbd39cb75	-0.045360047
247	0xb9daa473	-0.00041702724
248	0xbd5c682b	-0.05381028
249	0xbc5eecd2	-0.013606267
250	0xbca7c2d8	-0.02047865
251	0x3d2600a9	0.040527973
252	0x3d4ab11b	0.049485307
253	0xbba0f338	-0.0049118064
254	0xbce47863	-0.027889436
255	0x3b95abab	0.0045675836

cnn.2.bias f4 [64]
0	0x3ed01871	0.40643647
1	0xbe9e7701	-0.30950168
2	0x3ec49340	0.38393593
3	0xbe4323bf	-0.19056605
4	0xbe5dda17	-0.21665226
5	0x3f01e616	0.5074171
6	0x3e57625f	0.2103362
7	0xbebcf848	-0.36908174
8	0xbeeedcbb	-0.4665278
9	0xbe4850c5	-0.19562061
10	0x3e81c05a	0.25342065
11	0xbe99da77	-0.30049488
12	0x3e404f64	0.18780285
13	0x3eb0de3c	0.3454455
14	0xbcbf2eba	-0.02333771
15	0xbe99af44	-0.3001653
16	0x3daff453	0.08591523
17	0x3e13444b	0.1438152
18	0x3e708ea1	0.23491909
19	0x3eba03cc	0.36331022
20	0x3ecfab0c	0.40560186
21	0xbda6f785	-0.08152679
22	0xbec7d819	-0.39032057
23	0xbc2af9b8	-0.010435514
24	0xbd9c5cfc	-0.07634923
25	0x3e5466d4	0.20742351
26	0x3e764fba	0.24053851
27	0x3d8eec2a	0.069786385
28	0x3d545050	0.051834404
29	0x3de8c4d4	0.11365667
30	0xbeb8b2ef	-0.36074015
31	0xbe756325	-0.23963602
32	0x3e304ae2	0.17216066
33	0x3f0f9139	0.5608097
34	0x3e27cf83	0.16387753
35	0xbe59290d	-0.21207066
36	0xbdae1bb8	-0.08501381
37	0x3e93efab	0.2889379
38	0xbdbc9ec7	-0.09209972
39	0x3e8dcbff	0.276947
40	0x3f1f3d7c	0.6220319
41	0xbc80351e	-0.015650328
42	0x3e1928df	0.14956997
43	0xbe88f81d	-0.26751795
44	0xbc8cfd8c	-0.017210744
45	0x3d2e6a1a	0.042581655
46	0xbe922ad9	-0.28548315
47	0x3de037bb	0.1094813
48	0x3ed06592	0.40702492
49	0xbe4f75db	-0.20259802
50	0xbdecb7f3	-0.11558523
51	0xbe2bdb1b	-0.16782801
52	0xbe82da3a	-0.2555712
53	0xbe3d6e1a	-0.18499032
54	0x3e9cbf79	0.30614832
55	0xbec2ec22	-0.3807078
56	0xbe931dad	-0.28733578
57	0x3d67886d	0.05652659
58	0xbe78e289	-0.24305166
59	0xbe456912	-0.19278362
60	0x3ebb9c3d	0.36642638
61	0x3d08e5bd	0.03342222
62	0x3ccecfb3	0.025245523
63	0x3e6267bf	0.22109888

cnn.4.weight f4 [64, 64, 3, 3]
0	0xbcfe881a	-0.031070758
1	0xbd707bac	-0.058711693
2	0x3e0b0759	0.13577022
3	0xbe1a1135	-0.15045626
4	0x3dc48908	0.09596449
5	0xbcba90af	-0.022774069
6	0xbd494318	-0.04913625
7	0x3d88819e	0.066653475
8	0xbc4f2f62	-0.012645574
9	0xbe25a431	-0.16175915
10	0x3e302cea	0.17204633
11	0x3d11ff15	0.035643656
12	0xbd613d79	-0.054990266
13	0x3ea24f00	0.31700897
14	0xbc9dfaf8	-0.01928471
15	0xbe5fd4fd	-0.21858592
16	0xbeb60b20	-0.35555363
17	0x3d04e5fd	0.032445896
18	0xbda0f7b2	-0.07859744
19	0x3e8ed827	0.27899286
20	0xbd5837e5	-0.05278768
21	0xbd928a86	-0.071553275
22	0x3d65b427	0.05608001
23	0xbc423f7d	-0.011855957
24	0x3e072748	0.13198578
25	0xbe20bb1d	-0.15696378
26	0x3d25f968	0.040521055
27	0x3e1252c7	0.1428939
28	0xbd98edb9	-0.07467217
29	0x3e34351f	0.17598389
30	0x3e0bae82	0.13640788
31	0xbc82a2bd	-0.01594674
32	0xbe2491ef	-0.16071294
33	0xbdaf470a	-0.085584715
34	0x3e3526c8	0.17690575
35	0xbf009255	-0.50223285
36	0xbf0e3ad8	-0.5555854
37	0x3dbb5b02	0.09148218
38	0x3dfaf09e	0.12252925
39	0xbf1b4589	-0.6065298
40	0xbe7a74b3	-0.2445858
41	0x3ddc9711	0.10771001
42	0xbe44337c	-0.19160265
43	0xbd80a02f	-0.062805526
44	0x3d4b1ff4	0.04959102
45	0x3df400f9	0.11914248
46	0x3d6d9dc2	0.058011778
47	0xbd320edf	-0.043471213
48	0x3d8ef351	0.06980003
49	0xbc7eeda3	-0.015559587
50	0x3d7e9223	0.062151086
51	0x3e5f5225	0.2180868
52	0x3d361228	0.04445091
53	0x3da1faa7	0.07909136
54	0xbda3a86d	-0.07991109
55	0x3d9abee6	0.07555942
56	0x3cbbb7b3	0.022914743
57	0x3d78a1a0	0.060701013
58	0xbd09cc32	-0.033642
59	0x3d95e374	0.07318774
60	0xbcba1a69	-0.022717671
61	0xbd26f628	-0.040762097
62	0xbcae63bb	-0.02128779
63	0xbdcffacb	-0.10155257
64	0xbb3d1243	-0.0028849996
65	0xbe0ed0b6	-0.13946804
66	0x3ec35619	0.38151625
67	0x3dc75f2f	0.09734952
68	0x3decf02e	0.11569248
69	0xbb0dbff6	-0.002162931
70	0xbced59f9	-0.028973566
71	0xbe61bbc5	-0.22044285
72	0xbdb2e89f	-0.08735775
73	0xbd95f7d6	-0.073226616
74	0xbd4bf9c5	-0.049798746
75	0xbe1e7be1	-0.15476944
76	0xbdca72eb	-0.098852
77	0x3db600e6	0.0888689
78	0xbd8c47d1	-0.068496354
79	0xbef795a4	-0.48356354
80	0xbea77b84	-0.32711422
81	0x3cc31db5	0.023817876
82	0x3d30be0d	0.043149997
83	0x3d246652	0.040136643
84	0x3d870c5c	0.06594154
85	0x3d9972f1	0.074926265
86	0xbd538e5a	-0.05164943
87	0x3db6caaa	0.08925374
88	0xbc82e1e8	-0.015976861
89	0xbd202df9	-0.039106343
90	0x3c5696c8	0.0130974725
91	0xbe258420	-0.16163683
92	0x3e21c437	0.15797506
93	0xbe28f5af	-0.16499971
94	0xbe6fcf3a	-0.23418894
95	0x3ddfed45	0.109339274
96	0xbe1bf969	-0.15231861
97	0xbc0b6103	-0.008507016
98	0x3bed3828	0.0072393604
99	0xbe0185db	-0.12648718
100	0x3d8b1ac8	0.067922175
101	0xbdafd49a	-0.085854724
102	0xbe59efe3	-0.21282916
103	0xbd55f034	-0.05223103
104	0x3cd214f7	0.025644762
105	0xbe27aefb	-0.16375344
106	0xbe479ca2	-0.19493344
107	0x3c527a45	0.012846534
108	0x3d4d125f	0.05006635
109	0xbd6b0fe4	-0.0573882
110	0xbda4c030	-0.08044469
111	0x3cb2224f	0.021744875
112	0x3e5ab79b	0.21359102
113	0xbd1db82a	-0.03850571
114	0xbdf72d03	-0.12069132
115	0x3e4e4d28	0.2014662
116	0xbd6243fb	-0.055240612
117	0x3d882413	0.066475056
118	0x3cd46d42	0.025931004
119	0xbc5daa49	-0.013529369
120	0xbc843868	-0.016140178
121	0xbd93460d	-0.071910955
122	0x3e407c24	0.18797356
123	0xbe905110	-0.28186846
124	0x3e3d7d63	0.18504862
125	0xbd9ed143	-0.07754757
126	0x3dfee62e	0.12446247
127	0xbc4ecae6	-0.012621617
128	0x3e570de0	0.21001387
129	0xbc48dad3	-0.012259203
130	0xbdb2ff97	-0.08740156
131	0xbe6eba56	-0.23313269
132	0xbdb58372	-0.08862962
133	0xbd3616ad	-0.04445522
134	0xbd9ab6c7	-0.07554393
135	0xbd1cb672	-0.03825993
136	0x3cdff51a	0.027338553
137	0x3d7e47b3	0.062080096
138	0xbc9167e6	-0.017749738
139	0x3dd8f8f1	0.10594357
140	0x3b137e99	0.0022505878
141	0xbe9e4b56	-0.30916852
142	0xbd933204	-0.07187274
143	0x3ec0c37f	0.37649152
144	0xbe8ddbd3	-0.27706775
145	0xbe48717f	-0.19574545
146	0xbcde2505	-0.027117262
147	0xbd12d279	-0.035845254
148	0xbdcf5691	-0.10123933
149	0x3de77443	0.11301472
150	0x3d4ec4c8	0.050480634
151	0xbedb1e91	-0.42796758
152	0x3e1047a3	0.14089827
153	0xbd181326	-0.037127636
154	0xbe14cc99	-0.14531173
155	0xbe13df57	-0.14440666
156	0xbdc43243	-0.09579899
157	0xbdcce1a5	-0.10003976
158	0x3de8d0a9	0.11367924
159	0xbdbdcba4	-0.09267357
160	0x3e31ba32	0.17356184
161	0x3d90136f	0.07034957
162	0xbed5eb3f	-0.4178104
163	0x3e8801e4	0.26563942
164	0xbdd1a38c	-0.10236272
165	0xbe7bda5d	-0.24595018
166	0xbd72b326	-0.05925288
167	0x3d68c852	0.056831665
168	0xbdbd9396	-0.092566654
169	0xbd8fbb80	-0.07018185
170	0x3dcefae0	0.10106444
171	0xbdba8a4d	-0.0910841
172	0x3cdfb196	0.02730636
173	0xbd81b387	-0.0633307
174	0xbddf635b	-0.109076224
175	0x3e271e90	0.16320252
176	0x3d56a456	0.052402817
177	0x3dfb75ab	0.12278303
178	0x3cebf3c9	0.02880277
179	0xbc49e8b9	-0.012323552
180	0x3d2ec8d7	0.042672005
181	0xbd54db4d	-0.051966954
182	0xbe1f98c4	-0.15585619
183	0xbd56e048	-0.052459985
184	0xbd996fa3	-0.07491996
185	0xbe82830c	-0.25490606
186	0x3da4ab26	0.080404565
187	0xbcad9613	-0.021189725
188	0x3e1cd273	0.15314655
189	0x3dbdd5af	0.092692725
190	0xbe08115f	-0.13287877
191	0xbd004277	-0.031313386
192	0x3d56e123	0.0524608
193	0xbe98bcea	-0.2983163
194	0x3e87a62f	0.26493976
195	0xbe810a5e	-0.25203222
196	0xbe864e02	-0.2623139
197	0xbe0b7612	-0.13619259
198	0xbd96421a	-0.073368266
199	0x3d75ce64	0.060011283
200	0x3ca6def2	0.02036998
201	0xbd02974b	-0.031882565
202	0x3c2bf0d0	0.010494426
203	0x3e6d7376	0.23188576
204	0xbeb3130f	-0.34975478
205	0x3d96edfa	0.07369609
206	0x3de5ea88	0.11226374
207	0x3b8f6a55	0.0043766894
208	0xbe469eda	-0.19396535
209	0x3d9c0d6b	0.07619747
210	0xbe836648	-0.25663972
211	0xbe4446a3	-0.19167571
212	0xbc3173dc	-0.010830846
213	0xb9c59485	-0.00037685424
214	0xbe33a094	-0.17541724
215	0x3dd07e59	0.10180349
216	0xbca0206e	-0.019546714
217	0x3d91226a	0.07086642
218	0xbcd5c32f	-0.026094047
219	0xbe3ca425	-0.18421991
220	0xbd486127	-0.048920777
221	0x3d249f3b	0.040190917
222	0xbe2fe6a8	-0.17177832
223	0xbe19156f	-0.14949583
224	0x3da1a39d	0.07892535
225	0xbe0462d1	-0.1292832
226	0xbf09f815	-0.5389417
227	0xbde88f74	-0.113554865
228	0xbe769121	-0.240788
229	0xbd95b6e5	-0.07310275
230	0xbe6620a1	-0.22473384
231	0xbd7bfb4e	-0.06151896
232	0xbdb0d2d2	-0.08633961
233	0xbf30c32b	-0.690478
234	0xbd3944e6	-0.045231722
235	0x3e399581	0.18123437
236	0xbddbe0f5	-0.107362665
237	0x3e3b94b9	0.18318452
238	0xbd9dc3fe	-0.07703398
239	0xbdafe637	-0.08588832
240	0xbdb9dbd2	-0.090751305
241	0xbe841609	-0.2579806
242	0x3cfed4ef	0.031107394
243	0x3e0d7874	0.1381548
244	0xbc577768	-0.013151027
245	0x3bae6434	0.0053220037
246	0x3e057d0f	0.13035987
247	0x3eabfe5f	0.33592507
248	0x3ddb18b5	0.10698072
249	0x3ebe8b57	0.37215683
250	0xbe1e1dc3	-0.1544104
251	0x3da63c43	0.08116963
252	0xbd3b9db5	-0.045804698
253	0x3dcec967	0.10097008
254	0xbd2b59f5	-0.041833837
255	0x3e1ac27b	0.15113251

cnn.4.bias f4 [64]
0	0xbe0834c0	-0.13301373
1	0xbc90cde7	-0.017676307
2	0x3d3ba22b	0.045808952
3	0xbf03306c	-0.5124576
4	0xbdfc2f4c	-0.12313709
5	0xbe951645	-0.29118553
6	0x3f0d5425	0.5520652
7	0x3e180624	0.14846092
8	0xbda29b53	-0.07939782
9	0x3ede7c07	0.43454
10	0xbec2306f	-0.37927577
11	0xbeebadca	-0.46031028
12	0xbef70e53	-0.48253116
13	0x3ef50db5	0.4786202
14	0xbf203fe5	-0.62597495
15	0xbe924801	-0.2857056
16	0xbe01d090	-0.12677217
17	0xbd983776	-0.07432453
18	0x3e43de16	0.19127688
19	0xbe31a697	-0.17348705
20	0xbecdbbe5	-0.40182415
21	0xbd4091e3	-0.04701413
22	0xbe540a4d	-0.20707054
23	0xbda34abd	-0.079732396
24	0x3e066c92	0.13127354
25	0xbd8fa07b	-0.07013031
26	0xbf226ecf	-0.6345033
27	0x3da4faef	0.08055674
28	0xbddea323	-0.108709596
29	0x3dcbb5a4	0.099467546
30	0x3d78a14e	0.060700707
31	0xbc474998	-0.012163542
32	0x3d8c4aed	0.068502285
33	0x3e9118ca	0.28339225
34	0xbf288c04	-0.65838647
35	0xbe6e39c3	-0.23264222
36	0x3e9f7f41	0.31151775
37	0x3f070b42	0.52751553
38	0x3dd74166	0.10510521
39	0x3b98d516	0.0046640737
40	0xbe989132	-0.29798275
41	0x3e03917f	0.12848471
42	0xbce7755e	-0.028254207
43	0x3e521659	0.20516337
44	0xbe0ba4a4	-0.13637024
45	0xbdecabc1	-0.11556197
46	0xbcce7f44	-0.02520717
47	0x3e331e73	0.17492084
48	0x3e6cbdea	0.23119321
49	0x3df99a57	0.12187641
50	0x3d871acf	0.0659691
51	0xbe47015e	-0.19434115
52	0xbe6929dc	-0.22769874
53	0x3e12924d	0.14313622
54	0xbf112ea7	-0.5671181
55	0x3f0732ce	0.52811897
56	0x3e181a83	0.14853863
57	0xbc46b12d	-0.012127203
58	0xbd61cfe8	-0.055129915
59	0xbcecf5d2	-0.02892581
60	0xbd08fe87	-0.03344586
61	0x3d86f4c8	0.06589657
62	0xbea8456e	-0.3286547
63	0x3e6e0777	0.23245035

cnn.6.weight f4 [64, 32, 4, 4]
0	0xbdaae16b	-0.08343776
1	0xbd9615c8	-0.07328373
2	0xbc3fa1e9	-0.011696317
3	0x3d377a0b	0.044794124
4	0xbdd33f7c	-0.10314843
5	0xbd6860dc	-0.056732997
6	0xbe03b33a	-0.12861338
7	0xbd11647c	-0.03549622
8	0x3d4783b8	0.0487096
9	0x3c947b69	0.018125253
10	0xbca8f4b7	-0.020624502
11	0xbd80bc0f	-0.06285869
12	0x3d44a0e5	0.048005003
13	0xbdc7b61f	-0.09751534
14	0xbd33b905	-0.04387762
15	0xbd780ddb	-0.06056009
16	0xbb931321	-0.0044883643
17	0x3e689f69	0.2271706
18	0xbd10a05e	-0.035309188
19	0x3dca04c8	0.09864193
20	0xbde38801	-0.11109925
21	0xbbdaa3e4	-0.0066723693
22	0xbd22de3d	-0.039762724
23	0xbd245b8e	-0.040126376
24	0xbca60906	-0.020267975
25	0x3b31abe0	0.0027110502
26	0xbe5e0d3f	-0.2168474
27	0xbcc6aa8c	-0.024251245
28	0x3b950309	0.004547481
29	0xbc986edd	-0.018607551
30	0xbd8a2a92	-0.06746401
31	0xbd441a8b	-0.047876876
32	0x3d875735	0.0660843
33	0x3cd5475d	0.026035005
34	0x3c34acae	0.011027498
35	0xbdcb0cdd	-0.09914563
36	0x3e2096e8	0.15682566
37	0x3e02cf54	0.12774402
38	0x3d305f8b	0.043059867
39	0x3a9a3a0b	0.0011766566
40	0x3dd7acd5	0.10531012
41	0x3d826d5b	0.06368514
42	0x3cc73888	0.024318948
43	0x3bbcce06	0.0057618646
44	0x3dfa63ab	0.122260414
45	0x3d27c93e	0.040963404
46	0x3dc941b3	0.09826984
47	0x3d83e256	0.064396545
48	0x3cc78c12	0.024358783
49	0xbe2bb435	-0.16767962
50	0x3d32c960	0.043649077
51	0xbddf9ef0	-0.10918987
52	0x3cf1f44a	0.029535431
53	0x3d7631f4	0.060106233
54	0xbe01ac7a	-0.12663451
55	0x3de2ada3	0.11068275
56	0x3d4eddaa	0.050504364
57	0xbce631eb	-0.028099975
58	0xbdbf5a1f	-0.09343361
59	0x3d7525e0	0.059850574
60	0x3cab8a81	0.020940067
61	0x3dbf999e	0.09355472
62	0x3c7ae5f9	0.015313619
63	0x3cb4e876	0.022083502
64	0xbd877a70	-0.0661515
65	0x3d45d04a	0.048294343
66	0x3d5208e2	0.051278003
67	0xbc6c2e64	-0.014415357
68	0x3d2cf05c	0.042221412
69	0x3dd91219	0.10599155
70	0x3b8d5592	0.0043131793
71	0x3bbfaa1b	0.0058491356
72	0x3d42900c	0.047500655
73	0x3dbfc420	0.0936358
74	0x3d3aa72b	0.04556958
75	0x3d808f58	0.06277341
76	0x3d8f52c4	0.06998208
77	0xb8ea4eaf	-0.000111726455
78	0x3c94efd2	0.018180761
79	0x3c556578	0.01302468
80	0xbd048495	-0.032353003
81	0x3b960cff	0.004579186
82	0xbe08b905	-0.1335183
83	0xbd01de5f	-0.03170621
84	0xbc9ef9d8	-0.019406244
85	0xbc48f001	-0.012264253
86	0xbbd3a2f4	-0.0064586345
87	0x3d685b1e	0.05672752
88	0xbbf4cfc9	-0.007471059
89	0xbc048c0c	-0.00809003
90	0xbdb97694	-0.0905582
91	0xbbaf1e0a	-0.005344157
92	0x3dbb8d71	0.09157837
93	0x3e1571b8	0.14594162
94	0x3de3a5ee	0.11115633
95	0x3e0fd4d3	0.1404603
96	0xbd228290	-0.039675295
97	0xbd7464fa	-0.05966661
98	0x3ca715af	0.020396082
99	0x3c8b1828	0.016979292
100	0x3d0de8f8	0.034646004
101	0xbda13014	-0.07870498
102	0xbd7abee4	-0.061217204
103	0xbd2ab318	-0.041674703
104	0xbdaf9b3b	-0.0857453
105	0xbd023019	-0.03178415
106	0xbcdd60eb	-0.027023753
107	0xbd95422b	-0.07288011
108	0x3de30c95	0.11086384
109	0x3bb13644	0.0054080803
110	0x3e066c13	0.13127165
111	0x3c37cf6f	0.01121889
112	0xbbcc2e02	-0.0062310705
113	0xbe24ee6f	-0.1610658
114	0x3d56c854	0.05243714
115	0xbd1605e8	-0.036626726
116	0xbb22e825	-0.0024857607
117	0xbd15ad80	-0.036542416
118	0xbc9c097d	-0.019047493
119	0x3c8776e1	0.016536178
120	0xbcca0424	-0.024660178
121	0x3c8cb12c	0.017174326
122	0x3d501be9	0.050807867
123	0xbeb9f0ff	-0.36316678
124	0xbb5fce81	-0.0034150186
125	0xbb4a259a	-0.0030845166
126	0xbc22218e	-0.009895695
127	0xbcc71afc	-0.02430486
128	0x3c58fdc6	0.013244098
129	0x3b21caa1	0.0024687427
130	0x3d0d637a	0.034518696
131	0xbd948a8d	-0.07252989
132	0x3dbdcf8b	0.09268101
133	0xbd5e9345	-0.054339666
134	0xbdc8e37a	-0.09809013
135	0xbd883552	-0.06650795
136	0xb8d08b78	-9.944191e-05
137	0xbe07decc	-0.13268584
138	0xbdd80ab6	-0.10548918
139	0xbda3aec8	-0.07992321
140	0xb77d3135	-1.5091432e-05
141	0xbb004817	-0.001957422
142	0xbcd1fb28	-0.025632456
143	0x3dda9b9b	0.10674211
144	0xbdb74c42	-0.08950092
145	0xbbfde97c	-0.007748781
146	0xbc9085b7	-0.017641885
147	0x3ce3e38d	0.027818466
148	0x3cefb25c	0.029259853
149	0xbd8b3446	-0.0679708
150	0x3cff1c5d	0.031141454
151	0xbe07cdd3	-0.1326211
152	0x3cc6b9b9	0.024258481
153	0xbcc16d23	-0.02361161
154	0xbe1cffaa	-0.15331903
155	0xbb03de55	-0.0020121534
156	0x3cb57202	0.02214909
157	0xbd1846a8	-0.037176758
158	0xbd116314	-0.03549488
159	0xbd9ec749	-0.077528544
160	0x3c1de65a	0.00963744
161	0xbc20e821	-0.009820969
162	0xbc13a31c	-0.009011056
163	0xbcac6388	-0.021043554
164	0x3c2c5955	0.010519345
165	0xbd902af0	-0.0703944
166	0x3c220721	0.009889395
167	0xbdcc83d9	-0.099860854
168	0x3d7e5dd9	0.06210122
169	0x3d954c8f	0.07289993
170	0x3d362709	0.04447082
171	0x3d358157	0.0443128
172	0x3d43ed67	0.047833826
173	0x3d1679ae	0.036737137
174	0x3d8c6f59	0.068571754
175	0xbc3aeacc	-0.011408519
176	0x3d5bd1d1	0.053666893
177	0x3d6efc9c	0.058346376
178	0x3cdcd45c	0.02695673
179	0x3ca0b459	0.019617246
180	0xbd20b52d	-0.039235283
181	0x3c330662	0.010926815
182	0xbd2c4d83	-0.04206611
183	0xbd2b5c76	-0.041836224
184	0x3d9e4996	0.07728879
185	0x3d3761e0	0.044771075
186	0x3c9a556c	0.01883956
187	0x3c407e72	0.011748897
188	0xbcb4770e	-0.022029426
189	0xbcd486bc	-0.025943153
190	0xbbe859c8	-0.007090781
191	0x3c0a601a	0.008445764
192	0x3d258fff	0.04042053
193	0x3d962ac2	0.07332374
194	0x3e2d3bc7	0.16917334
195	0x3e0575bb	0.13033192
196	0x3d774424	0.06036772
197	0x3d38acf6	0.045086823
198	0x3d4e8f74	0.050429776
199	0x3e0048f3	0.12527828
200	0x3e14b411	0.14521815
201	0x3db1fce3	0.086908124
202	0x3e200c20	0.15629625
203	0x3df5d1ab	0.120028816
204	0x3d5854b5	0.052815158
205	0x3d9af802	0.07566835
206	0x3d9f6624	0.07783154
207	0x3e307105	0.17230614
208	0xbdae9183	-0.08523848
209	0xbd524eab	-0.051344555
210	0xbd80ee4c	-0.062954515
211	0x3dbbd014	0.09170547
212	0xbd41a5df	-0.047277328
213	0xbd84e488	-0.064889014
214	0x3ccd9286	0.025094282
215	0xbb06a9be	-0.0020547952
216	0x3bebe179	0.0071985093
217	0xbe11d4ef	-0.14241384
218	0xbd1a727c	-0.037706837
219	0xbd99d25e	-0.075108275
220	0xba17fa16	-0.00057974586
221	0xbd8b9071	-0.068146594
222	0xbd219858	-0.039451927
223	0xbbac2a57	-0.0052540707
224	0xbc2376e9	-0.009977081
225	0xbc0a6a7f	-0.008448242
226	0x3d762976	0.060098134
227	0xbc279629	-0.010228672
228	0xbccf9bc7	-0.025342835
229	0xbc7cc326	-0.015427386
230	0x3ce2f320	0.027703822
231	0xbd64d2ac	-0.055864975
232	0x3d49074d	0.04907923
233	0x3c3825d1	0.011239485
234	0x3d16baac	0.036799118
235	0x3b943453	0.004522839
236	0x3ce71d02	0.028212074
237	0xbded17ef	-0.115768306
238	0x3d262f82	0.04057265
239	0xbc414a71	-0.011797533
240	0xbcf2de33	-0.029646968
241	0x3c83a62f	0.016070453
242	0x3cb212f9	0.021737562
243	0x3c7aca9c	0.015307095
244	0x3bece4e7	0.0072294357
245	0x3dda7cfd	0.10668371
246	0x3cb5cc63	0.022192186
247	0xbc2ea4c9	-0.010659405
248	0xbbdb9929	-0.0067016077
249	0x3d4de4c4	0.050266996
250	0x3d3ce317	0.046115007
251	0x3d0d8260	0.034548163
252	0xbd43cd86	-0.047803424
253	0x3d9bf642	0.07615329
254	0xb98fdeec	-0.00027441175
255	0x3da2c392	0.07947458

cnn.6.bias f4 [32]
0	0x3bebf6be	0.007201045
1	0x3d52574c	0.051352784
2	0xbeef783f	-0.46771428
3	0x3e990753	0.298884
4	0xbbaa364d	-0.0051944614
5	0xbce071d4	-0.027398027
6	0x3e06a5e0	0.13149214
7	0x3d070f85	0.032973785
8	0x3cccd860	0.02500552
9	0xbe1df8e4	-0.15426975
10	0xbc8c232a	-0.017106611
11	0xbed053a7	-0.40688822
12	0x3e693bf8	0.22776783
13	0x3e89ddaa	0.2692693
14	0x3d927232	0.07150687
15	0x3dbdf207	0.09274679
16	0xbe7d6a03	-0.24747472
17	0xbd0836a6	-0.03325524
18	0xbe713291	-0.23554446
19	0xb95dfaab	-0.00021169583
20	0x3e16ab23	0.14713721
21	0x3e907492	0.28213936
22	0x3dd58e6d	0.10427556
23	0x3dbc5ab8	0.09196991
24	0x3c8ec1ab	0.017426332
25	0xbaacbc14	-0.001317861
26	0xbd80b1f4	-0.06283942
27	0x3e448a77	0.19193445
28	0xbec62226	-0.38697928
29	0x3f0b722d	0.54471093
30	0x3d9ab4fe	0.07554053
31	0xbd72a598	-0.059239954

cnn.8.weight f4 [32, 3, 8, 8]
0	0xbd1c06c3	-0.038092386
1	0xbd694ace	-0.056956105
2	0xbd6ef580	-0.058339596
3	0xbce0e788	-0.027454153
4	0xbdaa2290	-0.083073735
5	0xbd644bf3	-0.055736493
6	0xbd4d3e10	-0.050108016
7	0xbd72cb59	-0.05927596
8	0xbd478204	-0.048707977
9	0xbcef97f4	-0.029247262
10	0x3cf4cb6d	0.029882157
11	0x3dce2c23	0.10067012
12	0x3d18d2f7	0.037310567
13	0x3c5cb918	0.013471864
14	0xbd15b839	-0.03655264
15	0xbd9b2de9	-0.07577116
16	0xbce98ac0	-0.028508544
17	0x3e00a131	0.1256149
18	0x3eb8cc7d	0.36093512
19	0x3f10b3b6	0.5652422
20	0x3f009fbd	0.5024374
21	0x3e9678e9	0.29389122
22	0x3d9776f4	0.073957354
23	0xbd933a31	-0.071888335
24	0x3d3839a3	0.04497684
25	0x3ebab0d0	0.36463022
26	0x3f658102	0.89649975
27	0x3fbd5dbb	1.4794229
28	0x3facbf4c	1.3495879
29	0x3f3ed207	0.74539226
30	0x3e839728	0.2570126
31	0xbcc76394	-0.024339475
32	0x3dc4a5c3	0.09601929
33	0x3ee4f87f	0.44720837
34	0x3f896c5a	1.0736191
35	0x3ff94006	1.9472663
36	0x3ff57c23	1.9178509
37	0x3f6be118	0.9214034
38	0x3e95bea7	0.2924702
39	0xbc4acd38	-0.0123780295
40	0xbda6c3ee	-0.08142839
41	0x3dd13eae	0.10217033
42	0x3eee1f46	0.46508235
43	0x3f6018ea	0.87538016
44	0x3f703459	0.93829876
45	0x3ee3e384	0.44509518
46	0x3d32dcf2	0.04366774
47	0xbdee7a2f	-0.116443984
48	0xbe3ccff7	-0.18438707
49	0xbe071678	-0.13192165
50	0x3d040b53	0.032237362
51	0x3e590553	0.21193437
52	0x3e7845a4	0.24245316
53	0x3d0bb781	0.03411055
54	0xbe0ab336	-0.13544926
55	0xbe32bddd	-0.1745524
56	0xbe356632	-0.17714766
57	0xbe453c52	-0.19261292
58	0xbe027b62	-0.1274238
59	0xbd89377c	-0.06700036
60	0xbd936b18	-0.07198161
61	0xbe13897e	-0.14407918
62	0xbe4c62c7	-0.19959556
63	0xbe35cfa9	-0.17754997
64	0xbd89eada	-0.067342475
65	0xbdafa7d6	-0.08576934
66	0xbda94510	-0.08265126
67	0xbd4a8bb1	-0.049449626
68	0xbe01c5fe	-0.12673184
69	0xbdcae9e2	-0.09907891
70	0xbdc69af5	-0.096975245
71	0xbdd392c1	-0.103307255
72	0xbd99879f	-0.07496571
73	0xbd603131	-0.054734413
74	0x3c1ecf17	0.009692929
75	0x3db1c3d3	0.08679929
76	0x3b041682	0.0020155017
77	0xbcba7530	-0.022760957
78	0xbd9ac7b7	-0.07557624
79	0xbdeb82d6	-0.11499564
80	0xbd511c53	-0.051052403
81	0x3dccaf00	0.09994316
82	0x3eabd322	0.3355952
83	0x3f0bbe72	0.5458747
84	0x3eecd9bb	0.46259865
85	0x3e83ef2c	0.2576841
86	0x3d33c4a5	0.043888707
87	0xbdca01d6	-0.098636314
88	0x3cf199ff	0.029492376
89	0x3eaf9b06	0.3429796
90	0x3f5d0928	0.86342096
91	0x3fb86b95	1.4407831
92	0x3fa69881	1.301529
93	0x3f3713a3	0.7151434
94	0x3e798c5f	0.24369954
95	0xbd1533e9	-0.03642646
96	0x3d419464	0.047260657
97	0x3ec785ff	0.38969418
98	0x3f7e8dad	0.9943493
99	0x3fe9b86c	1.8259406
100	0x3fe8b599	1.8180419
101	0x3f5f27b7	0.87169975
102	0x3e8558cd	0.26044312
103	0xbd29a48c	-0.04141669
104	0xbddb280d	-0.107009985
105	0x3d8d7a94	0.069081455
106	0x3ed76e9e	0.42076582
107	0x3f52ba80	0.82315826
108	0x3f62d05c	0.8859918
109	0x3ed31524	0.41227067
110	0x3cb525a7	0.02211268
111	0xbe0c98dd	-0.13730188
112	0xbe457b77	-0.1928538
113	0xbe13ac6f	-0.14421247
114	0x3c92eb4b	0.017934462
115	0x3e4ea928	0.20181715
116	0x3e5d1836	0.21591267
117	0x3c1b8fe7	0.009494758
118	0xbe20f465	-0.15718229
119	0xbe45040a	-0.19239822
120	0xbe3a44b7	-0.18190275
121	0xbe49b0b1	-0.19696309
122	0xbe0a6abe	-0.13517281
123	0xbd92474f	-0.07142507
124	0xbdbe2b39	-0.09285588
125	0xbe2acd69	-0.1667992
126	0xbe5f4a4c	-0.21805686
127	0xbe47603e	-0.19470307
128	0xbd72f58a	-0.059316196
129	0xbd989cbe	-0.07451771
130	0xbd91f559	-0.071268745
131	0xbd4f7ea3	-0.05065788
132	0xbdedc256	-0.11609332
133	0xbdc6e43d	-0.09711502
134	0xbdc8ef8d	-0.09811316
135	0xbdc37472	-0.095436946
136	0xbd86e308	-0.065862715
137	0xbd3f4a34	-0.046701625
138	0x3c86e264	0.016465373
139	0x3da53e55	0.080685295
140	0x3c77d740	0.015127003
141	0xbc5c6f29	-0.013454237
142	0xbd879892	-0.06620897
143	0xbdc43915	-0.095812
144	0xbcf5cd37	-0.03000508
145	0x3df632fa	0.12021442
146	0x3eb5533d	0.35415068
147	0x3f0dcc43	0.55389804
148	0x3efa21e9	0.48853996
149	0x3e91f67d	0.28508368
150	0x3d97ac2e	0.074058875
151	0xbd7019a9	-0.05861822
152	0x3d8cf612	0.06882872
153	0x3ebfb384	0.37441647
154	0x3f620ae9	0.882979
155	0x3fb6c501	1.4278871
156	0x3fa6c000	1.3027344
157	0x3f3e459a	0.74324954
158	0x3e9456a2	0.28972346
159	0x3c613391	0.013745205
160	0x3da3bd3a	0.079950765
161	0x3ed06714	0.40703642
162	0x3f7c3efa	0.98533595
163	0x3fdaa089	1.7080241
164	0x3fd9531b	1.6978487
165	0x3f55796c	0.833884
166	0x3e7ac757	0.24490105
167	0xbd427b9b	-0.04748116
168	0xbd86dae1	-0.065847166
169	0x3de270fc	0.11056706
170	0x3ee807af	0.45318362
171	0x3f4fdd90	0.8119745
172	0x3f5ca00a	0.861817
173	0x3ecf9bb6	0.40548486
174	0x3cf55097	0.029945655
175	0xbdfa48c3	-0.122209094
176	0xbe2b14ca	-0.16707149
177	0xbdf4a221	-0.11944986
178	0x3ce59c2f	0.028028576
179	0x3e37f984	0.17966276
180	0x3e59cd99	0.21269836
181	0x3b089f0d	0.0020846755
182	0xbe1c162b	-0.15242831
183	0xbe36d2e5	-0.17853887
184	0xbe29c10b	-0.16577546
185	0xbe34bbc8	-0.17649758
186	0xbe01d4ae	-0.12678787
187	0xbda90f8c	-0.082549185
188	0xbd820a82	-0.063496605
189	0xbe1a70a7	-0.15082036
190	0xbe4aac06	-0.19792184
191	0xbe2e97ad	-0.17050047
192	0xbc62e5d1	-0.013848738
193	0xbd3f49fc	-0.046701416
194	0xbce16b48	-0.027516976
195	0x3d98df57	0.07464474
196	0x3eb63335	0.35585943
197	0x3f0924d7	0.5357184
198	0x3f16357d	0.58675367
199	0x3ee1d2f5	0.4410626
200	0xbc4497c4	-0.011999074
201	0xbd2f5952	-0.042809792
202	0xbcbe6ef7	-0.023246272
203	0x3dfcc8f7	0.123430185
204	0x3f0d7349	0.55254036
205	0x3f73d3d0	0.95245075
206	0x3f8448e6	1.0334747
207	0x3f2e8407	0.6817021
208	0x3a8e20fe	0.0010843573
209	0xbd027558	-0.03185019
210	0xbcda0a0c	-0.026616119
211	0x3df53f79	0.11974997
212	0x3f09e9a3	0.53872126
213	0x3f8194f2	1.012358
214	0x3f8abb91	1.0838491
215	0x3f2c4aad	0.67301446
216	0xbb45570b	-0.0030111696
217	0xbd3c6a3b	-0.045999747
218	0xbd8eaf60	-0.06967044
219	0x3d17bc93	0.037045073
220	0x3ea194bf	0.31558797
221	0x3f15f987	0.58583874
222	0x3f209440	0.6272621
223	0x3ee369be	0.44416612
224	0xbb5a507c	-0.0033312133
225	0xbd3bcf71	-0.04585213
226	0xbda2a9c8	-0.079425395
227	0xbd0ebe65	-0.034849543
228	0xbc19fd89	-0.009398826
229	0x3d86ea3c	0.065876454
230	0x3de741fd	0.11291883
231	0x3dd7bc73	0.10533991
232	0xbbf6bc46	-0.007529768
233	0xbd249a2f	-0.040186103
234	0xbd928252	-0.07153763
235	0xbd5f7f16	-0.054564558
236	0xbdce2852	-0.10066284
237	0xbd97867a	-0.07398696
238	0xbd2c5dfa	-0.04208181
239	0x3bda9ce6	0.006671536
240	0x3b4745f2	0.003040668
241	0xbc866113	-0.01640371
242	0xbd07415f	-0.033021327
243	0xbc8144b8	-0.015779838
244	0xbd03620d	-0.03207593
245	0xbc9c6755	-0.019092241
246	0xb9bb320a	-0.000357047
247	0x3d23148a	0.03981451
248	0x3c82d943	0.01597274
249	0x3bf10992	0.007355877
250	0x3aa0cf29	0.001226877
251	0x3cbffb9c	0.023435406
252	0x3cbb66d5	0.022876183
253	0x3d136605	0.035985965
254	0x3d5b0682	0.053473003
255	0x3da8ba00	0.08238602

cnn.8.bias f4 [3]
0	0x3f123cb7	0.57123893
1	0x3f2a2e03	0.6647646
2	0x3f591187	0.8479237
