models/AlinaCNN/decoder_weigths.pth (torch, 519943 bytes, 10 tensors)

cnn.0.weight f4 [64, 64, 2, 2]
000000 2f 1a e6 3a ae ac 10 3c 7d 99 29 bd d9 aa f9 bc
       0.0017555411 0.008830233 -0.041406143 -0.030476974
000010 79 04 52 3e 21 df 21 be 48 c7 04 be 37 a0 31 3e
       0.20509519 -0.15807773 -0.12966645 0.17346273
000020 18 1d a6 bb f0 a1 cd 3d 1b 5e 59 bd 01 72 47 bd
       -0.005069386 0.10040653 -0.05306826 -0.048692707
000030 d5 5c 69 3d a2 02 4d bd 9c 9a 2b 3b 7f 46 4f bd
       0.056973297 -0.05005134 0.0026184684 -0.05060434
000040 94 04 13 3d 01 0a 42 be 38 bd d8 bc 78 2e 99 bd
       0.035893038 -0.18949129 -0.026457414 -0.07479566
000050 17 00 ba 3d 36 34 7f 3c ed 0e 72 3c 12 e1 59 3e
       0.090820484 0.015576413 0.014774066 0.21277264
000060 14 c3 3f 3c 55 15 0d be 9d eb a4 3c 90 d5 82 bd
       0.011704225 -0.13777669 0.02013188 -0.0638839
000070 d2 22 98 3d 4c 13 eb 3c f6 3c 80 3d 10 28 7d 3e
       0.074285164 0.028695725 0.062616274 0.24722314
000080 8a 80 a8 bc 21 82 4f 3b 06 fa 0b 3e c1 3d 8f 3d
       -0.020569105 0.0031663256 0.13669595 0.069942005
000090 2f 04 3d bc a4 8e 9a 3e b9 b8 b6 bd 77 0e 03 bd
       -0.011536642 0.3018695 -0.08921952 -0.031996217
0000a0 cb e9 8f bd 30 34 00 be 15 f8 de bd b1 8b c9 bc
       -0.07027014 -0.12519908 -0.10887162 -0.024602743
0000b0 2e 51 6b 3e cb 5a 10 bd ef b7 84 bc 62 b9 27 be
       0.22980186 -0.035242837 -0.016200988 -0.16379312
0000c0 71 96 86 bd f0 65 a1 bc fd 49 22 be b9 1b ca bc
       -0.06571663 -0.019701928 -0.15848537 -0.024671422
0000d0 b1 43 2f bd 9e 62 ce bb 51 83 aa 3d 43 5b 06 3e
       -0.042789165 -0.006298377 0.08325828 0.13120751
0000e0 c5 82 4a bb ec cf 05 3e 67 c9 bb bd f1 2e 9c bc
       -0.0030900699 0.13067597 -0.09169274 -0.019065352
0000f0 09 d2 c7 bc 74 f4 f3 bc 25 f4 aa bd 9b de 97 3c
       -0.024392145 -0.02977965 -0.08347348 0.018538764
000100 cb 2c b5 bd b2 4a 17 3d 28 9d d5 bd bd 73 44 bd
       -0.08846434 0.03693647 -0.10430366 -0.04796194
000110 7b 0b 3b bd d5 e4 e3 3d 0d 86 e8 3c 12 4e 17 be
       -0.045665246 0.111276306 0.028384233 -0.14775875
000120 38 87 6c 3c ae 0c f8 bc a8 05 ee bd 40 0b 9f bc
       0.014436536 -0.030279484 -0.116221726 -0.019414544
000130 ee 70 36 bd 91 38 f4 3a 10 b1 53 be 27 0b 2f 3d
       -0.044541292 0.0018632581 -0.20673013 0.042735245
000140 d5 e0 96 bd ce 77 39 3d 12 6d 0c bd cd 77 88 bd
       -0.07367102 0.04528027 -0.034283705 -0.06663475
000150 12 ed 71 bb 7d f5 39 3e a2 d8 2b bd 34 c6 2a bd
       -0.0036914987 0.18160053 -0.041954644 -0.041692927
000160 c1 a3 f6 3b 93 0b 2d bd 5d 3f fa bc f7 1a ba 3d
       0.007526845 -0.042247366 -0.030547792 0.090871744
000170 77 02 e3 bb 9d 84 dc 3c 2a 41 14 bd 2f ef 43 3d
       -0.006927784 0.026918704 -0.036194958 0.047835525
000180 da f5 ce 3d 39 31 b6 bd 62 1e a3 bb 38 93 9a bd
       0.10105486 -0.08896107 -0.004977987 -0.07547611
000190 a3 91 08 3d 4f 11 f2 3d 55 cb 0a 3d 84 c0 2c bc
       0.033342015 0.118197076 0.03388532 -0.010543946
0001a0 e2 3e ac bd 46 62 36 3d 83 f2 b9 3c fc 5b b6 3d
       -0.084104314 0.044527315 0.022698646 0.089042634
0001b0 fd a3 38 bd a0 a1 51 3d f8 15 9a bd ab e4 b7 3c
       -0.045078266 0.05117953 -0.075237215 0.022447905
0001c0 58 b7 b3 3b 89 8b 81 3e 76 a0 aa 3d 01 6b 7e 39
       0.0054845028 0.2530177 0.08331387 0.0002426319
0001d0 de 94 90 3d 2f 37 5d bc db 11 1c 3e e3 4b 3a bd
       0.07059644 -0.013501926 0.15241186 -0.045482527
0001e0 2a 80 8f bd ed 43 0d 3e 7d 5b 68 bd b8 6f cd bd
       -0.07006867 0.13795443 -0.056727875 -0.10031074
0001f0 9d 35 92 bd 5e 78 63 3c 82 ef b4 bb f5 18 21 ba
       -0.07139132 0.013883678 -0.0055217156 -0.00061453815
000200 3e 7a 35 be 9e bf 08 3d 42 7a 19 3d 51 69 a6 3c
       -0.17722413 0.033385865 0.03747011 0.02031389
000210 c7 d3 88 bd c8 b4 44 bd e7 e8 6b 3e 13 9f c0 3d
       -0.06681018 -0.04802397 0.23038064 0.09405341
000220 a4 d5 2a bd ca 19 cf bc c1 90 86 bd d1 ea fe bc
       -0.04170765 -0.025280852 -0.06570578 -0.031117829
000230 d8 7b 1e bb ca 92 86 3d 02 47 6c 3d d3 1f f9 bc
       -0.0024182703 0.065709665 0.057684906 -0.030410683
000240 67 f7 4d 3c 4b 5f c8 3c 15 f3 2a 3c 67 04 7e 3c
       0.012571192 0.024459502 0.010433932 0.015503979
000250 0c e9 0f 3d 85 25 a7 bc 3d 54 af bd 29 ff da bc
       0.03513436 -0.020403633 -0.08560989 -0.026732998
000260 a0 77 61 3d e5 41 87 bd 0b dc ca 3d 36 5b 11 bd
       0.055045724 -0.06604365 0.09905251 -0.035487376
000270 3d 6b 84 bb 80 b9 91 bc 1e 61 8b 3c 9d 11 38 be
       -0.004041104 -0.017788649 0.017014083 -0.17975469
000280 2d 65 d8 bd 22 63 2c bd 2a 78 af 3c b5 bc d3 bd
       -0.10566173 -0.042086728 0.021419603 -0.103387274
000290 41 24 ad bc 41 82 45 3d 15 e5 23 bc 80 ec 6a 3d
       -0.021135451 0.048219923 -0.010003348 0.05735445
0002a0 5b 75 c5 bc e0 a8 2f bd d5 9e 9d bd b6 f8 4a bd
       -0.024103811 -0.04288566 -0.076963104 -0.049553595
0002b0 17 d9 1a bd a5 8a de 3d 4c e6 b0 3c d2 0e 02 be
       -0.03780469 0.10866288 0.02159419 -0.12700966
0002c0 2d a0 85 3c dd 1f 02 be 83 01 0d bd f2 16 a9 bd
       0.01631173 -0.12707467 -0.03442527 -0.082563296
0002d0 0c d4 ac 3c 2f 12 5d 3d 7c 0d 30 3e c1 d4 26 be
       0.021097206 0.05397242 0.17192644 -0.16292097
0002e0 a3 fb 87 bd fd 56 82 bd 9a 26 30 bc fb 39 89 bc
       -0.06639793 -0.06364248 -0.010751391 -0.01675128
0002f0 81 5b 5a bd f0 fa 09 3d 6c 19 26 3e c3 23 56 3d
       -0.05330992 0.03368658 0.16220635 0.0522802
000300 e1 51 31 bc 26 fd 8f bd 34 f6 80 bd e0 7b 67 bd
       -0.010822744 -0.07030706 -0.062969595 -0.05651462
000310 c7 39 85 bd b0 7b f1 bc e4 0c 09 bd a3 39 65 bd
       -0.06505161 -0.029477924 -0.03345956 -0.05596317
000320 ad 93 9e bd de 2f ec bd 05 71 01 bd 9e 05 42 3e
       -0.07743011 -0.115325674 -0.031601924 0.18947455
000330 8e 8d a1 bd c1 5b f6 3d ef 9a b8 3c 41 87 a9 bd
       -0.078883275 0.120292194 0.022534816 -0.08277751
000340 27 c8 26 3c 00 8e b3 3d b1 96 18 be 02 91 ee bb
       0.010179556 0.08767319 -0.14901234 -0.00728047
000350 65 cd 45 bd 48 04 43 3d d6 37 03 bd e3 13 13 bc
       -0.048291583 0.047611505 -0.03203567 -0.008976909
000360 50 ac 84 3c 88 85 b4 bb 2a 51 1d 3e 53 56 8c bd
       0.016195446 -0.005509082 0.15362993 -0.068524025
000370 be 97 91 bc d6 71 92 bd f0 b8 52 3d 46 80 53 be
       -0.017772552 -0.07150619 0.0514459 -0.20654401
000380 2f b1 b3 bd f2 39 b8 3c 26 5e 6f 3c e2 26 12 be
       -0.087740295 0.022488568 0.014609849 -0.14272645
000390 64 b1 7e bc 29 5b 44 bd d0 ee 3a 3d 87 05 22 3e
       -0.015545223 -0.0479385 0.045637906 0.15822421
0003a0 2c 52 01 bd f2 d4 47 3e f4 03 bf 3d 4c 4f f7 3b
       -0.031572506 0.19514826 0.09326926 0.0075472947
0003b0 3c 59 3b bc bd 17 ec bd d7 f6 b2 bd 9d 31 0e be
       -0.011434849 -0.11527965 -0.08738487 -0.13886113
0003c0 ba 35 06 3e 09 8c c0 bb 5f b0 2b bd 5f 20 4c bd
       0.13106433 -0.0058760685 -0.041916247 -0.04983556
0003d0 39 5c ce 3d d1 db 33 bd 60 94 15 be af b8 24 3d
       0.10076184 -0.043910805 -0.14607382 0.04021519
0003e0 80 38 3c 3c d3 e7 b8 bc 4c 2b 14 3d b0 ac 35 bc
       0.01148808 -0.02257148 0.036174104 -0.011088535
0003f0 65 78 1f bd a0 cf 63 be 8a 73 b9 be f4 f1 6c 3e
       -0.038933177 -0.22247171 -0.36220962 0.23139173

cnn.0.bias f4 [64]
000000 48 c4 80 be 2b 78 85 3e f9 fe be bd ae da fb bd
       -0.2514975 0.26068243 -0.09325976 -0.12297569
000010 86 5c 9f 3c d1 00 14 3e 0c 54 08 be 71 a7 a6 3e
       0.019453298 0.14453436 -0.13313311 0.32549623
000020 fa d0 9a 3d 39 5c a2 3b 67 4c bc bc 82 c8 b5 bc
       0.0755939 0.0049548415 -0.02298565 -0.022190336
000030 06 24 88 3d 38 33 f9 3d c6 4e e6 bd 8e 3c b3 3d
       0.06647496 0.12167972 -0.112454936 0.08751784
000040 7f 1c 92 3e 9f b3 80 3e 94 5c 21 bd a9 32 0e 3e
       0.28537366 0.2513704 -0.03939493 0.13886513
000050 9a ed 2b bd c4 eb 19 bc 76 2e d5 3d 97 58 81 be
       -0.04197464 -0.00939459 0.10409252 -0.252629
000060 3d 70 99 bc f4 6e d1 3d 51 24 1f 3e 77 2b 50 be
       -0.018730277 0.10226241 0.15541197 -0.2032908
000070 14 c2 fd 3d b9 94 3d bd 0e 63 5a 3c 7e 19 29 be
       0.12390533 -0.04628441 0.013329281 -0.16513631
000080 57 da 33 be 84 e2 81 3d 63 46 3d 3e 77 df 71 3e
       -0.17563759 0.063420326 0.18483882 0.23620401
000090 30 52 28 be 83 1f 2c 3e 8e c3 35 be 23 80 d3 bc
       -0.16437602 0.16808896 -0.1775038 -0.025817936
0000a0 f7 92 be bd 9a 1a 2c be fb 63 df bd ab 5a b9 3d
       -0.09305375 -0.16807023 -0.10907742 0.09050497
0000b0 7d 52 2f bb 22 fa 9d 3d 5f 9f 17 3e 68 e3 44 be
       -0.0026752048 0.07713725 0.14806889 -0.19227374
0000c0 c7 83 26 bd c3 0e cd 3d 45 3d 11 be 4f 12 23 be
       -0.040653016 0.10012581 -0.14183529 -0.15924953
0000d0 35 69 3a 3e 72 6b d4 3d 1c c9 9a 3e 95 85 1d bd
       0.18204196 0.10372056 0.3023156 -0.038457472
0000e0 10 7d b5 3d 15 ff c7 3e 46 a7 53 be 09 17 50 be
       0.088617444 0.390618 -0.20669279 -0.20321287
0000f0 9d ef 55 be 0e 64 0d 3e 6c de 21 be de 7f 41 3d
       -0.20892186 0.13807699 -0.15807503 0.047241084

cnn.2.weight f4 [64, 64, 3, 3]
000000 1e 19 a1 3c 2d 20 cb bc 05 37 01 be 77 14 0c 3d
       0.019665297 -0.024795616 -0.12618645 0.034199204
000010 41 6d df 3c 9a de 20 3e 60 02 d2 3d ef 6c ae 3d
       0.027273776 0.15709916 0.10254359 0.08516871
000020 4d ac dd 3c 69 20 d0 3c 14 c3 ae bd b4 64 d1 bd
       0.027059698 0.02540608 -0.08533302 -0.10224286
000030 f9 95 b9 bc e8 51 a5 bd 7c 04 63 3c ad 45 b5 bd
       -0.02265452 -0.08072263 0.01385605 -0.0885118
000040 e7 8a 6a bd b0 05 f5 bc 44 7e ff 3c bf 6a 04 3c
       -0.057261374 -0.029909939 0.031188138 0.008082091
000050 76 42 c0 bc c2 f6 b3 bd ab 5e 2b be e8 56 a0 3d
       -0.023469191 -0.087873 -0.16735332 0.07829076
000060 c6 9e ce ba c7 f9 6e 3d 60 1e 05 3d b4 40 46 3d
       -0.0015763871 0.058343675 0.03249967 0.04840155
000070 6d 27 60 bd 40 71 4a 3c f0 fa 1e bd ba d4 42 bd
       -0.0547251 0.0123561025 -0.03881353 -0.047566153
000080 b7 b7 b2 bc b2 6c 11 3e 19 f0 22 3e 96 53 67 bc
       -0.021816118 0.1420162 0.15911902 -0.0141190495
000090 7f 7b b9 bd b8 c5 28 3d f9 67 ed 3d bb c2 ba bd
       -0.09056758 0.041204184 0.11592097 -0.09119173
0000a0 1c 28 10 3d ee 60 e7 bc 56 48 a8 bc 56 45 b4 bc
       0.0351945 -0.028244462 -0.020542305 -0.022005718
0000b0 e8 17 76 3d 1d 27 8e 3b 67 b6 36 be 24 a3 e1 bd
       0.060081393 0.0043381588 -0.17843018 -0.11017445
0000c0 8d 9e f0 bd 01 d2 d4 bc dc 71 d4 b9 2c ea 91 3c
       -0.11748991 -0.025979044 -0.00040520623 0.017811857
0000d0 ca 69 19 3d 91 bf 0f be 16 12 59 3d a8 6a 9c 3d
       0.037454404 -0.1403792 0.052995764 0.076375306
0000e0 9f 96 43 3d 46 03 5d bd 12 e5 8c 3c 8e f8 93 3d
       0.047751065 -0.0539582 0.017199073 0.072251424
0000f0 26 36 2f 3d 42 a6 1d bd d7 e0 26 39 d9 bb 7e 3b
       0.04277625 -0.038488634 0.00015914753 0.003886929
000100 12 55 21 3d 33 f8 2d 3d 4c 2c f0 bc 35 3e 61 3d
       0.03938777 0.04247303 -0.029317997 0.054990966
000110 b1 ef 3b 3c 64 84 f3 3b db 3c d3 bc 2b fe 15 3d
       0.011470721 0.0074315537 -0.025785854 0.036619347
000120 f3 0d c1 bd 0f 3e b6 3c 2c 7f 30 3d 9b 0a 31 3b
       -0.09426489 0.022246389 0.04309003 0.0027014378
000130 5b a1 fc 3c bf 30 7b bd bd 72 2a bd 07 c9 89 bd
       0.030838659 -0.061325785 -0.04161333 -0.06727796
000140 62 ef 1e bd 11 11 62 3d ee 0a 6a 3d 2a e4 fa bd
       -0.038802512 0.055192057 0.05713933 -0.1225055
000150 21 37 8b bb 32 cd ea bb 74 a2 af bd a9 56 81 3d
       -0.0042485152 -0.0071655745 -0.08575907 0.06315357
000160 4d 36 53 bd b4 37 4e 3d 4e 6c 8c 3e fd ba 6e 3c
       -0.051565457 0.05034609 0.2742638 0.014570949
000170 02 a1 b5 3d a2 6b f1 bc 56 b3 c2 3b 33 95 9d bc
       0.088686004 -0.029470269 0.0059417887 -0.019236183
000180 31 c0 53 bd 9e 7f 88 3d 40 6d 3b bd 14 13 95 3c
       -0.05169696 0.06664966 -0.045758486 0.018197574
000190 61 79 df bc 35 9d 10 bd f1 ef 13 bc 40 df 42 3e
       -0.027279558 -0.035306174 -0.009029374 0.19030476
0001a0 97 bd a7 bc 4c d8 64 3c 49 fe 62 be 81 05 ff bc
       -0.020476146 0.013967585 -0.22167315 -0.031130554
0001b0 73 78 17 3d 80 83 45 3c e6 b2 fb b7 7f 2e 58 bd
       0.036980104 0.012055278 -3.0004838e-05 -0.052778717
0001c0 10 8c 14 bd cd 62 c2 bc ee d3 97 bd cb 3c 42 ba
       -0.036266387 -0.023728753 -0.07413469 -0.00074095716
0001d0 13 22 45 bd 38 6d a0 bc 78 e6 83 be 5c 1b 5e 3e
       -0.0481282 -0.01958333 -0.2576177 0.21690124
0001e0 89 19 f0 bd 76 37 e7 bd d2 25 61 bc 00 29 28 bc
       -0.117236204 -0.11289875 -0.013741927 -0.010263681
0001f0 36 5b 09 3c bf cc 35 bd a8 f8 47 ba cf d0 39 3e
       0.008383563 -0.044384714 -0.00076283 0.1814606
000200 e6 73 0a 3d 75 dc 20 be a5 ae 43 bd 59 41 b0 bd
       0.033801936 -0.15709098 -0.047773976 -0.08606214
000210 bc aa 3d bd df b8 e2 bc 2a 81 bf bd 7e 0f 7d 3d
       -0.046305403 -0.027676044 -0.09350808 0.061782353
000220 87 a2 ad 3b 71 70 47 3d 0b 8f 45 bd 3b c3 c1 3b
       0.005298916 0.048691217 -0.04823212 0.005913166
000230 9e 5b c5 3c e3 fd 30 3c e1 a3 8f 3d ff 94 7c 3d
       0.024091538 0.010802719 0.07013679 0.06166553
000240 08 20 94 bd 77 c9 b4 38 9d 23 0f 3d 5f 8b 63 3d
       -0.07232672 8.6205946e-05 0.034946073 0.055552837
000250 e6 50 25 3d 37 bf 1b 3d a4 54 e2 bd ee 46 59 bc
       0.040360354 0.038024154 -0.110513 -0.01326154
000260 c7 3d 26 bd c5 51 3b 3d 58 8c 1c bc ac 10 a1 3b
       -0.04058626 0.04573228 -0.009554945 0.0049153175
000270 b5 73 99 be b1 ba b4 3c a5 08 39 be f0 b2 8a 3c
       -0.2997109 0.022061678 -0.18069704 0.016931027
000280 51 3a c9 3b b8 54 ab bd ae 09 ca 3a e6 ea df bd
       0.006140985 -0.08365768 0.0015414262 -0.10933475
000290 82 75 4c 3c 63 1d 7d 3c 29 ad 94 3d 8c c4 41 bd
       0.012479188 0.015448901 0.0725959 -0.047306582
0002a0 67 37 19 be be 8c b4 bc c9 30 1d bd 4c 06 c3 bc
       -0.1496254 -0.022039767 -0.038376603 -0.023806714
0002b0 5e 81 93 bd d9 02 ed 3c 64 70 a6 3d 09 74 9e be
       -0.07202409 0.028932022 0.081269056 -0.30947903
0002c0 1d a6 38 3c b0 c8 5e 3d bd 7b 2b bd bd b3 58 bd
       0.011270073 0.05439061 -0.041866053 -0.052905787
0002d0 c1 27 83 3b b9 c2 e9 bd b8 10 cd 3d ef 58 fa 3d
       0.004002542 -0.114140935 0.100129545 0.12223994
0002e0 57 55 10 3a c2 b1 b3 bc 7b 01 17 bd 08 e8 c4 3d
       0.00055058807 -0.021935347 -0.036866646 0.09614569
0002f0 76 91 ed bd bf 72 a6 3d 49 28 b2 3c 3b 2e a5 bd
       -0.1160001 0.08127355 0.021747725 -0.080654584
000300 c9 37 27 3d 35 6d 03 bd af 14 ac bc 6f 27 b0 3d
       0.040824685 -0.03208657 -0.021005956 0.08601271
000310 12 d1 0d bd 6c 10 53 3d b6 fc a6 be ff 13 58 bc
       -0.034623213 0.051529333 -0.32614678 -0.013188361
000320 df 0b a5 bd c9 22 ba bd cb 58 a6 bd 9a 67 c0 bd
       -0.08058905 -0.09088666 -0.08122405 -0.093947604
000330 d1 da 90 3c 16 0b 96 bd a3 00 bc bd de 82 13 bd
       0.017682465 -0.07326333 -0.09179809 -0.036013477
000340 05 d9 e7 3b 59 8d 89 bb 78 49 9e 3c 95 82 27 bd
       0.0070754313 -0.004197758 0.019322142 -0.040896017
000350 88 f4 62 3d 0d 34 f6 3d d8 a8 4a 3d da a3 12 3d
       0.055408984 0.12021647 0.04947743 0.035800792
000360 2a ca 9c bd 72 d8 07 bd e6 14 15 3e 03 99 5e bd
       -0.07655747 -0.033165403 0.14558753 -0.054345142
000370 74 e6 38 3c ca b2 cf 3d 2c 0a ac 3d fa 58 42 bd
       0.011285413 0.10141523 0.08400378 -0.047448136
000380 01 c7 1c bb b0 1b 82 bd c0 f0 3b bd a9 84 30 be
       -0.0023922327 -0.06352937 -0.045883894 -0.17238106
000390 78 81 df bc 52 c8 0d bd 01 e1 8c bd 6e 32 8e 3d
       -0.027283415 -0.03461487 -0.068788536 0.069432124
0003a0 99 37 f1 3c 67 e9 e1 bc ce e3 99 bd 90 0a 59 bc
       0.029445456 -0.027577115 -0.075141534 -0.013247147
0003b0 fa ff 09 3e ae b3 86 bc 4d de 5a 3c aa db 8a bc
       0.13476554 -0.0164431 0.013358665 -0.016950447
0003c0 8c e5 31 3e 0b dd a8 3d 2b 93 11 3d 51 f9 49 bc
       0.17372721 0.082452856 0.03554074 -0.012327508
0003d0 73 1c f9 3b b3 43 65 3d 1c bd 23 3e a7 5d 40 bd
       0.0076022684 0.055972766 0.15990108 -0.046964314
0003e0 de 88 9e 3d 7b 51 19 bc 81 cc a9 3d 6b 38 49 3d
       0.07740949 -0.009357805 0.08290959 0.04912607
0003f0 f6 df 1c bc e2 46 df bc 4a db b6 bb ca 63 5f 3c
       -0.009574881 -0.02725548 -0.0055803405 0.013634631

cnn.2.bias f4 [64]
000000 b9 d4 64 be 3e 56 8d 3d db 79 12 be 3b 70 78 3e
       -0.22346772 0.06901215 -0.14304297 0.24261563
000010 bc b5 19 bd ea ae 49 3e 07 20 64 bd 34 da 9e be
       -0.03752683 0.1969563 -0.055694606 -0.3102585
000020 5a c1 3e bc 39 bc 54 be c7 48 82 bd e1 13 13 3d
       -0.011642778 -0.20774926 -0.063615374 0.03590763
000030 6a 77 0a 3e bc 32 11 be 51 67 33 3d 39 1b a9 3d
       0.13522115 -0.1417951 0.043799702 0.082571454
000040 dc 6a 49 3d cb e8 c0 bc e8 07 02 bc 83 9d 76 3e
       0.049174175 -0.023548504 -0.007936455 0.24083523
000050 bc 2d 82 3e 39 db 15 3e 23 89 36 3e 2c fc 51 be
       0.25425518 0.14634408 0.17825751 -0.20506352
000060 42 ee a2 bd b9 6a 7f bd e4 78 6a bd 46 e5 a3 bd
       -0.079556 -0.062357638 -0.057244197 -0.08002715
000070 81 6f 31 be 95 dd 1d bd ec 07 2b bd d3 ef 91 be
       -0.17327692 -0.038541395 -0.0417556 -0.28503284
000080 b6 41 52 bd 2b 7e d6 bc 9f fb 54 bd d9 94 53 bc
       -0.051332198 -0.026183208 -0.051997777 -0.012913906
000090 20 95 1a be 58 d3 17 be 6a da 73 3d 9b 12 5d 3e
       -0.15095949 -0.14826715 0.059534468 0.21589129
0000a0 fb 34 72 3e be b8 8d be 43 f4 20 bd 6f ca 46 be
       0.23653023 -0.2768001 -0.039295446 -0.1941316
0000b0 92 8d a8 3e b4 03 c9 bd be fa b4 3d c4 b8 38 be
       0.3292051 -0.098151594 0.08836888 -0.18039232
0000c0 e2 99 1e 3e 6c 52 2b be 16 74 7e be 27 af 37 bd
       0.15488389 -0.1673066 -0.24848971 -0.044844773
0000d0 cf 08 82 be eb 45 92 3e f4 97 65 3e 70 89 1b bd
       -0.25397345 0.28568968 0.22421247 -0.037972867
0000e0 b1 ac f1 3d 54 a5 12 be ab 8b 7d be f1 40 7f 3d
       0.118005164 -0.1432088 -0.2476031 0.062317792
0000f0 96 c5 d3 3d 78 79 88 be 67 9b 1a be 23 fc ee bd
       0.10340421 -0.26655173 -0.15098344 -0.11669185

cnn.4.weight f4 [64, 64, 3, 3]
000000 7d 5b 30 be f0 70 c0 be df 64 0a bd 48 ea 84 3d
       -0.172224 -0.37586164 -0.033787604 0.06489998
000010 c3 60 84 be c2 fd 24 bc d1 b3 c8 3d 95 f5 a7 bb
       -0.25855073 -0.010070266 0.09799922 -0.005125711
000020 c4 16 19 3d 56 fb 03 3b cc 80 28 3c 1f ae 93 bd
       0.037375227 0.0020138822 0.010284614 -0.07210945
000030 f9 da d0 bd 7f 03 a1 3c e3 a4 f5 bd 7c 79 b7 bd
       -0.10198016 0.019654987 -0.1199434 -0.08958718
000040 d5 67 ed bc 5b 0e 76 3d 81 3b 81 3b 0b b4 df 3c
       -0.028980175 0.060072284 0.003943861 0.02730753
000050 84 a8 5a bc aa 96 e6 3c 1c 83 2c 3d f5 92 d0 3c
       -0.013345841 0.028148014 0.042117223 0.0254607
000060 0f 08 8e 3d 4f 50 c3 3d 50 bf 13 3d e0 f7 ec bb
       0.06935131 0.09536802 0.03607112 -0.0072316974
000070 4e 18 eb 3c 6c 4a a3 3c 24 ad b5 ba 9a e5 3b 3d
       0.028698113 0.019932948 -0.0013860804 0.045873262
000080 99 e4 2a 3b aa 67 27 3d b2 74 7e bd 07 04 49 3d
       0.0026076196 0.040870346 -0.062123008 0.049076106
000090 53 35 fd bc cc 80 c5 bd ac 05 ea 3c 76 f6 a8 3c
       -0.030909216 -0.09643707 0.028567158 0.020625334
0000a0 7c 20 28 3d 1e ac 00 3e 43 de 0a 3d 99 5f 0d bd
       0.041046605 0.12565657 0.03390337 -0.034514997
0000b0 1f 6b 23 3a 6e dc d2 bc 6d 8f a8 3c e7 78 d9 bd
       0.0006233919 -0.025739875 0.020576203 -0.106187634
0000c0 3d 95 71 bd 4b 2c 48 bc 04 a9 12 be dc d5 50 3d
       -0.058980215 -0.0122175915 -0.14322287 0.050985202
0000d0 89 aa 92 3d ff 91 9e bd 3b c3 62 3a a6 e7 45 bd
       0.07161433 -0.0774269 0.00086503074 -0.04831662
0000e0 f6 ad 39 bd fc 5e d0 3d ab 9d 5a 3c db 63 d4 3b
       -0.045331918 0.10174367 0.013343255 0.0064816303
0000f0 5a 80 07 bd 64 e1 54 bc fc 3d dd bc 2a f8 83 3c
       -0.03308139 -0.01299319 -0.027007096 0.016109545
000100 60 69 4c 3c 6a 01 41 bb e2 a1 0d 3d 00 81 95 3d
       0.012476295 -0.0029450306 0.03457821 0.072999954
000110 9c ea 0b 3c 1e e0 82 3d 9e 1c 4c 3d 4e 90 6f 3d
       0.008539822 0.06390403 0.04983198 0.05848723
000120 ba 7b 65 3c 77 8e fb 3b ae 24 1e bd 08 dc 63 3d
       0.0140065495 0.0076768952 -0.0386092 0.05562976
000130 36 44 43 3b 1b e1 08 3c 1f 42 2b 3d 1f 89 b9 3c
       0.0029795296 0.008354451 0.041811105 0.022648392
000140 1f d8 54 3d 9d 5a 05 bd d2 4c b8 3b 5c 34 c5 bb
       0.05196392 -0.03255712 0.005624392 -0.0060182046
000150 fd c9 12 bd d5 2f 33 3d f5 ef 5a 3d be a0 d3 3c
       -0.035837162 0.043746788 0.053451497 0.025833484
000160 07 9a f5 3d a9 41 bf 3d a5 6d 27 3d 74 61 2b bd
       0.11992269 0.093386956 0.04087605 -0.041840985
000170 1e 6f e3 bc 01 92 fc 3c 9c 77 2e bd 52 33 b3 bd
       -0.027762946 0.030831339 -0.042594537 -0.08750023
000180 ac 9c b1 3c be d9 85 bc fc 11 ba bb 65 4a 1f bd
       0.021681152 -0.01633918 -0.0056784134 -0.038889308
000190 5b 3f 3e 3d db d9 84 3c bb a6 47 3d 7f 69 55 3d
       0.04644714 0.016217163 0.04874299 0.052102562
0001a0 df 95 4c 3d 9e 24 d8 3d b9 47 8c 3c f3 c4 68 3b
       0.049947616 0.10553859 0.017124044 0.0035517782
0001b0 0c e0 db 3c 13 f6 68 3b c9 9f bb bc 25 ce 17 3d
       0.026840232 0.0035547062 -0.02290334 0.03706183
0001c0 66 99 74 3d c5 86 ab 3c 79 62 ea bc 4f 01 85 3c
       0.059716605 0.020938287 -0.028611409 0.016235976
0001d0 49 af 8e 3d c8 45 6e bd a0 a0 dc bc 56 ac 43 bd
       0.06967027 -0.058172017 -0.02693206 -0.047771774
0001e0 fe ac 42 bc 90 ae b3 bd 26 4e 5b be 5c 33 18 bd
       -0.011882065 -0.087735295 -0.2141653 -0.037158355
0001f0 74 75 f6 3d 10 f4 1f bd a6 bb 1f bd e7 ea 88 bd
       0.12034121 -0.039051116 -0.038997315 -0.06685429
000200 72 32 00 be 29 33 3c bc d5 2e 58 bd bf 76 5a be
       -0.12519243 -0.011486807 -0.052779038 -0.2133436
000210 57 a7 09 bd c1 38 28 bd e2 3b 88 3c 75 dd 44 bd
       -0.033606853 -0.04106975 0.016630117 -0.04806276
000220 42 1e f7 bc 93 1e 6d bd 31 2a d3 3d e0 bb 3a bd
       -0.030165795 -0.057890486 0.10310782 -0.045589328
000230 e4 b0 b6 bd 31 7d 6e 3d df b6 1e be 0e 90 fd bb
       -0.08920458 0.05822486 -0.15499447 -0.00773812
000240 3f 26 27 3d f5 9e 8c 3d cd db 21 bd b7 92 d7 3d
       0.04080796 0.06866256 -0.03951626 0.105260305
000250 e0 7f 1b 3c d3 46 59 3c c5 b7 91 3d 5c 19 9a 3d
       0.009490937 0.013261515 0.071151294 0.07524368
000260 cb ef 1e 3d f2 f8 ea bc 34 f0 90 3b eb 5c cd bc
       0.038802903 -0.02868316 0.0044231657 -0.02506872
000270 8c 57 8f bd b8 02 23 3d cc 7e f0 bb 59 5e aa bb
       -0.0699912 0.039797515 -0.007339334 -0.0051992354
000280 fa a0 15 3a c7 ca 2a bd e7 ea d7 3b 3f 76 94 bc
       0.00057078863 -0.04169729 0.006589282 -0.01812279
000290 90 de b1 bc b5 32 4c bd c5 60 61 3e 00 c0 50 3c
       -0.021712571 -0.049853045 0.22009571 0.012741089
0002a0 ab c0 50 bc 51 01 15 bd fb a0 99 bc 2f c2 53 bd
       -0.012741248 -0.03637821 -0.01875352 -0.05169886
0002b0 6b 13 1d bc e9 ad 9a bb 5e c4 06 3d cd 9e 96 3d
       -0.009587149 -0.0047204387 0.032902114 0.073545076
0002c0 8c c2 2d bd 5a db 36 3d 4d 10 a8 bc 90 54 17 bd
       -0.042421862 0.044642784 -0.020515585 -0.03694588
0002d0 00 8c 1b bd 5e 18 2f 3e 03 43 23 3e 8e b9 92 bc
       -0.03797531 0.17099139 0.15943532 -0.017910745
0002e0 fd 4f 8b bd a0 52 3a be df 85 54 3d 33 ab 1e 3d
       -0.06802366 -0.18195581 0.051885482 0.038737487
0002f0 31 f1 52 3e 7a 6a 28 3d d6 6d 3c 3b 4b 28 6c ba
       0.2059982 0.04111717 0.002875199 -0.00090086897
000300 42 1a 79 3c 5f 12 29 bd 71 51 1e bd 41 7a d2 bc
       0.015204014 -0.041277286 -0.038651887 -0.02569306
000310 90 a3 0d bd d0 e5 78 3c 0c c7 26 bd c9 8c 2d bc
       -0.034579813 0.01519151 -0.04071717 -0.010592648
000320 8f 4a b4 bc 1a c7 c7 bb 8d 63 8b bc 0f cf 0d 3c
       -0.022008209 -0.006096733 -0.017015243 0.008655324
000330 a2 4f 78 3c a3 6e a5 3b 84 3a 84 3b 83 b4 4b bd
       0.015155705 0.0050485893 0.004035296 -0.049732696
000340 e0 8c 4c bc 91 04 c2 bc c8 4b f3 3c 56 6c 33 3d
       -0.012484759 -0.023683818 0.029699221 0.04380449
000350 e5 46 25 3d 97 72 92 3d e6 08 84 3b de f6 34 3d
       0.040350813 0.071507625 0.004029381 0.044180743
000360 f7 2b 85 bd d3 de 1d 3d 80 3e 7c bd ca 9f 07 be
       -0.06502526 0.03854258 -0.061583042 -0.13244548
000370 c7 aa 1d 3d d2 fb 18 bd 15 65 e0 bc 4c b1 8c bc
       0.038492944 -0.03734953 -0.02739195 -0.017174385
000380 7a 6f 56 3d c4 28 68 3d c4 24 f3 3c 49 02 7b 3c
       0.052352406 0.056679502 0.029680617 0.015320369
000390 8c ea bb 3d 63 06 ce 3c 91 6f aa 3d 62 7a 5d 3d
       0.09175596 0.02514953 0.08322061 0.05407179
0003a0 5c 8c 03 3d 02 53 5e 3d 92 7e e2 bd e7 e6 a2 bd
       0.03211628 0.05427838 -0.110592976 -0.079541974
0003b0 6e 79 ba bb 31 92 20 3d ef d1 c0 3d 19 6d ac 3d
       -0.005690745 0.03920192 0.09415042 0.08419246
0003c0 e6 e5 51 3d b8 28 ee 3d 88 e0 c6 bd 2d 31 9d bd
       0.05124464 0.1162886 -0.09710795 -0.07675395
0003d0 de 58 00 3e b5 01 ba bd 11 54 02 bb 3b fc 14 3d
       0.125339 -0.09082357 -0.0019886533 0.03637336
0003e0 25 f6 d0 3d 70 e6 88 3c 88 65 c7 3a 1d 62 8c 3d
       0.10203198 0.016711444 0.0015212754 0.06854651
0003f0 16 69 73 3d 2e 10 af 3d 21 0d e3 3c 2d db 3e 3c
       0.05942639 0.08548008 0.027716221 0.011648935

cnn.4.bias f4 [64]
000000 f6 7b a5 bd 6b 87 80 3e b2 9d a2 be ee c4 b7 bd
       -0.08080284 0.25103316 -0.31760937 -0.08973108
000010 69 73 1f bd 5b 87 d6 bd 6c cb 60 be ac 98 23 be
       -0.038928423 -0.10475036 -0.219526 -0.15976208
000020 13 2c b3 bd 2a e1 0d 3e fa 40 e4 3e e3 51 f4 bd
       -0.08748641 0.13855425 0.44580823 -0.11929681
000030 4c 57 c4 3d cb 65 48 bd 03 cd a2 be cd fd c6 bd
       0.09586963 -0.048925202 -0.31797037 -0.097163774
000040 ce 11 da bd 13 e7 cb bd 2d d2 5b be d8 f3 5e be
       -0.10647927 -0.09956183 -0.21466894 -0.21772707
000050 17 9e 9a 3e a6 b8 0d 3f 10 c7 0c bb a9 58 01 bf
       0.30198738 0.55359876 -0.0021480955 -0.5052591
000060 47 3f 0e be f2 fe 62 3d c3 39 1c bd 0f b7 15 bb
       -0.13891326 0.055418916 -0.038141023 -0.0022844707
000070 34 ab d2 bd d8 f9 db bd b2 97 89 bc 31 3d 50 3e
       -0.10286561 -0.10741013 -0.016795967 0.20335843
000080 5c 7f a5 3d ac c7 9e 3e 49 71 d5 3e 10 1f aa be
       0.080809325 0.31011713 0.41687992 -0.33226824
000090 d6 47 b8 bd c0 f2 a0 be 51 3f 17 be 67 17 19 be
       -0.089980766 -0.31435204 -0.14770247 -0.14950334
0000a0 85 b4 c3 be b8 bf 95 bd ae 41 17 3d 80 f6 1d be
       -0.38223663 -0.07311958 0.03692787 -0.15426064
0000b0 a2 d8 96 be 39 38 9c bd 8d 42 e8 be eb 8a 92 be
       -0.29462153 -0.07627911 -0.45363274 -0.2862161
0000c0 2f 3f 0c bc 05 85 e9 bc 9a b9 b0 3e 61 b2 f5 3e
       -0.008559986 -0.028505811 0.34516603 0.47987655
0000d0 4c 53 86 be 3a 64 dd bd a2 8c af 3c 9a d3 64 bd
       -0.26235425 -0.10810132 0.021429364 -0.05586586
0000e0 5e 07 a4 bd 2d 73 04 3e 9b 0c 29 3e d1 e5 57 be
       -0.08009218 0.12934561 0.16508715 -0.21083762
0000f0 88 01 54 bd 57 50 58 be 9a bf 33 3d 3b 70 e1 3e
       -0.051759273 -0.21124397 0.043883897 0.44030938

cnn.6.weight f4 [64, 32, 4, 4]
000000 30 60 83 bd be db 9f 3c 49 cc 71 3c 09 49 23 3e
       -0.06414831 0.01951396 0.014758178 0.1594583
000010 12 4c c2 bc 36 2e 5a bd 65 2e f1 3c fd ca ee bc
       -0.023717914 -0.053266726 0.029441068 -0.029149527
000020 b0 a3 66 bc 59 07 7c be a4 a7 0a bd 5b b5 61 be
       -0.014077112 -0.24612178 -0.03385128 -0.22041838
000030 3e 86 33 3e ec 1f cc 3d 38 3d 9b 3e 82 e3 39 3e
       0.17531678 0.09967026 0.30320144 0.18153194
000040 e3 de ee 3d be 6e fd 3c 34 f6 d6 3d 51 65 01 bc
       0.11663606 0.030936595 0.10496178 -0.007897691
000050 e6 a2 f8 bb 94 c2 25 bc b2 d5 8b 3b 84 dc be bc
       -0.0075877784 -0.010117192 0.004267418 -0.02329851
000060 bb 65 7c be 87 6a a6 bc c2 ac 36 be 94 b2 a7 bb
       -0.24648182 -0.020314468 -0.1783934 -0.0051177237
000070 3f e4 bd bc 61 00 0a bd b5 76 8a 3c 02 e0 37 bb
       -0.023180125 -0.033691768 0.016902307 -0.0028057103
000080 d6 ec fa bc d3 f1 74 bd ec b6 b4 be 82 dd 7c bd
       -0.03063051 -0.059800934 -0.35295808 -0.061734684
000090 bd 04 e6 bd 1d 28 b3 bc d3 23 c4 bd 97 33 82 bc
       -0.112313725 -0.021869713 -0.095771454 -0.01589374
0000a0 4a 8b 28 be 81 d1 8e bd 8f 80 4f bd 44 d2 5d bd
       -0.16459385 -0.069735534 -0.050659712 -0.054155603
0000b0 2d 67 e7 3c 3e fc 58 3d 26 d4 47 3e cc c1 8f 3b
       0.02824744 0.052974932 0.19514522 0.004387116
0000c0 d5 5f a5 3c b3 97 d9 3d 6a 2c e1 3c 0d 0c 92 3d
       0.020187298 0.106246375 0.027486999 0.07131205
0000d0 a2 b8 45 3d 27 13 97 bd 42 67 38 3d 97 18 8c bd
       0.048271783 -0.073767 0.04502035 -0.06840628
0000e0 c1 57 3d bd 38 fd e7 bd d2 7d 2e bd ae cf 9c be
       -0.046226267 -0.113275945 -0.04260046 -0.30627197
0000f0 76 ee 1d 3e f6 52 20 3e 64 f0 25 3d c1 5e 6f bd
       0.15422997 0.15656647 0.040512457 -0.058439974
000100 a1 ed 2b 3d 21 50 ac 3d df 8d 72 3d fa 4d b3 3c
       0.041974667 0.08413721 0.05921733 0.021887768
000110 d6 aa a7 bb 5f 78 c2 bd b1 0d 7e bc 95 52 b6 3a
       -0.005116801 -0.09495615 -0.015506194 0.0013910109
000120 69 78 14 3b 6b 3f de bd 60 ab d7 3c 86 03 18 be
       0.0022654778 -0.1085194 0.026326835 -0.14845094
000130 5e 17 f1 3c d1 b7 1e 3e 2f 96 c1 bc 04 ae ad 3d
       0.029430088 0.15499808 -0.023631183 0.084804565
000140 8b 88 9f 3d 96 84 95 3c 20 09 b4 3d 08 60 41 3d
       0.077897154 0.018251698 0.08790803 0.047210723
000150 8a 2e 99 bd c2 c1 f8 bd 4a 84 81 bc 27 40 dc bd
       -0.0747958 -0.12146331 -0.01581015 -0.107544236
000160 10 d6 a2 bd 40 74 2c be 48 49 31 be b9 03 09 be
       -0.079509854 -0.16841221 -0.17313111 -0.13380326
000170 3b f9 2b bc ca d6 a4 3d b0 52 87 3d 19 a0 e6 bd
       -0.010496433 0.0804878 0.06607568 -0.11261005
000180 36 13 46 3d 59 e5 dd bc 57 c4 3c 3e 30 0f 42 bd
       0.048358165 -0.0270869 0.18434273 -0.047377765
000190 1c 21 3b bd 84 63 82 3c 7e 9d b1 3b b6 6e f2 bc
       -0.045685872 0.015916593 0.005420386 -0.029593807
0001a0 e2 cf 88 3d b3 e0 56 bd d6 33 d3 bd 01 3d 07 3a
       0.066802755 -0.052460384 -0.10312621 0.00051589316
0001b0 fc 33 e6 bb 5f f5 b8 39 59 d3 ce bc ba c4 1f bd
       -0.00702524 0.0003527803 -0.025247263 -0.039005972
0001c0 e6 6d af 3d a5 dd e2 3d 8a 98 01 3e a0 67 74 3c
       0.08565883 0.110774316 0.12655845 0.014917284
0001d0 1f 7f 42 bd d8 4f ad bc ec 46 74 3d c3 bc 13 bc
       -0.047484513 -0.021156237 0.05963795 -0.009017172
0001e0 85 7a 40 be 5e 33 a3 bd 68 1a ac bc cc d8 b9 bc
       -0.18796737 -0.07968782 -0.021008685 -0.022686385
0001f0 72 5b c1 bd d9 cd d2 bc 74 dd 0f 3e 58 8b b2 3c
       -0.0944127 -0.025732921 0.14049321 0.02179496
000200 24 d1 02 3d 34 54 55 3b 31 cd dd 3d 97 2e d2 3b
       0.031937733 0.003255141 0.10830153 0.0064142453
000210 85 10 11 be f9 b8 e4 bd e6 58 b2 bd 1f e3 76 bd
       -0.14166458 -0.11168093 -0.08708362 -0.060275193
000220 84 76 d6 bd df f0 1a bd 07 0d d9 bd ec 51 f0 bd
       -0.10471824 -0.03782737 -0.10598188 -0.11734375
000230 2e 41 e8 3d 30 d0 4a 3e 64 6a 13 3e 65 ff a5 bb
       0.11340557 0.1980598 0.14396054 -0.005065846
000240 24 85 de bc fe b1 60 bd 7d 64 5c bd 3f 71 6d bd
       -0.027163096 -0.054857247 -0.05380677 -0.057969328
000250 6f e3 29 bd 2d bc 0a bd 86 96 25 bd 93 ea 33 bd
       -0.041476663 -0.033870865 -0.040426753 -0.04392488
000260 95 22 ca ba 77 f1 a8 bd 95 58 af bd 2a ae 71 bc
       -0.0015421683 -0.08249181 -0.085618176 -0.014750997
000270 1c 68 f4 bc d9 92 4a bd 11 42 9e bb c2 ac b4 bc
       -0.0298348 -0.04945645 -0.004829653 -0.022055034
000280 55 3f 03 3d e8 41 cd bb c1 98 08 3e fa 2b a9 3b
       0.03204282 -0.00626396 0.13339521 0.005162713
000290 71 08 80 bc ef 22 93 bd 30 00 27 3d 21 93 f3 bd
       -0.015629025 -0.071843974 0.040771663 -0.11893297
0002a0 36 fa f1 bd 69 96 2a 3d 0c d9 8d bd f7 ed 2e bd
       -0.11815302 0.04164735 -0.06926164 -0.04270741
0002b0 9a 4c 92 bd cd f0 87 3e 9a 09 ca 3e df 9f 04 bc
       -0.07143517 0.26550904 0.3946045 -0.008094757
0002c0 0b 95 53 bc 65 a5 08 bd 8c 87 12 bd ba 07 c0 bc
       -0.012913953 -0.033360858 -0.0357738 -0.023441184
0002d0 cd 09 35 bd 71 32 a3 3c d0 29 a4 bd 81 55 f7 bd
       -0.0441988 0.019921513 -0.080157876 -0.120768555
0002e0 c1 fa bf 3d 19 c5 d4 ba 4b 18 9e 3d aa 3c 6b bc
       0.093739994 -0.0016233056 0.07719477 -0.014357725
0002f0 99 d1 e2 3c 37 74 a9 3d 5b ed 13 bb 04 82 cd bd
       0.027687835 0.08274119 -0.0022571895 -0.10034564
000300 d7 12 df 3a 4f 8a c0 3c ee 23 e5 3c 29 c8 d0 bb
       0.0017019165 0.02350345 0.027971234 -0.006371517
000310 ca 37 aa bb fc be 2a 3c cc db 40 3d 6c ab fd 3c
       -0.005194639 0.010421511 0.047084615 0.03096553
000320 13 6d 10 be a8 da 1f be ed b5 d4 bd 57 68 31 bd
       -0.14104109 -0.15610754 -0.10386262 -0.043312397
000330 d5 73 82 bd f0 0b a1 3c fe 26 42 be d8 da 0a be
       -0.063697495 0.019659013 -0.18960187 -0.13560045
000340 9c 28 ff 3d c2 0e 83 3e bd da 9b 3d f1 7b 81 bc
       0.124589175 0.25597197 0.076100804 -0.01580617
000350 05 5b ca 3c 14 7c 0e 3c 03 93 af 3d ff e4 40 be
       0.024701605 0.008696575 0.08572962 -0.18837355
000360 d5 3d b0 3c b5 32 0e be 4c 46 b9 bd bc 9e 9e be
       0.021513859 -0.1388653 -0.09046611 -0.3098048
000370 5b 30 f9 3d 96 87 23 3e c6 1b 36 be 1f 14 a0 be
       0.12167426 0.1596969 -0.17784032 -0.3126535
000380 36 d5 cd 3c e4 f8 82 3d fa a2 09 bc b1 de d5 3d
       0.025126081 0.06395128 -0.008400673 0.10442866
000390 fd 5f ab 3c 7a f5 63 bc 2c 0a 8b bc 34 79 c6 3c
       0.020919794 -0.013913507 -0.016972624 0.024227716
0003a0 82 30 06 bc 3a bc c7 bb 0c a0 f7 bd 93 39 a4 3d
       -0.008190276 -0.0060954364 -0.120910734 0.08018794
0003b0 56 20 26 bd d6 b4 2a 3e a5 05 5e bc 78 4d 75 bd
       -0.04055818 0.16670546 -0.01355115 -0.059888333
0003c0 47 36 e8 3c c5 37 cd bb 1e 0a 2a 3d 0e 90 68 bd
       0.028346194 -0.0062627518 0.041513555 -0.056778006
0003d0 b8 e2 81 bd 14 c7 47 bc 39 1d b4 bc c9 a4 a5 bc
       -0.06342071 -0.01219346 -0.02198659 -0.020220177
0003e0 48 0d cd bc 40 42 9d 3b dc ea 0a bd 12 ff 97 bd
       -0.025030747 0.0047991574 -0.033915386 -0.07421698
0003f0 31 f1 10 3e 69 bb b6 3d 43 5d 33 3e e1 f6 1a bd
       0.14154507 0.089224644 0.17516045 -0.0378331

cnn.6.bias f4 [32]
000000 7d cc bc 3e 82 10 a1 be 69 35 47 3e aa 53 58 be
       0.36874762 -0.31457907 0.19453968 -0.21125665
000010 90 93 51 3c a8 d1 ad 3c 30 6f c5 3d 67 df 40 be
       0.012791529 0.021218136 0.09640348 -0.18835221
000020 c5 d7 fe 3d a0 9d 9a 3e 10 af 92 be 32 c3 7a 3e
       0.124434985 0.30198383 -0.28649187 0.24488524
000030 0a a2 ce 3d b4 7f 4c 3e 5c 82 23 3e 63 58 0e 3d
       0.100895 0.1997059 0.15967697 0.03475226
000040 02 28 22 3e c9 ab e1 3e e2 d2 a2 3e 61 ec 6a be
       0.15835574 0.44076374 0.31801516 -0.22941734
000050 18 4f 8b be e2 b4 a6 3c e9 4a 23 3d 12 c5 8e 3d
       -0.2720878 0.020349924 0.03986636 0.06971182
000060 66 8d 1e 3d 52 0a a6 3e 50 6b 2e 3e 6f 96 f9 3d
       0.038709067 0.3242975 0.17033124 0.12186896
000070 34 28 33 3e cd a3 67 3c 73 06 54 3e d9 18 8c be
       0.17495805 0.014138174 0.20705585 -0.27362707

cnn.8.weight f4 [32, 3, 8, 8]
000000 57 c5 1c bc 9b d1 f5 bb 53 15 d1 bb 4f 77 ec bb
       -0.009568534 -0.0075017936 -0.006380716 -0.007216371
000010 78 31 f5 39 f4 86 8d ba 9e c6 0d bb 18 84 cc ba
       0.000467669 -0.0010797665 -0.0021633278 -0.0015603332
000020 93 c2 32 bc f8 46 31 bc b0 16 24 bc f3 2f 15 bc
       -0.010910648 -0.010820143 -0.010015175 -0.00910567
000030 f6 dc 43 ba 72 03 14 bb a1 be 4d bb 9a c7 2e bb
       -0.00074715854 -0.0022585061 -0.0031394141 -0.0026669265
000040 14 e5 87 bc a5 ed af bc 14 81 bf bc 37 ce a8 bc
       -0.016588725 -0.021475622 -0.023376979 -0.020606143
000050 9c d4 09 bc f2 b1 9a bb f7 9e 59 bb dc ab 0a bb
       -0.008412506 -0.0047209198 -0.0033206323 -0.0021159565
000060 35 89 f5 bc cd 1a 38 bd ca d5 58 bd 02 aa 38 bd
       -0.029972652 -0.044947434 -0.05293826 -0.045084007
000070 9d a8 bc bc 31 6b 27 bc 04 d8 a7 bb 34 3e 7c bb
       -0.02302962 -0.0102184275 -0.0051221866 -0.0038489224
000080 ce 3c 94 bd dd bd bc bd b5 97 cb bd 1e 23 bc bd
       -0.0723816 -0.09215901 -0.09941045 -0.091863856
000090 c8 01 95 bd 68 a7 59 bd 4e e2 3a bd cb 68 32 bd
       -0.0727573 -0.053138167 -0.045625977 -0.04355697
0000a0 a2 08 8e bd 30 00 a6 bd 26 29 aa bd 84 5d 95 bd
       -0.0693524 -0.081055045 -0.0830863 -0.07293227
0000b0 d3 38 78 bd 09 b5 43 bd 78 f6 34 bd 4c 9d 32 bd
       -0.060601067 -0.04778007 -0.044180363 -0.04360704
0000c0 f3 70 6a bd 50 07 75 bd d0 ba 64 bd 96 ed 3d bd
       -0.057236623 -0.059821427 -0.05584222 -0.046369158
0000d0 6a a0 43 bd 8b c4 2a bd 6a 22 2a bd 8d a5 2b bd
       -0.047760405 -0.041691344 -0.041536726 -0.04190593
0000e0 69 62 3c bd 3a 3f 35 bd d8 b4 23 bd cd 51 0e bd
       -0.04599229 -0.04424975 -0.039967388 -0.03474598
0000f0 9a d4 21 bd 52 74 18 bd 3d 53 1b bd d2 b6 1a bd
       -0.039509393 -0.037220307 -0.03792118 -0.037772007
000100 b7 ac 05 bc 53 5b c2 bb bb 03 90 bb 09 55 96 bb
       -0.008158854 -0.005931297 -0.004394976 -0.0045877737
000110 28 71 a9 3b 9b 4e 3d 3b 41 83 82 3a da 4b 4c 3a
       0.00517096 0.0028885964 0.000995733 0.0007793285
000120 cc 9e 22 bc 12 08 1a bc f7 5f 06 bc 1b da da bb
       -0.009925555 -0.009401338 -0.008201591 -0.006678832
000130 05 35 8a 3b dd 3a 01 3b 19 8b ae 39 81 9a 9b b9
       0.004217746 0.0019718923 0.00033291502 -0.00029679018
000140 7e d7 76 bc 62 d4 9f bc 77 d4 ac bc 7f 8b 94 bc
       -0.015066026 -0.019510452 -0.021097405 -0.018132923
000150 1b c9 1d bb 93 8e 24 b8 d1 3c 06 39 06 d9 ca 39
       -0.0024076167 -3.923343e-05 0.00012801892 0.00038690137
000160 6b ec ed bc 03 88 30 bd cd 2a 50 bd 15 cb 2f bd
       -0.029043397 -0.04309846 -0.050822068 -0.042918283
000170 4c 1a 91 bc c2 c7 dc bb af 73 49 bb e0 7f e9 ba
       -0.017712735 -0.00673768 -0.0030739119 -0.0017814599
000180 e1 f4 b8 bd ec 8a dd bd e1 89 e8 bd 07 6b d9 bd
       -0.09031082 -0.10817513 -0.11354423 -0.10616117
000190 15 5f af bd 3a af 8c bd d9 a6 7f bd 8f 05 79 bd
       -0.08563057 -0.06869359 -0.062414978 -0.060796317
0001a0 5f 95 b3 bd f9 e8 c6 bd e3 6b c7 bd 1b 74 b2 bd
       -0.08768725 -0.09712405 -0.09737375 -0.087135516
0001b0 36 76 9a bd 87 5f 86 bd d7 2f 82 bd 79 4d 82 bd
       -0.07542078 -0.06561189 -0.06356781 -0.06362433
0001c0 c2 45 9f bd 4c d6 a0 bd 78 e2 95 bd 19 fc 82 bd
       -0.07776977 -0.07853374 -0.07318586 -0.0639574
0001d0 b3 74 84 bd 2b 23 7c bd 84 35 80 bd af 7b 81 bd
       -0.06467571 -0.061556976 -0.06260207 -0.06322419
0001e0 c9 ba 8e bd a5 d8 87 bd 1f e7 7a bd e8 43 67 bd
       -0.0696922 -0.066331185 -0.06125557 -0.056461245
0001f0 44 66 73 bd 60 40 6f bd f3 2d 76 bd b7 e1 77 bd
       -0.0594237 -0.058411002 -0.060102414 -0.060517993
000200 36 64 03 bc af a0 c4 bb cc 7c a2 bb 1c c4 b8 bb
       -0.008019498 -0.0060006003 -0.0049587246 -0.0056386124
000210 5a f1 a6 3b 17 a5 6f 3b 5c 50 c9 3a 05 85 b7 3a
       0.0050946893 0.0036566907 0.0015359032 0.0014001435
000220 18 16 0b bc 9e 4b 05 bc cc d7 ec bb 9c 3c b2 bb
       -0.008489154 -0.008135704 -0.0072278734 -0.005439354
000230 5d 39 db 3b b8 a2 9a 3b ac 5d 51 3b fb b6 b1 3a
       0.006690188 0.0047191046 0.0031946702 0.0013558561
000240 01 7d 5c bc ac 30 93 bc c0 41 a1 bc f7 b0 8e bc
       -0.013457538 -0.017967544 -0.019684672 -0.017418368
000250 e7 71 3d 3b f0 b2 8a 3b 36 78 37 3b f8 7b 1a 3b
       0.0028907002 0.004232757 0.0027995235 0.0023572426
000260 9b af c4 bc 78 6d 25 bd 9b 16 4b bd be ba 22 bd
       -0.024009516 -0.0403876 -0.049582105 -0.039728872
000270 b8 b9 09 bc 6f 19 eb 39 b8 6b b8 3a 06 64 97 3a
       -0.008406095 0.00044841642 0.0014070189 0.0011550195
000280 7a 0f 07 be 70 b0 18 be 2b b7 1e be 70 5e 17 be
       -0.13189498 -0.14911056 -0.1549956 -0.14782119
000290 68 d0 fa bd e1 a4 dd bd 4e 77 d5 bd 39 24 d4 bd
       -0.122467816 -0.10822464 -0.10423146 -0.103584714
0002a0 e6 b0 06 be 4f b0 0f be af 73 0d be fe e9 03 be
       -0.13153419 -0.140321 -0.13813661 -0.1288223
0002b0 00 4c e7 bd 0d a1 d9 bd b2 db d5 bd 26 a2 d9 bd
       -0.11293793 -0.10626421 -0.10442294 -0.106266305
0002c0 05 70 00 be 05 76 fc bd dd 13 f0 bd 66 6e dd bd
       -0.12542732 -0.12327198 -0.117225386 -0.108120725
0002d0 38 4c d4 bd 7d a4 d3 bd ab 78 da bd 26 cf dc bd
       -0.103661 -0.10334108 -0.10667547 -0.10781698
0002e0 71 25 f6 bd 80 f3 e9 bd 9c 4d dc bd 0d 02 cf bd
       -0.1201886 -0.11423397 -0.1075699 -0.10107813
0002f0 68 d4 d8 bd 1a bf d7 bd f9 fc da bd 6f d7 dc bd
       -0.10587388 -0.105344966 -0.10692782 -0.10783278
000300 85 fa bd bd 0b c8 d8 bd bd fe de bd c5 1b cc bd
       -0.092762984 -0.1058503 -0.10888431 -0.09966234
000310 6e f3 cc bd ab e0 b5 bd 19 eb aa bd e6 2a 94 bd
       -0.10007368 -0.08880743 -0.083456226 -0.07234745
000320 f6 42 16 be 5e 64 16 be 22 69 11 be 62 22 02 be
       -0.14673981 -0.14686725 -0.14200261 -0.12708429
000330 f0 ba b7 bd 05 59 a8 bd fe ea a7 bd ee 59 af bd
       -0.089712024 -0.08220104 -0.08199118 -0.085620746
000340 0c 7a 04 be 8c ff fe bd c1 cb f4 bd 16 16 d8 bd
       -0.12937182 -0.124510854 -0.119529255 -0.105510876
000350 35 7d 6f bd e3 20 21 bd 1a f9 10 bd 66 6c 41 bd
       -0.058469016 -0.039338004 -0.03539381 -0.047222517
000360 e7 4a 05 bd e4 c3 04 bd 67 fc 15 bd 8e 48 25 bd
       -0.032542136 -0.03241338 -0.036617663 -0.040352397
000370 e3 84 53 bd 66 68 36 bb 40 2d 8f 3c 4c a2 bb 3b
       -0.051640403 -0.0027833222 0.017477632 0.0057261344
000380 1d e2 c4 bd 85 93 d7 bd 7d 11 e8 bd 2e 31 f1 bd
       -0.0961344 -0.10526184 -0.113314606 -0.117769584
000390 fb 10 09 be 8a 5e 9b bd 1f 31 52 bd 3b 61 62 bd
       -0.13385384 -0.07586391 -0.051316377 -0.055268507
0003a0 5e c4 ec bd cf fb da bd 7b 54 b3 bd 82 af 7a bd
       -0.115608916 -0.1069256 -0.08756348 -0.061202534
0003b0 7c 89 c1 bd 84 a8 a8 bd a4 62 b0 bd 03 a6 ce bd
       -0.09450051 -0.08235267 -0.08612564 -0.10090258
0003c0 ff fc 6d bd 7e 1a 18 bd 5b d2 b9 bb 2e 07 da 3c
       -0.058102604 -0.03713464 -0.0056708283 0.026614752
0003d0 4f f8 78 bc 29 3e bc bc 7f bf 22 bd 4b 70 76 bd
       -0.01519592 -0.022978859 -0.039733406 -0.060165685
0003e0 5d da 58 3c 90 ba db 3c 81 55 4a 3d ac e1 93 3d
       0.013235656 0.026822358 0.04939795 0.07220778
0003f0 f5 7a 85 3d 2f f9 60 3d f4 85 3f 3d 69 48 35 3d
       0.06517593 0.05492514 0.046758607 0.04425851

cnn.8.bias f4 [3]
000000 29 72 0c 3f 2a 9c 1b 3f 6a 86 34 3f
       0.54861695 0.6078516 0.705176
