models/AlinaCNN/encoder_weigths.pth (torch, 520199 bytes, 10 tensors)

cnn.0.weight f4 [32, 3, 8, 8]
00000000: 982f 853d ca8b 683d 433f b3bc ea8f d8bb
00000010: dedd a73d 4c81 1a3d e7da 823d 53d5 333d
00000020: 0a71 d5bc ccd1 9d3d 322c 843d d3fb a23d
00000030: 1878 853d c1bf be3d 20b0 9c3c d064 aabb
00000040: b9c1 af3d f00c 2fbd b841 583d 4322 4fbc
00000050: 221e 663c c17a cebc 5d1d 5cbd 4b1d a33c
00000060: c185 84bb 70c4 81bd ddc2 823d e079 0a3d
00000070: 0e3d 88bd ac50 cfbc 0200 dd3c 2f7f 943d
00000080: ca1b 3c3c bf45 bbbb c394 8abd 450d 9bbc
00000090: 3a4b 273b 586d 9f3c c3e0 903c d4b0 323d
000000a0: 9021 a43c a4e1 96bd 6bd7 743d 3e40 edba
000000b0: c857 06bd 2cdb 70bb bf20 f6bc 2277 ecbb
000000c0: a4ef 87bd 9195 6dbd e1b1 193c adf4 73bd
000000d0: 560a b63c 154e 3d3d a014 d93c fb0c dfbc
000000e0: e725 38bd 4bb5 9ebd 30e3 3b3b 16b7 5c3d
000000f0: 5610 873d 29d9 9e3b 27bf 593d feaf ab3d
00000100: 695b de3c 8c3b 06bd 91fb e6ba e8aa aa3a
00000110: 9d9a 483d 58a9 27bd f584 893d 943e 14bd
00000120: 42c4 8ebb 2dab f63c ce3f 61bd 63ab 1cb9
00000130: 94a8 0e3d 9a49 f63c f552 a83d ac3f b13d
00000140: 71d4 383d 25dc 29bd ae43 30bd 68dc 153d
00000150: 1a72 a13d c2fb 21bd 56d9 f13c c617 8a3d
00000160: 709e 34bd 6f09 c93c e835 41bd 75f3 44bd
00000170: daa9 793c 6306 5fbd 34db 66bd dab9 b93c
00000180: 1b04 d33c c064 8fbd 2479 6f3d cacc 5b3d
00000190: 8910 583d a173 e2bc 10be 6bbd a4a4 4d3c
000001a0: 6fd4 c2bd fcd7 21bc bfd7 973c 5481 93bd
000001b0: ab06 eabc 5902 84bd 4fce 633b f1da 29bc
000001c0: 0ba4 943c 2f86 52bd 1b07 06bc c104 23bd
000001d0: 73ca 14bd 1176 e43c f561 3a3d d90c 163d
000001e0: 4749 85bd 0f51 583c 052a aebd cf51 c73a
000001f0: bcee ff3c 0e55 c3bc 742c 813d 39eb f63c
00000200: 93bf 18bc 7a6a 663d d2aa 8fbd 6665 913c
00000210: 08db 7ebd f1db 1ebc d506 48bd 1d02 673d
00000220: 1f70 6dbd f871 79bd 854b 24bd e7d0 5fbd
00000230: c375 babc e132 7d3d 328a e73c ecb7 b13d
00000240: e390 09bc 9137 2cbd 9a17 79bc 8a8c 8e3c
00000250: b7a7 7c3d 5407 063c 1795 cc3c 6103 f43c
00000260: a907 b1bd 7ecd c53c a094 d7bc c466 2e3d
00000270: e772 733c 68d8 ef3c 1392 e63c c4f9 15bd
00000280: 6428 963b 2528 b8ba 478f bb3c 6523 a1bc
00000290: d82e 1abd a1a9 c13d cda3 973d e237 063d
000002a0: 02e5 16bd ee30 b53b 44cc c03c a939 10bd
000002b0: 3091 1a3d dd97 403d febd 33bd c1b1 e3bb
000002c0: d470 9bbd 8f8f c33c 3f87 b8bc 058c 50bc
000002d0: 5921 033d 8631 b83d 3fc6 a73d 714b eb3d
000002e0: be15 c0bc 58ea 26bd ce42 0dbd 2f1d b7bc
000002f0: 2374 6c3d 30cc 423d 9720 ef3d 74fc 73bb
00000300: 5657 1abd fdb0 3abd ab66 13be 91cb 21bd
00000310: 0682 25be 830b 1fbe 253b c0bd eaa8 8d3c
00000320: 4689 49bd b1d2 4abb 0603 babd 219f b3bd
00000330: 40f0 15be b98e f2bd 74fe 01be 0fdf cabd
00000340: ca4c 513d a034 e33d 544e 9cba 831a d6bc
00000350: 1d00 f0bd 4e86 11be d1ba 41be fd19 3ebe
00000360: 1441 c93d 3db9 eb3d bbff 9a3d 14e7 ad3d
00000370: d310 57bd 3600 4fbe f520 13be 6f71 36be
00000380: 101b 273e e4b2 8f3e d2f1 a43e d7ce 4e3e
00000390: e7ef ca3d c655 6fbc 252a 52be 55d9 49be
000003a0: 0387 8f3e 27af 863e eb6d a33e 16d8 8f3e
000003b0: e01b cf3d 002b 85bd 755b cdbd 5d21 5fbe
000003c0: 3e22 3e3e b7ed 7d3e 80fa bd3e 0dca 983e
000003d0: 08c8 a33c 72ae 82bb e260 33be 959e 61be
000003e0: fac4 513e 0d97 533e 9fe6 7c3e ecc1 0a3e
000003f0: 5925 833d f2cf 753b ba62 63bd 2239 ecbd
0.065032184 0.05677394 -0.021880751 -0.006608953 0.08196615 0.037720963 0.063894086 0.043904614
-0.026054878 0.07706031 0.06453742 0.07958188 0.06517047 0.09313918 0.019126952 -0.005200006
0.085818715 -0.042736948 0.05279705 -0.012642446 0.01404527 -0.025205018 -0.05373894 0.019911429
-0.004044265 -0.063362956 0.063848235 0.033807635 -0.0665227 -0.025307022 0.026977543 0.07250821
0.011481235 -0.0057151015 -0.06766655 -0.018927226 0.0025527016 0.019461319 0.0176853 0.043625668
0.020035535 -0.07367256 0.05977575 -0.0018100811 -0.03279856 -0.003675173 -0.030044911 -0.00721635
-0.06637505 -0.058003966 0.009380789 -0.059559513 0.022221725 0.046217043 0.026499093 -0.02722787
-0.04495802 -0.07749423 0.002866935 0.05388554 0.06594913 0.004847665 0.053160813 0.08383177
0.027143197 -0.032771632 -0.001762258 0.0013020905 0.048975576 -0.040932983 0.06714813 -0.03619249
-0.004356892 0.03011092 -0.05499249 -0.00014941166 0.034828737 0.030064393 0.08218948 0.086547226
0.045124475 -0.04146971 -0.043033294 0.03658715 0.07883091 -0.039546736 0.02952258 0.06742816
-0.04409641 0.024540631 -0.04717055 -0.04808374 0.01523825 -0.05444945 -0.056361392 0.022671629
0.025758794 -0.070016384 0.058465138 0.0536621 0.052750144 -0.027643027 -0.057554305 0.01255146
-0.09513175 -0.009878155 0.018535493 -0.07202402 -0.028567633 -0.0644576 0.003476042 -0.010367141
0.018144628 -0.0513975 -0.008180405 -0.039799456 -0.036325883 0.02788833 0.045503575 0.036633346
-0.06508117 0.01320292 -0.08504108 0.0015206876 0.031241767 -0.023844268 0.06307307 0.03014146
-0.009323019 0.056253888 -0.07015003 0.017748546 -0.062220603 -0.009695993 -0.04883464 0.0563985
-0.057968255 -0.060899705 -0.040111084 -0.054642584 -0.022761231 0.0618161 0.028264139 0.086776584
-0.00839636 -0.04204518 -0.015203381 0.017400999 0.061683383 0.008180458 0.024973435 0.029786767
-0.08644039 0.024145838 -0.026315987 0.042578474 0.014858938 0.029277995 0.028145825 -0.03661515
0.0045824517 -0.001405005 0.022895468 -0.019670198 -0.03764233 0.09456182 0.074042894 0.032768138
-0.036839493 0.0055295145 0.023534901 -0.03521124 0.037736118 0.047019828 -0.043882363 -0.00694868
-0.0758988 0.023872165 -0.022525428 -0.012728696 0.032014225 0.08993821 0.08192109 0.11488999
-0.023447867 -0.04075083 -0.034487538 -0.022352783 0.057727944 0.04755801 0.11676138 -0.0037229331
-0.037680946 -0.045578945 -0.14394633 -0.039500777 -0.16162881 -0.15531735 -0.09386281 0.017292459
-0.04920318 -0.0030948336 -0.09082608 -0.08770586 -0.1464243 -0.118436284 -0.12694722 -0.09905826
0.051098622 0.11094022 -0.0011925199 -0.026135689 -0.117187716 -0.1421139 -0.18918921 -0.18564601
0.09826866 0.11509941 0.07568308 0.0849134 -0.05250628 -0.20214924 -0.14368041 -0.17816709
0.16318917 0.2806617 0.32215744 0.2019609 0.09909039 -0.014607852 -0.2052389 -0.19711812
0.28032693 0.26305506 0.31919798 0.28094548 0.101127386 -0.06502342 -0.1002721 -0.21790071
0.1856775 0.24797712 0.3710518 0.29841653 0.019992843 -0.0039880807 -0.17517427 -0.2203315
0.20485297 0.2066309 0.2469735 0.13550538 0.06403608 0.0037507978 -0.055514075 -0.11534335

cnn.0.bias f4 [32]
00000000: 6352 afbe eb1a fc3c 4a51 ae3e 93a1 7bbe
00000010: 78d2 8fbe dec6 a6be b3fd cebc cc1a 35be
00000020: 6ae3 99be f7c3 70be b10e b9be 020e c8bd
00000030: fdb9 efbd 5285 7bbe b4db 6abd 7e41 87bd
00000040: 662f 07be a9ba 35be cfbb e8bd a4a7 893c
00000050: bb5b 58be ec00 ed3e 9705 34be 33af 66be
00000060: 4cca a23e 6407 9ebe c6f3 8ebe 7290 98be
00000070: 9c6c 51bd 07bd 23be 1a4e 29be 78cc 1cbe
-0.34242544 0.030774554 0.34046394 -0.24573354 -0.28090262 -0.325736 -0.025267458 -0.17686003
-0.30056316 -0.23512255 -0.3614402 -0.09768297 -0.11705396 -0.24562576 -0.05733843 -0.066042885
-0.13201675 -0.17746986 -0.11363947 0.01680357 -0.21128742 0.46289766 -0.17580257 -0.2252777
0.31794965 -0.30865014 -0.2792036 -0.29797703 -0.05112897 -0.15990077 -0.165337 -0.15312374

cnn.2.weight f4 [64, 32, 4, 4]
00000000: 5b37 91bc e7e8 1dbd 172f 9cbc f3a8 a43c
00000010: 038d abbc 7f59 18b8 a828 1e3d 9a03 123d
00000020: 4286 253d ab81 f93c 076e 05bb 93f5 b8bc
00000030: 55e4 db3c 3d31 463a c4af 2bbd c15d 3b3c
00000040: 57f2 29bc e712 06bc 7698 dc3c dbb2 de3c
00000050: fb3b 0f3c 294c fcbc 118b c13c f148 fa3c
00000060: 55eb 243d d76c eb3c 8966 8abc 7af1 38bc
00000070: dd49 88bc 6072 eebc ca33 cabc 085d 213d
00000080: 4d9d acbd 88db a5bd 1779 63bd f2d0 8abd
00000090: 4b5b f7bc 75c0 cabd 582b c6bd b4cc 11bd
000000a0: e8bb c9bd 6c91 aabd 17f5 b4bd 7d62 a3bd
000000b0: ef65 58bd 0b53 5abd ab37 22bd 5043 b0bc
000000c0: 4608 0e3d 8af7 2f3d 607a e3bb 4b77 243c
000000d0: 3906 e0bb 3442 123c 64a7 333d 766d 023d
000000e0: b2c4 e53c cd09 943c 48f0 3c3d 6c13 6b3c
000000f0: 92a7 90bc 66f3 09bd 9017 523d bade 0b3d
00000100: 696b e7bb 7b33 fe3c 968b 0dbc 034b 0cbd
00000110: 217b fdbc 057c 1d3d f5ef db3c 625b 8c3c
00000120: f26a 0fbc 1df2 06bd 4d9a 85bb 2873 07bd
00000130: a4ba 963a 4745 84bc 0f88 e83b 9af0 e73c
00000140: 0fd3 cebb 77c2 ef3c 7531 913c 7511 e93c
00000150: e8b9 1ebd be7a ee3c f711 ebbc 0a88 be3c
00000160: 6066 cf3b 97e1 823c 809f 723c dd8d 1fbc
00000170: a695 91ba 0cec 37bd 27cd 07bc a8f8 cdbb
00000180: 1bbd 0b3d 43ec fd3c a925 07bd 49d8 4abc
00000190: 6934 5c3c faa5 10bb 44a7 463d 16e1 cb3c
000001a0: ff79 c93c 662d e83a d3fa bc3c 440f 983c
000001b0: 43a5 a73a d9aa 093d f8ac 093c 255f 2c3d
000001c0: bb0f 2cbc 9052 2fbd 73ea 4ebd a6f7 e53c
000001d0: 208a cebc 00a2 afbb 0133 42bb 4a09 1abd
000001e0: 508b 413b 67e4 5ebd c3b1 60bd a7a8 e9bc
000001f0: 8249 bcbb 81d8 c8bc a072 b33c 8e8e 1abc
00000200: 7480 d5bc 1337 e53c 10ac 8dbc d5a0 c5bc
00000210: 633a 52ba bc75 ae3c abba 303d 37ee 113d
00000220: 67ff d93c 1304 84ba ed42 e53c d298 393d
00000230: bf0e 293d 7b46 7fbc 7c41 ed3b 1c77 2d3d
00000240: 8f4b 50bc 32c2 51bd 4307 8bbb d78a 24bd
00000250: 4156 4e3a 89f5 c33b c5d4 3bbd c976 9c3c
00000260: 1c27 b2bc d3a4 a8bc 6f07 7a3c 5584 97bc
00000270: 87f0 3d3a 959e fd3a 80cc 403c 78ca a3bc
00000280: 3917 1dbd 7012 bd3b 535b c33b 94a0 3d3d
00000290: 5d58 133d 6af0 963c ebd9 003d 0b79 86bc
000002a0: e185 463b 4b74 333d 3c7f 763c 53e6 863c
000002b0: 65d4 93bc f0b0 c13b 6242 b13c adb2 7bbc
000002c0: eca0 f73a 2f83 6c3c 9a4d 1e3d 5f3f 88bc
000002d0: ddf5 08bc 0193 723b 635e 7a3c cfa6 11bd
000002e0: 3d61 8bbb 0ca4 513d a71a 2dbc e8d4 03bd
000002f0: 9c4d 323d 2e2c be3c 2c9b 9bbc 02e6 003c
00000300: abb0 c23c 12c5 2c3d 7457 083a a719 543c
00000310: 5fd0 0c3c fe2f 5dbc e08b 4c3d 613a 55b9
00000320: 3848 1b3d 6616 5b3d 571c c5bc ef49 133d
00000330: b009 a0bc 3f09 e3bc 7c8b e73b 540b 09bd
00000340: e676 bebc 2080 90bc 504d 683c d7d5 013d
00000350: b724 f73c 79fe 6cbc a1c9 8bba b64f 883a
00000360: 72b8 f63c 4f0f 0cbd 8210 163d b03d 453d
00000370: 6683 d63c 6ec4 f2bc 2610 ef3c 84bb 2b3d
00000380: bd0c 4d3c 2f44 0abd 7f4d f03c 2ece e13c
00000390: 1634 34bb 31c6 1a3d 460f dabc bda1 043d
000003a0: 7581 103d b0e7 8e3b 183f e93a 4317 eebc
000003b0: 57fa 13bd 0f28 a1bc 0890 aebc 08e3 8bbc
000003c0: 97ca 343d a792 ea3c 1f90 e93b b2ec d73c
000003d0: 1171 2f3d e7c7 c93c 1640 06bd 44cc c63b
000003e0: 01bb 6c3c 7ef8 b2bc 9679 dbbc 1759 b6bc
000003f0: 4b41 b3bc 3f38 e73c c96b a53b cee4 62bc
-0.01772659 -0.03855219 -0.019065423 0.020100093 -0.020941263 -3.6322974e-05 0.03861299 0.035647966
0.04041124 0.030457338 -0.002035977 -0.022578036 0.026842276 0.00075604377 -0.04191567 0.011435927
-0.01037272 -0.008183218 0.026928168 0.027184894 0.008742328 -0.030798035 0.023625882 0.03055236
0.040263493 0.028738422 -0.016894596 -0.011288041 -0.016636783 -0.029107273 -0.024682898 0.039395362
-0.0842844 -0.08098513 -0.055535402 -0.067781344 -0.030194899 -0.098999895 -0.09676236 -0.03559561
-0.098502934 -0.08328518 -0.0883581 -0.079777695 -0.052831586 -0.053301852 -0.03960387 -0.021516472
0.03467586 0.04296068 -0.0069420785 0.010038207 -0.0068366793 0.008926917 0.043860808 0.03184267
0.028047893 0.01807108 0.046127588 0.014347892 -0.017658029 -0.03367939 0.051292002 0.034147955
-0.007062365 0.031030407 -0.008639237 -0.034251224 -0.030942502 0.038448352 0.026847819 0.017133418
-0.008753525 -0.03294574 -0.004077232 -0.033068806 0.0011499715 -0.016146315 0.0070962976 0.02831297
-0.0063117812 0.029267533 0.017723778 0.028450707 -0.038751513 0.029111262 -0.02869509 0.023258228
0.0063293427 0.01597671 0.014808536 -0.009738413 -0.0011107221 -0.044902846 -0.008288658 -0.0062857457
0.034115892 0.030996447 -0.0329949 -0.012380668 0.01344023 -0.0022071586 0.04849936 0.024887603
0.024594305 0.0017713725 0.023068821 0.018561967 0.0012790341 0.0336102 0.008403055 0.042082924
-0.010501797 -0.042803347 -0.050516557 0.02807219 -0.025212348 -0.005359888 -0.0029632451 -0.037606515
0.00295325 -0.05441704 -0.054857027 -0.028522803 -0.0057460675 -0.0245173 0.021905243 -0.009433402
-0.026062228 0.027980363 -0.01729396 -0.024124542 -0.00080195646 0.021296374 0.04314677 0.03562757
0.026611043 -0.0010072015 0.027986014 0.045311756 0.04127383 -0.015580769 0.0072404724 0.04234992
-0.012713327 -0.05121059 -0.004242809 -0.04017147 0.0007871129 0.005980198 -0.04585721 0.01909961
-0.021747164 -0.020586407 0.015260561 -0.018495718 0.0007245619 0.0019349629 0.011767507 -0.019994006
-0.038352225 0.00577002 0.0059618144 0.046295717 0.03597294 0.018425185 0.031457823 -0.01641514
0.00302922 0.043812077 0.0150449835 0.016467249 -0.018045614 0.005910985 0.0216381 -0.015362424
0.0018892563 0.0144355735 0.038648225 -0.01663178 -0.0083594 0.003701389 0.015281293 -0.03555947
-0.004253535 0.051181838 -0.010565436 -0.032185465 0.043531045 0.023214426 -0.01899489 0.007867338
0.023765882 0.04218013 0.000520102 0.012945569 0.008594601 -0.013500212 0.049938083 -0.00020335011
0.03791067 0.053488158 -0.024061365 0.03595918 -0.01953587 -0.02771437 0.0070661884 -0.03345807
-0.023250055 -0.01763922 0.014178589 0.031698074 0.030168874 -0.014464968 -0.0010664948 0.0010399732
0.030117247 -0.034194287 0.036636837 0.048154533 0.026185703 -0.02963468 0.029182505 0.041926876
0.012515244 -0.03375643 0.029333828 0.027564134 -0.0027496866 0.037786666 -0.026618611 0.03238081
0.03527971 0.0043611154 0.0017795293 -0.029063826 -0.036127415 -0.019672422 -0.021308914 -0.01707603
0.044138517 0.028634382 0.0071277763 0.026357982 0.042832438 0.024631454 -0.03277596 0.006066831
0.014448882 -0.021847006 -0.026791375 -0.022259278 -0.02188172 0.028225062 0.0050482494 -0.013848497

cnn.2.bias f4 [64]
00000000: 1090 bc3c 3651 58bc 1c1d c7bc 625a 3abe
00000010: b44b 86bd 156a 25bd a7cf ab3c cc28 d93c
00000020: b674 82be ad9e 42be 62fe 00bd b280 a43e
00000030: f887 903b 2ab9 fa3c 381f 053c d39b 23bd
00000040: 4987 253d 284c 94bd c137 90bb 6d5c 69be
00000050: b042 7ebe c97f fa3c 9e03 04bd 232a a1bc
00000060: 2d5a 8abc d6ef 273d 87bf a2be 529d acbd
00000070: bba5 65be 9795 7a3c 3c57 0ebe 62da 77be
00000080: a78a e43c 99b9 83be 6c10 3ebe 5b5f 453e
00000090: 0222 54bb 6d57 3fbe 19a4 353d b391 27be
000000a0: 8901 90bd 1419 013c 7e37 623e 0806 9dbe
000000b0: 74fe 9e3d 5794 d9bd cdb6 373e 2e35 4fbd
000000c0: c5a9 b33c a26c 31bd 9afb 67bc d747 84be
000000d0: 7d5c 59bc a57a 10bd fbd7 ac3a 87f6 9abe
000000e0: 5889 f6bc c01a dd3c 972f b53c d2a3 d8bd
000000f0: 1b1b 26be 96aa 013d 0c9d a6bd 9b31 4bbe
0.023017913 -0.013202956 -0.024305873 -0.18198541 -0.06557408 -0.04038437 0.02097304 0.026508711
-0.25479668 -0.19005843 -0.0314926 0.32129437 0.00441074 0.030605871 0.008125119 -0.039943527
0.04041222 -0.07241088 -0.0044011776 -0.22789164 -0.24830127 0.03057851 -0.032230012 -0.019673413
-0.016888702 0.04100021 -0.3178675 -0.08428444 -0.22426502 0.015294454 -0.13900465 -0.242044
0.027898146 -0.25727537 -0.18560952 0.19274656 -0.0032368903 -0.18685694 0.04434595 -0.16364174
-0.07031543 0.007879514 0.22091481 -0.30668664 0.07763377 -0.10623997 0.17940827 -0.050587825
0.021931538 -0.04331649 -0.014159108 -0.2583606 -0.01326668 -0.035273213 0.0013186926 -0.3026621
-0.030094787 0.026990294 0.02211742 -0.10578121 -0.16221277 0.031656824 -0.08135423 -0.19843142

cnn.4.weight f4 [64, 64, 3, 3]
00000000: 5b4d b9bc 9fe7 daba 77f1 213d f786 14bc
00000010: 4519 98bb 77a1 d13c 94c9 96bc 6af0 2dbc
00000020: cd62 173d 69c9 3f3c eec3 f3bc d84d 1bbc
00000030: 9063 743c 161c 3e3c 4289 89ba cf85 cebc
00000040: e973 f73c 9a4b 14bd 9361 c13c f397 923c
00000050: 6a0c 8d3c 3442 c639 44af 0b3d e6e1 0c3c
00000060: 37a6 29bd e2ee cd3c 8bae bc3b df16 e93c
00000070: 91fa 623b c0f9 05bd 3aeb 4fbb 4d0f d6bb
00000080: d3a8 d8bb 519e b63c d5dc da3c b821 323c
00000090: ad38 d0bc 8f6b 8d3c 2b29 14bd c617 37bc
000000a0: 242f 10bd 037b 363b 9361 fdbc bae0 90bc
000000b0: b0a3 263d 22eb a2ba 16e0 9b3c 58df f73c
000000c0: 802d c13c ce9b 913c 25ba fa3c 95fc 873b
000000d0: 8688 79ba 9bff 903c 0954 a6bb f3cf f53c
000000e0: 3a33 9abc 3daa 1cbd cf2b 093d 148e a13a
000000f0: 4b74 b13b 483f 133d c314 2d3c afe0 1cbc
00000100: 9872 cd3c 7ab7 9abc e785 14bd 4cc6 33bd
00000110: 336b d6bb 5adb 08bd 7b3a 98bc 87cd 083d
00000120: ba1e 6cbc 0e66 303c b026 21bc cba4 87bc
00000130: d63c 6d3c ab27 c43c e347 273d 0cd1 1d3c
00000140: 2004 443c ab41 fb3b f375 71bc fa36 b7bc
00000150: 6f5d f83c 076f b5bc dbd4 1abd 4e08 ff3c
00000160: a622 153c 2974 f2bc f1eb 10bd 2a9c 1e3d
00000170: 0912 073d 8026 41bc 14c6 f5bb 0a23 883a
00000180: b5e1 17bd 166f 3bbb 8c59 ea3a e4e0 20bd
00000190: 0910 72bc 6571 4cbc 3282 0c3d c072 653b
000001a0: 2d1f cfbc 32f9 1abd 2fda 123d 2373 36bc
000001b0: 2ad9 0cbd 6c03 2bbc 4306 113d 3917 ecbc
000001c0: bf11 1c3d bde8 7f3c 6aeb fcbb 7317 b93c
000001d0: c755 ecba cd5d ac3b fdd1 9a3a 863c a6bc
000001e0: 28ea bfbc bbda 26bd a99a 843c 8a93 a83b
000001f0: b2e3 ae3c 146b 14bd f781 ef3c b56f d63c
00000200: 19eb c0bc 5544 2fbd b7c5 6d3c a824 d63a
00000210: adf0 bfbc f63d e33c edd1 3f3b fa8a c7bc
00000220: 05d7 aa39 161e 12bd 1d51 a93b 368d fabc
00000230: 3646 43bc 27d8 92bb 9b9f 06bd 585e e6bc
00000240: 5e91 a1bc 01aa d13c 3e75 0cbd f937 83bc
00000250: d69c a93c 077c e2bc 2341 e8bb b0aa f9bb
00000260: 45f2 1bbd 2da3 1abd beaa 143d 3c1c 00bd
00000270: e110 0cbd d0e1 14bd bb89 4b3c 2385 67bc
00000280: 94be c2bc 1d4c cf3b 0e3f 6dbc d9ac 05bd
00000290: 50c6 043d e5eb 1abd e4a3 c4bc c464 113d
000002a0: 0049 08bc d468 0c3c 2c41 b03c 7bc5 f93b
000002b0: 7956 f23c 86fb 1cbc 6115 7ebc 51ad 19bd
000002c0: 77d4 3ebc 07c0 d9bb 4e22 b53c dd9c abbc
000002d0: 20a8 e43b 7fb0 f7bb 1170 1abd a9ac c2bc
000002e0: ae48 c8bb cbb5 06bc 0609 df3c bbb4 0e3c
000002f0: 0bb4 983c 3cbc 0e3d 9c35 d4bb 5e17 a93b
00000300: 3b55 2ebd bbf7 8abc 1f54 123d a765 85bb
00000310: 3d26 a6ba 4f03 4ebc be47 07bd a35d f03c
00000320: d6e8 d23b f627 ca3b f379 f8bc 76cc 12bc
00000330: bb77 393c 9b5c 60bc aff9 05bd 1687 ab3c
00000340: 9ed1 ebbc f86b 473c fa00 04bc be62 2ebc
00000350: 687e e7bc c5cc 6b3a 897d 01bd fb34 633c
00000360: 9f5d 27bd 0912 0ebd eb30 793c 6be9 df3b
00000370: ca42 7fbc c960 253c 8b76 ffbc 8037 7cbc
00000380: dbaf f83c bd96 b43c a6be 10bd b1b1 2bbd
00000390: 8010 f9bc 3df9 6a3c 230b 0fbd 51b6 2a3c
000003a0: c4fb 373c 1de2 ff3c ded7 30bd e6e5 023d
000003b0: 7fb0 e8bc e4b7 01bc ae23 7d3b d119 30bd
000003c0: 87b7 6bbc c291 ccbc 7670 e63b b75d 83bb
000003d0: ba1c 31bd 8fab de3c 4191 8ebb 6eea 0fbd
000003e0: fa28 703b fc8b 98bc a19f 8dbc 1645 8337
000003f0: 784b 33bc 7060 b63c 147d 3cbd b8ad 38bd
-0.022619894 -0.0016701109 0.03953692 -0.009065381 -0.0046416842 0.025589688 -0.018406667 -0.010616401
0.03695946 0.011705735 -0.029756512 -0.009479009 0.014916316 0.011603376 -0.0010493177 -0.02521029
0.030206637 -0.03620491 0.023606097 0.01789472 0.017217834 0.00037814828 0.034102693 0.00859878
-0.04141828 0.025138322 0.005758112 0.028453289 0.0034634212 -0.032708883 -0.00317259 -0.0065325857
-0.0066119223 0.022292288 0.026716629 0.010872297 -0.02541765 0.017263202 -0.036172073 -0.011175102
-0.035201207 0.0027844317 -0.030930316 -0.017685283 0.04068345 -0.0012429694 0.019027751 0.030257866
0.023581266 0.017774489 0.030606339 0.004149983 -0.000951894 0.017700007 -0.0050759357 0.030006384
-0.018823255 -0.03824829 0.033489045 0.0012325668 0.0054154745 0.03594902 0.010564032 -0.009575053
0.025079057 -0.018886317 -0.03626051 -0.043890283 -0.006543541 -0.033412315 -0.018582573 0.03339913
-0.014411623 0.010766519 -0.009835884 -0.016558072 0.014479836 0.023944696 0.04084004 0.00963236
0.011963874 0.0076677403 -0.014737594 -0.022365082 0.03031799 -0.022147669 -0.03780065 0.03113189
0.009102499 -0.029596405 -0.03538126 0.03872315 0.032976184 -0.011788964 -0.0075004194 0.0010386419
-0.037080485 -0.0028600148 0.001787947 -0.039276972 -0.014774331 -0.012478207 0.03430385 0.0035011023
-0.02528342 -0.037835307 0.035852607 -0.011135849 -0.03438679 -0.010437828 0.035406362 -0.028819667
0.03810286 0.015619454 -0.007718493 0.02259419 -0.0018030935 0.0052602054 0.0011811849 -0.020292532
-0.023427084 -0.04073594 0.016187029 0.005144541 0.021348808 -0.03623493 0.029236777 0.026176313
-0.023549603 -0.042789776 0.014512471 0.0016337829 -0.023430193 0.027739506 0.0029269413 -0.024358261
0.0003258513 -0.035673223 0.00516714 -0.030584913 -0.011918595 -0.004481334 -0.032867055 -0.028121158
-0.019722637 0.02559376 -0.0342915 -0.0160179 0.020704668 -0.027647031 -0.007087843 -0.0076192245
-0.038072843 -0.037753273 0.036295645 -0.031276926 -0.034195784 -0.036348164 0.012422974 -0.014130863
-0.023772515 0.006326212 -0.014480365 -0.032635543 0.032415688 -0.037822623 -0.02400393 0.03549649
-0.008318186 0.008569915 0.021515451 0.0076224185 0.029582249 -0.009581452 -0.015508027 -0.037518803
-0.011647335 -0.006645206 0.022111084 -0.020948822 0.00697805 -0.007558882 -0.03770453 -0.023763971
-0.0061121797 -0.008222054 0.027225982 0.008710082 0.018640539 0.034847483 -0.0064761173 0.0051602563
-0.04256175 -0.01696383 0.035724755 -0.004070956 -0.0012676191 -0.012574031 -0.033027403 0.029341524
0.0064364476 0.0061693145 -0.030331587 -0.00895988 0.01132005 -0.013693954 -0.03270882 0.020938437
-0.028786477 0.012171738 -0.008056873 -0.010643659 -0.028258517 0.00089950516 -0.03161386 0.013867612
-0.04086077 -0.03468517 0.015209417 0.0068332455 -0.015579889 0.010093876 -0.031184455 -0.015394092
0.030357292 0.022044534 -0.035338067 -0.041917507 -0.030403376 0.01434165 -0.03492273 0.010419444
0.011229459 0.031235749 -0.043174617 0.03195753 -0.028404472 -0.007917378 0.0038626003 -0.04299337
-0.014387018 -0.024971846 0.0070324494 -0.0040089744 -0.043240286 0.027181415 -0.0043508117 -0.03513568
0.0036645518 -0.018621437 -0.017288031 1.5648588e-05 -0.010943286 0.022262782 -0.04601772 -0.045087546

cnn.4.bias f4 [64]
00000000: 4a95 d03c 06ec b83d dabf 733c 6ad4 66bd
00000010: 67d0 d23e ca44 0a3e 2ff4 27bd 398a 1dbd
00000020: 22f6 573c 8570 bdbc a78c 93bc f51a 8abd
00000030: f1e2 9c3c be62 bfbd fbaa 1fbe 4ccc d03c
00000040: 6f0c 01bd 07ee 6ebd c625 d2bc 536c cd3c
00000050: 8d76 b33e cadd 563e 1db3 01bb a44f aa3c
00000060: be6f aa3c 2626 56bc 595e 6fbc fe99 53be
00000070: 3ea1 70bb 1bc0 6bbc 926e 53be 8870 7c3d
00000080: 8e23 823c 1c50 d23c baad 5b3e 83e1 38be
00000090: b8ba be3b 1563 25be ff0a 5bbd b582 823c
000000a0: e624 673c a789 2b3c ac5e 213d 62cc 00bd
000000b0: 3544 edbc 6331 9b3c 8a73 a53c 9ee5 acbd
000000c0: 9f92 45bc 6ec7 d93c c756 c8bd d5f9 c2bc
000000d0: 411e fcbc 7f4b 25bd 0045 febc 509c 01be
000000e0: 0665 9bbd a0f0 4d3e 5d54 a9bc 0736 a9bd
000000f0: 7074 0dbd 9d5b 893d 3f25 c03d f816 a53e
0.025461812 0.09029393 0.014877284 -0.056354918 0.41174623 0.13502803 -0.041004356 -0.038461898
0.013181241 -0.023124943 -0.018011404 -0.06743423 0.019151183 -0.093450055 -0.15592568 0.025488041
-0.031506 -0.05833247 -0.025652777 0.025076067 0.35051385 0.20983043 -0.0019790598 0.020789929
0.020805236 -0.013070619 -0.014609897 -0.20664212 -0.0036717202 -0.014389063 -0.20647648 0.061630756
0.015886094 0.025672965 0.2145299 -0.18054776 0.0058205985 -0.16151078 -0.053477284 0.015931467
0.014107918 0.010469831 0.039396927 -0.031444915 -0.028963188 0.018944448 0.020196695 -0.084422335
-0.012058883 0.026584353 -0.097821765 -0.02380077 -0.030776145 -0.0403552 -0.031038761 -0.12657285
-0.07587628 0.20111322 -0.02067011 -0.08262258 -0.03453487 0.06706927 0.09382104 0.32244086

cnn.6.weight f4 [64, 64, 3, 3]
00000000: 0893 e1bc 4b39 55bc 5032 7a3c 60d2 693c
00000010: 8873 8bbc c406 213d 7365 14bd 406d a13c
00000020: ec92 00bd bc78 11bd b0a2 4c3c c7aa 31bd
00000030: e226 b9bc 80ab 573c 6dde ccbc 1cb7 19bd
00000040: 4534 f9bc ab51 d1bc 103f 62bc 6b5a 8dbc
00000050: c01d 553c ee01 193d 537d 1d3d 6064 b2bb
00000060: 0078 6bbb a05e 0cbd aea3 a13c 8a17 b53c
00000070: c289 54bb 5ccd 2bbd 6817 443c de42 983c
00000080: 58f5 44bd d26e 0b3d 5173 95bc 6f40 d639
00000090: 0820 bd3c 2040 febc 8b3a 5abc ee2f 1c3d
000000a0: 5b39 e3bc e893 1ebd eb55 af3c 13a6 c03c
000000b0: d61e 13bd dd0f 3e3b ec07 54bd 70c6 8ebc
000000c0: 2fe9 2abd 0fb8 543c 7a12 d53c ce53 a43b
000000d0: 9be8 1dbd 976f 2ebc adde aa3c 3e74 23bd
000000e0: 9fbc db3c 95be 1e3d bab4 8dba e10e 64bc
000000f0: 2240 d33c 515f c7bc 1c2d d13c 060e 57bc
00000100: 3729 12bd a362 b03c 2b90 813c e639 20bd
00000110: 1e6f f3bc 20c6 1abc 165d d53c 204b 6dbc
00000120: 127b 463c 8ca9 da3c 4286 043c 4dea 133c
00000130: 6c70 8e3b 37e1 6a3c 1ccd 26bd 56c3 9b3c
00000140: a4ee 333c 3092 073c a844 acbc ab04 b039
00000150: 9b10 4dbc f632 29bd 5e6e 9cbc 80d9 c43a
00000160: c098 9d3c e083 c9bb 7606 003d 8e7f 0fbd
00000170: 7f24 1b3d d60c 9dba 7e3d ccbc e87c 06bd
00000180: d633 c5bc 2b73 99bc ae79 eebc d784 fc3c
00000190: 8919 c73c 1c36 5dbc 61ec 7bbc 2ac2 39bd
000001a0: 4c6b fbbc 6602 0f3b 5c44 fa3c 52db b0bc
000001b0: 592b e63c a2cd b43c 2249 20bd 968f babc
000001c0: 12a7 363c a2ae 883c 61a6 df3b 3b6f 993c
000001d0: db89 0f3d ef5d b1bc be63 2cbd e2ca 55bc
000001e0: eec5 fcbc a1bd debc e934 4fbb 4550 6fbc
000001f0: 7799 1ebc e941 aebc de1d 443c d42e 203c
00000200: b041 a23b fde9 2cbd c6ea 9dbc 7d51 83bc
00000210: 2834 8a3c 0460 80bb 2ba5 323c 1ef3 ac3c
00000220: 1633 cd3b 9b8d 873c 5bd0 1abd d638 c13a
00000230: 9bf6 afbc 587a 27bd 9612 ab3b aef4 b43c
00000240: 205f 8abc 0307 aebc e6f7 21bd 0074 f539
00000250: 004a 4d3c fe82 cebc c098 1bbb 5649 f2b9
00000260: 8bdb 5ebc 3b16 33bd 747b 19bd 6c20 79bc
00000270: 643e cc3c 6d71 c53c f0ae d03c 4bf3 ff3c
00000280: 76a7 be3c 2974 3cbd 7ea8 843c 1072 5ebc
00000290: 758f 933c 4b1e 66bc 56fe 073c cd48 03bd
000002a0: 3d2d 083d 02bd e0bc 214e 223d f816 153d
000002b0: 5647 29ba 004d 273b 73a2 9bbc 96f5 23bc
000002c0: d890 1dbd ee6c ec3c abed 5cba 4adf 00bd
000002d0: 8ef7 d2bc 3354 35bd 8c02 fbbb 9c17 223b
000002e0: fcfe 3ebb 1edb 8e3b 79d0 05bc 262a 023c
000002f0: db2b c5b9 b199 d0bc 614f 853c 7064 fb3b
00000300: 8404 bb3c aadd a43c 3482 43bd 1b04 0cbd
00000310: 41ad 043d ad5b a53c 687a 17bc 8bf4 80bc
00000320: 1100 ca3c 9e1a 21bd 6d2c 0bbc c22b 2abd
00000330: 0cb6 923c 050d 23bb ec65 7ebc 0bfe 08bc
00000340: e6c9 0c3c b69d 763c abea 3dbc 30ed 043c
00000350: 0e52 093d ee53 d53c 4bad ba3b 8094 75bc
00000360: cbd1 91bc c673 f4bc 8bb9 233c 0bef 933b
00000370: 2cc6 083d b646 dcbc 5641 d3ba 4493 083d
00000380: eb7d 18bd ca95 26bd 1ec0 c1bc e7d9 1fbd
00000390: 2e84 bdbc 232f 03bd bcf5 063d 104d f9bc
000003a0: b470 05bd abc2 ccb9 e62b 083d 2f53 963c
000003b0: 0c9b df3c 3922 c9bb 1f95 d73c 57c9 983c
000003c0: 6ff1 2e3d 861e eb3c c981 263d fefd 4bbb
000003d0: c7da dfbc 8bea 81bb 91c9 843b 4219 bfbc
000003e0: 3613 15bd 0b26 943c a7a9 a93c 06f7 e0bc
000003f0: 3652 213d 4b5b f53c 5ebb fcbc d615 c9bc
-0.02753593 -0.013014148 0.0152707845 0.014271349 -0.017022863 0.039313093 -0.036229562 0.019705415
-0.031390116 -0.035515532 0.01248996 -0.043375757 -0.022601549 0.013163447 -0.025008405 -0.037528142
-0.030420432 -0.025551638 -0.013808981 -0.017255029 0.013007581 0.037355356 0.038449597 -0.0054440945
-0.003592968 -0.03426993 0.019731369 0.02210595 -0.0032430743 -0.041943893 0.011968471 0.018586572
-0.04808554 0.034041233 -0.018243464 0.00040865268 0.023086563 -0.031036437 -0.013319622 0.038131647
-0.02773731 -0.038715273 0.021403274 0.02351669 -0.03591808 0.0029001154 -0.051765367 -0.017428607
-0.041726287 0.012983336 0.026009787 0.005014873 -0.038551908 -0.010646722 0.020858133 -0.03990578
0.02682334 0.038755972 -0.0010811307 -0.013919563 0.025787417 -0.024337443 0.025534205 -0.013125902
-0.035683837 0.021531409 0.015815815 -0.039117716 -0.02971607 -0.009446651 0.026045363 -0.014483243
0.012114303 0.026692174 0.00808865 0.00902803 0.004346898 0.014335922 -0.04072295 0.019014042
0.010982189 0.0082746 -0.021028832 0.00033572814 -0.012516166 -0.041308366 -0.019095596 0.0015018433
0.019237876 -0.006149754 0.03125616 -0.035033755 0.037876602 -0.0011981975 -0.024931666 -0.032833964
-0.024072569 -0.018731674 -0.029110756 0.030825062 0.024304168 -0.01350167 -0.015376181 -0.045351185
-0.030690812 0.0021821498 0.030550174 -0.021588955 0.028096842 0.02207071 -0.039132245 -0.022773545
0.011148231 0.016684834 0.006825254 0.018729797 0.03504358 -0.021651236 -0.04208731 -0.013048859
-0.030856099 -0.027190031 -0.003161723 -0.01460654 -0.009680144 -0.021271663 0.0119700115 0.00977679
0.004951678 -0.042215336 -0.019276988 -0.016030068 0.016870573 -0.003917696 0.010903637 0.021112021
0.0062621934 0.016547015 -0.03779636 0.001474167 -0.021479895 -0.04088816 0.0052207215 0.022089329
-0.016891062 -0.021243578 -0.039543055 0.00046816468 0.01252985 -0.025208946 -0.002374217 -0.00046212476
-0.013602148 -0.043722373 -0.03747125 -0.015205484 0.024932094 0.024101937 0.025474042 0.03124394
0.023273211 -0.046009216 0.016193625 -0.013576999 0.018012742 -0.014045308 0.0083003845 -0.03205185
0.033246268 -0.027433876 0.03962529 0.036398858 -0.0006457468 0.0025528073 -0.01899836 -0.010007283
-0.038468212 0.028860535 -0.0008427749 -0.031462945 -0.025752809 -0.04426975 -0.0076602157 0.002473331
-0.0029143682 0.004359617 -0.00816738 0.007944619 -0.00037607443 -0.02546391 0.016273202 0.007671885
0.022829302 0.020125229 -0.047731593 -0.034183603 0.03239179 0.020185316 -0.0092454925 -0.015741607
0.024658235 -0.039332025 -0.008494479 -0.041545637 0.017909072 -0.0024879586 -0.01552723 -0.00836135
0.008593058 0.01505225 -0.011591594 0.0081131905 0.03352552 0.026040997 0.0056969277 -0.014989018
-0.017800232 -0.029840361 0.009992967 0.00451458 0.033392116 -0.026889186 -0.0016117494 0.03334357
-0.03722946 -0.040670194 -0.023651179 -0.039026167 -0.023134317 -0.032027375 0.032949194 -0.030432254
-0.032578185 -0.0003905495 0.03324499 0.018350212 0.027295612 -0.006138113 0.026316224 0.018650694
0.042710718 0.028701078 0.040651117 -0.0031126733 -0.027326 -0.0039647273 0.004052349 -0.023327474
-0.036395274 0.018084547 0.02071078 -0.02746154 0.039385043 0.029950758 -0.030851062 -0.024546545

cnn.6.bias f4 [64]
00000000: a4e6 23bd f6f2 303d 4e00 b4bb 5ba8 513d
00000010: 3dcf f13c e27b d53c 4e1b 97bc 5303 d53c
00000020: efba eb3b c07b 443d 3e12 d6bc a831 453d
00000030: c07f 21bd c34f 8fbc 6272 e83c 3d99 03bc
00000040: 7126 bf3c 4515 56bb db15 373d 7cba 92bc
00000050: e0a8 bdbb ead8 52bc 5af5 cebc 7c68 493d
00000060: 83e8 a63c 300f 16bc 3337 23bd e5d7 0dbd
00000070: a8c4 d2bb 21a3 393d aff6 4a3d a43d 453e
00000080: fda7 143d 4439 07bd c90f 6c3e f3ca 13bd
00000090: 41e6 5f3c 97fa bbbc 8a0c 563c 23bd 9a3c
000000a0: c27f 45bd 3b63 f0bb 0e36 663d 043b b2bc
000000b0: 905e f6bc df10 93be 8f37 c1bc 7b31 9a3c
000000c0: 9110 28bd 9de8 cf3b 2a1f bcbc 1af1 4dbc
000000d0: 88d4 c33a 8789 64bd fdfa 7ebe 1a5b b43c
000000e0: 2eb7 c039 61d7 063c 3f6e 303d 6af3 743e
000000f0: 932a 053d c746 e43c 6834 a83e 9656 e6bb
-0.040014878 0.043200456 -0.0054932004 0.051185947 0.029517764 0.026060048 -0.018445637 0.026002562
0.007193915 0.04796958 -0.026131745 0.04814306 -0.039428473 -0.017494088 0.028374854 -0.00803214
0.02333376 -0.0032666486 0.044698577 -0.017911188 -0.0057879537 -0.012869099 -0.025263477 0.04917191
0.020374542 -0.009158894 -0.039847564 -0.03462972 -0.0064321347 0.045321587 0.049551662 0.19261795
0.03629302 -0.033013597 0.23052897 -0.03608222 0.013665737 -0.022946639 0.013064513 0.018889016
-0.048217542 -0.007336048 0.056203894 -0.021756656 -0.030074388 -0.2872381 -0.023586063 0.018822422
-0.041031424 0.0063448683 -0.022964079 -0.01256969 0.0014940659 -0.05579522 -0.24900432 0.022016097
0.00036757573 0.008230061 0.04307389 0.2392098 0.032511305 0.02786578 0.32852483 -0.007029365

cnn.8.weight f4 [64, 64, 2, 2]
00000000: a8c0 76bd e89e 33bc 4889 64bd 0076 8c3b
00000010: d057 243d 0813 4fbc c2a3 47bd c81e 0b3c
00000020: 209c 713c 0a06 4bbd 30b5 c3bb a4a5 333d
00000030: 8ecd 173d 90e3 013d d452 9a3c 067c 083d
00000040: 46b2 263d 3cd5 963c 8854 42bc 4833 39bd
00000050: 2a5f 4cbd 8851 4e3d 7cda f8bc c6f4 163d
00000060: ee3e 14bd 5007 60bd 000d 833a 5822 15bd
00000070: 4073 233b 545c d7bc aa5b 2c3d cce4 2fbd
00000080: 7073 64bd 5846 593c 40f4 f73b f835 68bd
00000090: 9cf1 e53c 2810 8dbc 843d c2bc 7c57 9abc
000000a0: d00e 07bd 3e79 393d 426e 65bd e0d7 92bc
000000b0: 5d67 c83c 4a0b 0fbb 80fd b3bc c3b0 78bd
000000c0: 7046 be3c a4ff d53c f85a ecbc e2d6 34bd
000000d0: 7cf6 12bd e82a 1b3c 847d 453d dc22 b33c
000000e0: a454 193d 0058 40b8 fcb8 40bd 68d0 00bd
000000f0: 2a10 363d 9035 413c 1857 67bc 2409 ee3c
00000100: a04d c9bb 44ea 8a3c b4f7 35bd d0ff 56bd
00000110: 9cbf 49bd a078 9abb f8d9 9b3c 9440 c63c
00000120: 18c3 73bc f830 3bbc e0c2 1abd 6696 20bd
00000130: 7c90 993c 687d 95bc d802 bd3c 7a7a 52bd
00000140: 0048 94b9 e0e9 64bc f061 20bd 000a 673d
00000150: 8cf3 783d ba93 373d 98bf 27bc 005b 54bd
00000160: 0c72 5b3d 7ac9 1abd 6ec9 09bd e26a 3abd
00000170: d380 48bd 4d49 4ebd 4254 e83b 6c13 a7bd
00000180: aa3c 46bd 807b 863c 4cdc 0a3d 7c90 973c
00000190: e201 6dbd 4c15 df3c 2e10 053d fc33 d1bb
000001a0: cce3 5dbd 5a44 003d 22e7 2f3d 00d0 3abb
000001b0: dcd9 2ebd 8086 54bc fe6c 11bd 78b7 a43c
000001c0: aec8 7e3d e40a a3bc f42e f03c 7082 bc3b
000001d0: 28a2 12bd c014 2dbd 309d a33c be4b 7ebd
000001e0: b2aa 383d d409 c03c e00d 6d3b 4492 82bc
000001f0: 6901 44bd ce5f 1bbd a3a4 1fbd 194c b23c
00000200: 009d 293d 02ac 10bd 0c8d c63c 6c85 cabc
00000210: f0af 7e3d c408 9a3c b4f6 da3c 8813 563c
00000220: 1384 81bd 51ec 64bd be2a 5abd 633b 74bd
00000230: 22ec 4dbd 742b fb3c dc0d a9bc 88bb 433c
00000240: c444 973c d436 23bd 2816 b63c 20b9 7b3d
00000250: f863 6d3c 200d ccbb 20d6 c43c 9407 4b3d
00000260: 8043 20ba e00e 64bc 3025 423d 2e24 2dbd
00000270: a85c 3cbc 9c0f a83c ac5e d0bc c441 3abd
00000280: b4e3 8a3c f235 01bd 4e8e 36bd 3829 f93c
00000290: 1c9b 91bc 9445 483d 984b 5a3c 60df 89bc
000002a0: fc24 6a3d 1c8c 9cbc 648e 2dbd deb6 39bd
000002b0: 009f 79ba 80bb aa3a fc51 bbbc 7022 db3b
000002c0: a06b 62bb f4c2 3bbd de05 033d a69b 623d
000002d0: 52b5 8dbd f6e9 8abd 682f b8bd ac5b 78bd
000002e0: 185c 743d 94d2 58bd 7c99 433d 049f 363d
000002f0: 34d9 eebc 1695 e4bb 231f 93bc 54de 863c
00000300: aa1a 1ebd a08b 233d 0cdb d73c e8cf eb3c
00000310: 80a5 71bc 60a2 913b 44ab 113d ce6d 6a3d
00000320: e069 1e3d ac3b 4dbd 0c59 243d 40ae 43bd
00000330: 1c6f a2bc faa8 29bd 58ef 8fbc 0070 62b8
00000340: a0de ce3b a875 4dbd 8052 07bb e472 123d
00000350: 106a c23c 7ea6 21bd f243 70bd 7cd8 22bd
00000360: 7550 cd3c 3eac 74bd 3451 5ebc 593e 32bd
00000370: a09b 41bb 4c05 b9bc 565e 19bd 007a 68b9
00000380: 081d 4b3c b617 2fbd f8dc 2e3d 14a0 ddbc
00000390: 5025 e5bb 6ca1 2fbd 9425 d63c 5292 4f3d
000003a0: f8c2 c6bc 9ca6 333d bc40 febc f69f 723d
000003b0: 5839 62bd 8e69 31bd ea09 f7bc ccb8 a7bd
000003c0: 008f 3e3b 80dd 57bc 288a c23c 6815 193c
000003d0: 6826 84bc c812 47bd 80b6 fdba 12f8 41bd
000003e0: 3bbc 0e3c 6374 90bd 917b d13c c471 343c
000003f0: 88f4 8a3c fcc0 f63c a0e0 49bc d819 033c
-0.060242325 -0.010963179 -0.055794984 0.0042865276 0.040122807 -0.012638815 -0.048740156 0.008491226
0.014746696 -0.049566306 -0.005972527 0.04385914 0.037061267 0.03171116 0.018838324 0.033321403
0.04069736 0.018412225 -0.011860974 -0.04521492 -0.049895443 0.050370723 -0.030377619 0.036854528
-0.036192827 -0.054694474 0.0009998381 -0.036409706 0.002494052 -0.026289143 0.042079605 -0.042942807
-0.055774152 0.0132614 0.0075669587 -0.056692094 0.02806931 -0.017219618 -0.023710974 -0.018840544
-0.03297311 0.04528164 -0.056013353 -0.017925203 0.02446335 -0.0021826797 -0.021971464 -0.060715448
0.023226947 0.026122876 -0.028851971 -0.04415024 -0.035879597 0.009470679 0.048215404 0.021867208
0.037434235 -4.5858324e-05 -0.047051415 -0.03144875 0.04444901 0.011792555 -0.014119886 0.029057093
-0.006143287 0.01695741 -0.04442568 -0.052490056 -0.049255 -0.0047140867 0.019024834 0.024200715
-0.014878057 -0.011425249 -0.037783504 -0.03920593 0.018745653 -0.018248275 0.023072645 -0.051386334
-0.00028282404 -0.013971776 -0.0391559 0.05640602 0.06077914 0.044818617 -0.010238551 -0.051844597
0.05357556 -0.0377898 -0.033639364 -0.045512088 -0.04895098 -0.050362874 0.0070901224 -0.08158001
-0.048397698 0.016416311 0.033901498 0.018501513 -0.057863124 0.027231835 0.032486133 -0.006384371
-0.054172322 0.031315185 0.042945035 -0.0028505325 -0.042688236 -0.01297152 -0.035504334 0.020107016
0.0622031 -0.019902654 0.029319264 0.005752854 -0.035799176 -0.042256117 0.019972414 -0.062083952
0.045084663 0.023442186 0.00361716 -0.015938886 -0.047852907 -0.037933163 -0.03897537 0.021764802
0.041409492 -0.03532029 0.024237178 -0.024721824 0.062179506 0.018803008 0.026728965 0.01306618
-0.06324019 -0.05588943 -0.05326342 -0.059626948 -0.050274022 0.030660369 -0.020636491 0.011946566
0.018465407 -0.03984721 0.022227362 0.061455846 0.014489166 -0.0062271506 0.024027884 0.049567774
-0.0006113574 -0.013919562 0.047398746 -0.04227083 -0.0114967 0.020515256 -0.025435768 -0.045472875
0.01695428 -0.031545587 -0.044569306 0.030415162 -0.017774157 0.04889448 0.013323687 -0.016830146
0.057164177 -0.019109778 -0.042372122 -0.04534041 -0.0009522289 0.001302585 -0.022866242 0.006687455
-0.0034549013 -0.04584022 0.031988017 0.05532422 -0.0691935 -0.06782906 -0.08993417 -0.0606343
0.05965814 -0.052935198 0.047753796 0.044585243 -0.029156305 -0.0069757802 -0.017959183 0.016463436
-0.038599648 0.03992808 0.026349567 0.02878566 -0.014748931 0.0044444054 0.035563722 0.057233624
0.03867519 -0.050105736 0.040123984 -0.0477736 -0.019828372 -0.041420914 -0.017570183 -5.3986907e-05
0.00631316 -0.050161034 -0.002064854 0.0357541 0.023732215 -0.03946542 -0.058658548 -0.039757237
0.025062779 -0.059734575 -0.013569165 -0.04351649 -0.0029542223 -0.022585534 -0.03744348 -0.00022170693
0.012397058 -0.042747222 0.0426912 -0.02705387 -0.0069929734 -0.042878553 0.026140966 0.05067665
-0.02426289 0.043860063 -0.031036727 0.059234582 -0.05523047 -0.043313555 -0.030156095 -0.08189544
0.0029076934 -0.013175368 0.023747519 0.009343483 -0.016131595 -0.048601896 -0.0019356757 -0.04735572
0.00871187 -0.07053449 0.025571616 0.011013452 0.016962305 0.030121319 -0.012321621 0.008001767

cnn.8.bias f4 [64]
00000000: 559d 6dbd 0aff f43c 555e 5ebe 8bb0 813d
00000010: 496f b33c 89e8 1fbe 1efe e73a c5c1 13bd
00000020: de29 a3be 9a77 94bd eb5d c8bd 6b61 543d
00000030: 71cf 64bc c788 293c 13a9 34bd 3d5b 93bb
00000040: 6a37 1e3c 317b 0cbd 1f83 2fbe 227b 50be
00000050: 974a 843d 1e56 e23c b33f 63bd e137 78be
00000060: 3fed 4abe 600b b23c 1b2d 033e 3cbb 273d
00000070: 3940 b7bd 9e7d 553d 5060 5e3a 1d51 be3c
00000080: 6302 5d3d c0b7 623d 6f0d 003d 86ca 123b
00000090: c087 d1bc 59d0 a6bd 8813 283d 4037 503d
000000a0: ac19 c93c dfab 393d 7956 4d3d c127 83bd
000000b0: 2df5 70be 79d1 203c 6747 98bd fdcb 993d
000000c0: d808 3c3c e243 9cbd 2c0e a0bd 2820 c9bc
000000d0: a787 43bd d829 c6bb ef6d 803e 08e6 83bb
000000e0: 2ccc 1a3e 4685 303d cbc1 edbc 3981 80bc
000000f0: 200f 513d 6b61 193d ac97 753c 0fb8 a63c
-0.05801137 0.029906768 -0.21715672 0.06332501 0.02190365 -0.15616049 0.0017699634 -0.036073465
-0.3186788 -0.07249375 -0.097835384 0.051850718 -0.0139654735 0.010347552 -0.044106554 -0.0044969604
0.009656766 -0.034297172 -0.17139862 -0.20359471 0.064595394 0.027628954 -0.05548067 -0.24240066
-0.19817065 0.02173394 0.12810175 0.040950045 -0.089477964 0.05212175 0.00084829796 0.023232037
0.053957354 0.05535102 0.03126281 0.0022398545 -0.025577426 -0.08145208 0.04103425 0.05083394
0.024548374 0.045329925 0.050131295 -0.06404067 -0.23531027 0.009815567 -0.07435494 0.07509611
0.011476718 -0.07630135 -0.07815203 -0.024551466 -0.04773679 -0.0060474686 0.25083873 -0.0040252246
0.15116948 0.04309585 -0.029023072 -0.015686618 0.051039815 0.03744642 0.014989775 0.020351438
