models/AlinaCNN/encoder_weigths.pth (torch, 520199 bytes, 10 tensors)

cnn.0.weight f4 [32, 3, 8, 8]
0	0xbcb1ea85	-0.021718273
1	0x3da3d4a6	0.07999544
2	0xbd459995	-0.04824217
3	0x3d96b7d0	0.07359278
4	0x3c146e41	0.00905949
5	0xbcdfd445	-0.027322898
6	0x3db21ae2	0.08696534
7	0x3d25ef7f	0.040511604
8	0x3d796273	0.060884904
9	0xbd4c1cf4	-0.0498323
10	0xbd120445	-0.035648603
11	0xbd6bf4c2	-0.057606466
12	0x3d810e17	0.063015155
13	0x3d06e1aa	0.032930054
14	0x3c64284e	0.013925625
15	0xbd451695	-0.04811724
16	0xbd72f97e	-0.059319966
17	0x3b303acc	0.0026890514
18	0xbc8e3509	-0.017359274
19	0xbcd6adc4	-0.026205905
20	0xbca43287	-0.020043625
21	0x3c685c08	0.014182098
22	0x3d2ab170	0.041673124
23	0x3cc7d07f	0.02439141
24	0x3ca15c69	0.019697385
25	0xba87d752	-0.0010363853
26	0x3d1268db	0.03574453
27	0xbd248393	-0.04016454
28	0x3c64578c	0.013936888
29	0x3d7baf17	0.061446276
30	0x3ba38d61	0.004991219
31	0x3c83c9d5	0.016087452
32	0x3d0df1ed	0.034654547
33	0x3d6ead57	0.05827078
34	0xbc9701d2	-0.018433485
35	0xbbc2d9e8	-0.0059463866
36	0x3daad96b	0.083422504
37	0x3d6cb060	0.05778539
38	0x3c8c916d	0.017159188
39	0xbc0007a9	-0.007814326
40	0xbd255019	-0.04035959
41	0x3db5c3ed	0.088752605
42	0xbbbee3dc	-0.005825503
43	0x3da9619b	0.0827057
44	0xbbf0b885	-0.007346215
45	0x3c18a394	0.009316344
46	0x3d406c32	0.046978183
47	0x3d4be710	0.049780905
48	0x3b49a93c	0.0030771038
49	0x3c75c33a	0.015000159
50	0x3d00eac1	0.03147388
51	0xbcdaa4c1	-0.026689889
52	0xbd0a2eae	-0.033735923
53	0x3db55fca	0.08856161
54	0x3cfa6aeb	0.03056856
55	0x3db1b8e4	0.08677843
56	0x3bc67db4	0.0060574654
57	0xbcb12e25	-0.021628449
58	0x3cab1005	0.020881662
59	0xbc3cb3f5	-0.0115175145
60	0x3dad5d21	0.084650286
61	0x3db35201	0.087558754
62	0x3dcdbc96	0.100457355
63	0x3daf0d99	0.085475154
64	0x3d24771a	0.040152647
65	0xbd8528d1	-0.06501926
66	0xbc88d78c	-0.016704343
67	0xbd44a218	-0.048006147
68	0x3db48c39	0.08815808
69	0xbc5873cc	-0.013211202
70	0xbca99781	-0.020702126
71	0x3dbbb935	0.09166185
72	0xbc06c1b8	-0.008224897
73	0xbd1c5cb6	-0.038174354
74	0xbcf31499	-0.029672908
75	0x3d830677	0.063977174
76	0x3d390ffd	0.045181263
77	0xbc871543	-0.01648963
78	0x3c822083	0.015884643
79	0x3c508ed2	0.0127293635
80	0x3d8e56ea	0.06950171
81	0x3d90f9a6	0.07078867
82	0xbd652e23	-0.055952203
83	0x3cd583a4	0.026063748
84	0x3d94f4b8	0.07273239
85	0x3bfb2d7e	0.007665335
86	0x3d60b49b	0.05485974
87	0x3d08208e	0.03323417
88	0x3da10faa	0.07864316
89	0x3d4d2627	0.050085213
90	0xbd0620a0	-0.032745957
91	0xbc20bb46	-0.0098102745
92	0x3d8be9d3	0.06831708
93	0x3d966e25	0.07345227
94	0xbd1b8546	-0.037968896
95	0x3dab9727	0.083784394
96	0xbd288945	-0.041146535
97	0x3da5db16	0.08098428
98	0x3db26e67	0.08712464
99	0x3d5d679f	0.0540539
100	0xbbaf62af	-0.00535234
101	0x3c55c37b	0.013047094
102	0xbd0a1baa	-0.03371779
103	0x3cf370cc	0.029716872
104	0x3da5c761	0.08094669
105	0xbd4b7b3e	-0.04967808
106	0x3da09d5a	0.078425124
107	0x3d9acf9d	0.0755913
108	0x3cfc0869	0.030765729
109	0x3d167b05	0.036738414
110	0xbb03cf54	-0.002011259
111	0x3b52aaf5	0.0032145355
112	0xbc86dbc0	-0.016462207
113	0xbd209acc	-0.039210126
114	0x3d8d656a	0.06904109
115	0xbcd9e3ec	-0.02659794
116	0x3db1c3d1	0.08679927
117	0x3d1819cf	0.037133988
118	0x3d7ee2eb	0.062228125
119	0x3dd6eb95	0.104941525
120	0xbd4df175	-0.0502791
121	0x3c55b082	0.013042571
122	0x3da91f00	0.08257866
123	0x3d9da338	0.07697147
124	0x3dde8445	0.10865072
125	0x3d110cda	0.035412647
126	0x3db03687	0.0860415
127	0x3dc39f59	0.095518775
128	0x3d6d2211	0.057893816
129	0x3cdbd936	0.026836973
130	0xbd8d6f43	-0.06905987
131	0x3b2a9867	0.002603078
132	0x3c380d39	0.011233621
133	0x3d6c2616	0.05765351
134	0xbd57e13e	-0.052705042
135	0x3d019d0e	0.03164392
136	0x3d3bd80e	0.045860343
137	0xb994a0db	-0.00028348606
138	0xbd822b5d	-0.06355927
139	0x3c85992a	0.016308386
140	0xbc89fe65	-0.016844938
141	0x3ceac8a7	0.028660132
142	0xbce308cc	-0.027714156
143	0xbc24a523	-0.010049137
144	0x3cc2e75d	0.023791963
145	0xbc777356	-0.015103182
146	0x3d88c93b	0.06679007
147	0xbd62f0dc	-0.055405483
148	0x3d43a179	0.047761414
149	0x3d90350f	0.0704137
150	0xbc4c0308	-0.012451895
151	0x3d960491	0.0732509
152	0xbd5ba5f4	-0.053625062
153	0x3c23e8b3	0.01000421
154	0x3d6eca31	0.058298294
155	0x3a93b2c7	0.001126849
156	0xbd2eada0	-0.04264605
157	0x3d4f4379	0.050601456
158	0x3c0702c7	0.008240408
159	0xbd4ba2d0	-0.049715817
160	0xb9534ac3	-0.00020150379
161	0x3c523674	0.012830365
162	0xbd0ff043	-0.03514124
163	0xbcc2b04c	-0.023765706
164	0xbd58b601	-0.052907947
165	0x3d34dcc4	0.04415585
166	0x3d5bb7f9	0.053642247
167	0x3aba6cc8	0.0014223093
168	0x3c634158	0.01387056
169	0xbc9ad76c	-0.01890155
170	0x3ce544a3	0.02798683
171	0x3b1e3ffd	0.0024147027
172	0x3d580e88	0.052748233
173	0x3c7332bf	0.014843642
174	0x3d09397b	0.033502083
175	0x3d2144d2	0.039372273
176	0xbd67d053	-0.056595158
177	0x3d9951e8	0.074863255
178	0xbd276bed	-0.04087441
179	0x3d702a3a	0.05863402
180	0x3bee3c6c	0.0072703864
181	0x3c9d25dd	0.019183094
182	0x398c5e76	0.0002677326
183	0x3cfc3f0f	0.030791787
184	0xbcebcbd9	-0.028783726
185	0x3d10a7df	0.035316344
186	0xbd00affb	-0.031417828
187	0x3c264e41	0.010150493
188	0x3d87908b	0.06619366
189	0x3d66dd31	0.05636329
190	0x3db3703b	0.08761641
191	0x3dad1aef	0.08452403
192	0x3e92cae8	0.2867043
193	0x3e18d428	0.14924681
194	0x3db71c89	0.089409895
195	0x3d89a935	0.06721727
196	0x3ccf0a15	0.025273362
197	0x3bd75df0	0.0065724775
198	0xbc0fdd4a	-0.008780787
199	0x3d1dc3b1	0.038516704
200	0x3de5d29b	0.112218104
201	0x3c4266ed	0.01186536
202	0x3c897a02	0.01678181
203	0xbd0d575e	-0.034507148
204	0x3d13d846	0.036094926
205	0xbd82c6ba	-0.0638556
206	0xbddef462	-0.10886456
207	0xbd8b26af	-0.06794488
208	0x3e1ec1f1	0.1550367
209	0x3da71042	0.08157398
210	0x3b946fb8	0.0045299195
211	0x3d45f1be	0.048326246
212	0xbd5b54ee	-0.053547792
213	0xbcc4a3e4	-0.02400393
214	0xbdde8b33	-0.10866394
215	0xbe1a584a	-0.15072742
216	0x3dc28b1b	0.094991885
217	0x3d99bed7	0.07507103
218	0x3d4fcf1d	0.050734628
219	0xbc94744f	-0.018121867
220	0xbd06196b	-0.032739084
221	0xbd38657a	-0.04501865
222	0xbdc84558	-0.09778851
223	0xbdcf799b	-0.10130616
224	0x3e072478	0.13197505
225	0x3e0beffa	0.13665763
226	0x3d98617a	0.07440467
227	0x3d9f617e	0.07782267
228	0xbd6df781	-0.058097366
229	0xbc0ffcac	-0.008788269
230	0xbcee2df1	-0.029074641
231	0xbdce1448	-0.10062462
232	0x3de4046c	0.11133656
233	0x3e2bd13b	0.16779034
234	0x3d313f32	0.04327316
235	0x3dd366e3	0.103223585
236	0x3d2a8eec	0.041640207
237	0x3bc47d3a	0.0059963735
238	0x3d869677	0.06571668
239	0xbd897cfb	-0.06713291
240	0x3e3cfada	0.18455067
241	0x3e27316e	0.1632745
242	0x3d8faf11	0.07015813
243	0x3df44665	0.11927489
244	0x3cb62370	0.022233695
245	0x39a3c596	0.00031236996
246	0x3d28b5b8	0.041188926
247	0x3c0f8049	0.008758613
248	0x3e2784d5	0.16359265
249	0x3d1de63e	0.038549654
250	0x3e402ca3	0.18767028
251	0x3da5e68c	0.08100614
252	0x3dc06cf4	0.09395781
253	0x3e0424eb	0.12904708
254	0x3dd22ecd	0.10262833
255	0x3c2cca00	0.010546207

cnn.0.bias f4 [32]
0	0xbe2ee74a	-0.17080417
1	0xbf0b2e13	-0.5436718
2	0xbe90151a	-0.281411
3	0xbe43f92a	-0.19138017
4	0xbefd9f24	-0.49535477
5	0xbc368795	-0.011140724
6	0xbcef0f82	-0.0291822
7	0xbecdb683	-0.40178308
8	0xbe27bc93	-0.16380529
9	0x3d064e03	0.03278924
10	0x3e55c51d	0.20875974
11	0x3cb339bf	0.021878121
12	0x3f09f265	0.5388549
13	0xbe926df0	-0.285995
14	0x3f2ff9a2	0.68740284
15	0xbd76f28f	-0.060289916
16	0x3d66f93d	0.056390036
17	0x3e92dac0	0.28682518
18	0xbe43ced8	-0.19121873
19	0xbd0c9d9b	-0.03432999
20	0xbe571163	-0.21002726
21	0xbdea002e	-0.114258155
22	0xbe719b44	-0.23594385
23	0xbe94d760	-0.29070568
24	0xbee2d23b	-0.44301018
25	0xbe211301	-0.15729906
26	0xbd22d0a2	-0.03974975
27	0xbe17769c	-0.1479134
28	0xbee02190	-0.43775606
29	0xbeb131f8	-0.34608436
30	0xbe97f67c	-0.2968024
31	0xbe7f54b2	-0.24934652

cnn.2.weight f4 [64, 32, 4, 4]
0	0xbb538535	-0.0032275442
1	0x3aaa7a55	0.0013006428
2	0xbd234132	-0.039857097
3	0x3c8aa271	0.016923161
4	0x3cfc3dda	0.030791212
5	0x3cd1b267	0.025597764
6	0x3cd5a8bb	0.026081434
7	0xbc047cfa	-0.008086437
8	0x3d10c8b6	0.035347663
9	0x3ba12979	0.004918274
10	0xbd046867	-0.03232613
11	0x3aeb674e	0.0017959864
12	0xbcae34d1	-0.02126542
13	0x3d59430e	0.053042464
14	0x3ce42d64	0.027853675
15	0x3c60efe0	0.013729066
16	0xbc94bb67	-0.018155767
17	0xbd88ae6d	-0.06673894
18	0xbd80a5a8	-0.062815964
19	0xbd504170	-0.050843656
20	0x3d8f04c5	0.069833316
21	0xbcf88299	-0.030335711
22	0xbd1bf7af	-0.038078006
23	0xbc90927e	-0.017647978
24	0x3cef55c9	0.02921571
25	0xbbfdc747	-0.007744703
26	0x3d67b1c3	0.05656601
27	0xbc0196e3	-0.007909509
28	0x3d8b94e1	0.06815506
29	0xb9cef73e	-0.00039475592
30	0x3d5f97b8	0.05458805
31	0x3d2375df	0.039907333
32	0x3d9f2cdd	0.07772229
33	0xbd2408b4	-0.040047362
34	0x3d94f51a	0.07273312
35	0x3d984722	0.074354425
36	0x3d872e66	0.06600647
37	0x3caa2a8b	0.02077224
38	0x3d86edfb	0.0658836
39	0x3ddb7890	0.10716355
40	0x3d00eb75	0.03147455
41	0x3dce66f8	0.100782335
42	0x3ddd860e	0.108165845
43	0x3d9d1498	0.076699436
44	0x3d118cb9	0.035534594
45	0x3c2082f5	0.009796848
46	0x3dc77449	0.097389765
47	0x3d96dfc2	0.07366897
48	0xbc19fa7c	-0.009398099
49	0xbda21718	-0.07914561
50	0x3b8d53b5	0.004312957
51	0xbd303eb0	-0.043028533
52	0x3d758550	0.05994159
53	0x3d09428c	0.03351073
54	0x3c5aa33a	0.01334458
55	0x3c3ad6f7	0.011403791
56	0x3c8689b7	0.01642309
57	0xbcbedd46	-0.02329887
58	0x3b4c8d00	0.0031211972
59	0x3c6b3b14	0.014357347
60	0xba7155c3	-0.00092062
61	0x3cdea2a5	0.027177164
62	0x3d188eb6	0.037245475
63	0x3d2aa301	0.04165936
64	0xbc711380	-0.014714122
65	0xbb73be5e	-0.0037192325
66	0x3afac0e0	0.0019130968
67	0x3d216fb0	0.039413154
68	0x3d96e72b	0.073683105
69	0xbb149424	-0.0022671307
70	0xbaf6abe4	-0.0018819538
71	0x3d12c878	0.035835713
72	0x3c641db7	0.0139231
73	0x3d200a17	0.039072122
74	0x3cf5c1db	0.029999664
75	0x3c82d814	0.015972175
76	0x3c2e5d24	0.010642324
77	0x3d3ad25c	0.04561077
78	0x3cdc14b3	0.026865339
79	0x3d125084	0.035721317
80	0x3c83812c	0.016052805
81	0xbd8a7681	-0.06760884
82	0x3b8ff394	0.0043930504
83	0xbc095465	-0.008381938
84	0x3c723242	0.01478249
85	0x3d18a358	0.03726515
86	0x3d2bb4b3	0.041920375
87	0x3cfd4757	0.030917807
88	0xbcf52b68	-0.029927924
89	0x3d659e54	0.056059197
90	0xbcb4cab7	-0.022069318
91	0xbc3b211c	-0.011421468
92	0xbc116c9f	-0.008875995
93	0xbcc8a28c	-0.02449157
94	0x3d2f34d0	0.042774975
95	0x3b93ad75	0.0045067617
96	0x3c7bd4ed	0.01537059
97	0x3dfe82db	0.124273024
98	0x3d036b4b	0.032084744
99	0x3b01f877	0.0019831934
100	0xbd2b58c7	-0.04183271
101	0xbd591a6b	-0.05300371
102	0x3cbf1d68	0.023329452
103	0xbcc4b474	-0.024011828
104	0x3cbb4c23	0.022863453
105	0x3d5372a3	0.051622998
106	0x3ca280b0	0.019836754
107	0xbb977664	-0.0046222676
108	0xbe1eee3d	-0.15520568
109	0xbd5159ed	-0.05111115
110	0xbe08fa14	-0.13376647
111	0xbdd8d8ec	-0.105882496
112	0xbda77978	-0.08177465
113	0x3901acfc	0.0001236684
114	0x3c96576f	0.018352238
115	0x3cd79406	0.0263157
116	0x3c689400	0.014195442
117	0x3c80e6c5	0.01573504
118	0x3b8c0047	0.004272494
119	0x3d2b4efe	0.04182338
120	0x3d9b9c33	0.07598152
121	0xbd1e2767	-0.038611796
122	0x3d65dfac	0.056121513
123	0x3cb0c49a	0.021578122
124	0x3c97cd77	0.01853059
125	0x3d0a6ef8	0.033797234
126	0xbcc2071f	-0.023685036
127	0xbd58e93a	-0.052956797
128	0xbd07b275	-0.033129174
129	0xbcb28396	-0.02179126
130	0xbd1a48ff	-0.03766727
131	0xbd23cb91	-0.039989058
132	0x3c1ddd62	0.009635301
133	0xbb63fc18	-0.003478771
134	0x3cc4c5f0	0.024020165
135	0x3c9e9659	0.0193588
136	0x3ce11189	0.027474182
137	0x3d31ecd9	0.043438766
138	0x3cddddda	0.027083326
139	0x3d40650a	0.04697136
140	0xbd27d975	-0.040978868
141	0x3caeed95	0.021353522
142	0x3cc339ad	0.023831213
143	0x3d2096bb	0.039206248
144	0x3c0371f4	0.008022774
145	0x3cf023c7	0.029313935
146	0xbd088b6d	-0.03333609
147	0xbc9a7a71	-0.018857213
148	0x3d1a84ce	0.03772431
149	0x3bdebe3f	0.0067975814
150	0x3cce2713	0.025165116
151	0xb83d6026	-4.5150657e-05
152	0xbd202ce8	-0.039105326
153	0xbd3ace8e	-0.045607142
154	0xbbfa6e75	-0.007642562
155	0x3d82a657	0.06379383
156	0x3cf5c4af	0.030001013
157	0xbd4e8912	-0.05042369
158	0xbb384383	-0.0028116412
159	0x3d20cfd8	0.039260715
160	0x3d4603f2	0.048343606
161	0xbcfd97b6	-0.03095613
162	0xbd7b3cec	-0.061337397
163	0xbd64ea25	-0.05588736
164	0x3c091179	0.008365982
165	0xbcd5de70	-0.026107043
166	0xbd225a3e	-0.039636843
167	0xbd900a77	-0.07033246
168	0xbcaa469a	-0.020785619
169	0xbd1475c7	-0.036245134
170	0xbd9a4b83	-0.07533934
171	0xbd548fe4	-0.051895037
172	0x3c91f1ad	0.017815435
173	0x3cb2a148	0.02180542
174	0x3d1bed60	0.038068175
175	0x3cd2a54f	0.02571359
176	0xbd9cda73	-0.076588534
177	0xba6f640a	-0.00091320334
178	0xbc9ced25	-0.019156048
179	0x3c59b664	0.013288114
180	0xbde649b5	-0.11244527
181	0xbd75a89f	-0.059975263
182	0x3d02e9be	0.031961195
183	0xbe048baa	-0.12943903
184	0xbe2b6189	-0.16736425
185	0x3cc97f32	0.024596784
186	0x3d9956a9	0.07487232
187	0xbcde450d	-0.027132535
188	0xbd40d138	-0.047074527
189	0x3c7a178d	0.015264404
190	0x3d055e70	0.032560766
191	0x3dd93c9d	0.10607264
192	0x3d0eaeb4	0.03483458
193	0x3cc2c740	0.02377665
194	0x3d06eb33	0.032939147
195	0x3cc459d9	0.023968624
196	0xbd630e49	-0.055433545
197	0xbcbe0bd4	-0.023199
198	0xbd9fe7de	-0.07807897
199	0xbd704799	-0.05866203
200	0xbdff24c2	-0.12458183
201	0xbdf3718b	-0.11886891
202	0xbe1ddf64	-0.15417248
203	0xbdbe4a90	-0.092915654
204	0xbe853247	-0.2601492
205	0xbe5f5c23	-0.21812491
206	0xbe2b3766	-0.16720352
207	0xbddf44fa	-0.10901828
208	0x3c3baf94	0.011455435
209	0xbd8dd7e2	-0.06925942
210	0xbd7141f1	-0.058900777
211	0x3d6584e8	0.056034952
212	0x3d36e87f	0.04465532
213	0x3d503e50	0.050840676
214	0x3da8fe6f	0.08251654
215	0x3dc68f31	0.0969528
216	0x3d015d64	0.031583205
217	0xbc339f34	-0.01096325
218	0x3dcca87a	0.09993072
219	0x3e09e1bc	0.13465017
220	0x3d435f2f	0.047698196
221	0x3c87c788	0.016574636
222	0x3e31aad3	0.1735032
223	0x3e75b2c7	0.2399398
224	0x3d606a75	0.054789025
225	0x3dfb47e4	0.122695714
226	0x3d43bac9	0.047785554
227	0x3d803d04	0.06261638
228	0x3c5b6589	0.013390907
229	0x3d6b1d50	0.057401
230	0x3d2874f7	0.04112717
231	0xbd654eb4	-0.05598326
232	0xbe0dde60	-0.1385436
233	0xbdc91b7f	-0.098196976
234	0xbdd993b1	-0.10623873
235	0xbde71bde	-0.11284612
236	0xbe3e26b0	-0.18569446
237	0xbe75139d	-0.23933263
238	0xbddb836c	-0.10718426
239	0xbbc25164	-0.0059301127
240	0x3cbfd1f4	0.023415543
241	0xbd5081d2	-0.050905056
242	0xbd83ab85	-0.06429199
243	0xbd5bd6b7	-0.053671565
244	0x3cb7302c	0.022361837
245	0x3b09de52	0.0021037054
246	0x3c874cff	0.016516207
247	0xbd0e5b23	-0.034754883
248	0x3c098f97	0.008396051
249	0x3d4110fc	0.04713534
250	0xbb565743	-0.003270582
251	0xbc1f3803	-0.009717944
252	0xbc82bd4f	-0.01595941
253	0x3cd6e707	0.02623321
254	0x3cab25b1	0.020891996
255	0xbbef311c	-0.0072995555

cnn.2.bias f4 [64]
0	0xbe44dd74	-0.19225103
1	0xbe8ad144	-0.27112782
2	0xbd1c4496	-0.038151346
3	0x3d0532d7	0.032519188
4	0xbe1479e4	-0.14499623
5	0xbdcf0b80	-0.10109615
6	0xbdcc74c8	-0.09983212
7	0xbdcc59d2	-0.09978069
8	0x3b91de6a	0.0044515627
9	0xbdac5e38	-0.08416408
10	0xbc82290f	-0.015888719
11	0xbd38b620	-0.045095563
12	0x3db2501d	0.08706687
13	0x3e002972	0.1251581
14	0x3c7b9522	0.01535538
15	0x3e38afcd	0.18035813
16	0x3bd6bfb4	0.0065536145
17	0xbd5b939f	-0.05360758
18	0xbdbb811a	-0.091554835
19	0xbcb0ed98	-0.021597669
20	0xbd2f8bdb	-0.042857986
21	0xbd1611bf	-0.036638018
22	0xbccb9110	-0.024849445
23	0x3e30d1c9	0.17267527
24	0xbd36be40	-0.04461503
25	0x3c58f072	0.01324092
26	0xbdc64d1d	-0.09682677
27	0xbc84e1e0	-0.016220987
28	0xbd4957e1	-0.049156073
29	0x3cf2c044	0.029632695
30	0xbcc6f244	-0.024285443
31	0x3bfaed3c	0.007657675
32	0xbde5564a	-0.11198099
33	0xbd21db4a	-0.03951577
34	0xbd5b2c18	-0.053508848
35	0xbd4161e2	-0.04721249
36	0x3d0044bd	0.031315554
37	0x3c33f970	0.0109847635
38	0x3dec7b77	0.115469866
39	0xbac6e698	-0.0015174923
40	0x3e034af4	0.12821561
41	0xbe4fea6d	-0.2030427
42	0x3cdd9f77	0.027053578
43	0xbe58a4f5	-0.21156676
44	0x3d02e008	0.031951934
45	0xbe4421bc	-0.19153494
46	0xbcb068de	-0.02153438
47	0x3dec5276	0.11539166
48	0x3c490e17	0.012271426
49	0xbcb28ba8	-0.021795109
50	0xbd0e1740	-0.03469014
51	0x3d07055a	0.032964088
52	0xbe25d741	-0.16195394
53	0xbbdb8c08	-0.0067000426
54	0x3e4b96b6	0.1988171
55	0x3da58bbd	0.080832936
56	0xbdf7650b	-0.12079819
57	0x3c485826	0.0122280475
58	0xbe37fa5a	-0.17966595
59	0xbe3f46b0	-0.18679309
60	0xbd198b1c	-0.03748618
61	0x3dfad3bc	0.122474164
62	0xbd42734a	-0.04747323
63	0x3dbf0727	0.09327536

cnn.4.weight f4 [64, 64, 3, 3]
0	0xbd430cc1	-0.047619585
1	0xbc5d79e6	-0.013517832
2	0xbdacdb3b	-0.084402524
3	0xbc04ade2	-0.0080980975
4	0xbb86ea3b	-0.004117278
5	0xbc4226fd	-0.011850116
6	0xbbb0fb65	-0.0054010623
7	0xbc23bcfc	-0.009993788
8	0xbbfdfad9	-0.0077508506
9	0x3c33ecf0	0.010981783
10	0xbc14c268	-0.009079553
11	0x3d11f7a7	0.03563657
12	0x3db15bd6	0.086600944
13	0xbb9082a6	-0.0044101058
14	0x3cb57a89	0.022153156
15	0x3e745c43	0.2386332
16	0x3d55b7b8	0.05217716
17	0x3dc85d57	0.09783428
18	0x3ca009be	0.019535895
19	0xbd28a0ec	-0.041169092
20	0xbd31c20a	-0.04339794
21	0xbd8fd294	-0.070225865
22	0xbcc4cf77	-0.024024708
23	0x3c214635	0.009843399
24	0x3d356066	0.044281386
25	0xbdea2c7f	-0.11434268
26	0x3ce5c4cf	0.028047947
27	0xbcdbea5c	-0.02684515
28	0x3d012652	0.031530686
29	0x3c8a9c3a	0.016920198
30	0xbcad21af	-0.021134226
31	0x3d23a4de	0.03995215
32	0xbd20b125	-0.03923144
33	0x3c3ca24f	0.011513307
34	0x3cd41d14	0.025892772
35	0xbc1c382b	-0.009534876
36	0x3d0fc324	0.03509821
37	0xbdeae6d2	-0.11469807
38	0xbcb2a164	-0.021805473
39	0xbba16fd9	-0.0049266634
40	0xbd56744b	-0.052357
41	0x38fbf8e2	0.00012014971
42	0x3e03e11c	0.12878841
43	0x3d2c4777	0.04206034
44	0x3cb46e85	0.022025356
45	0x3befa1a8	0.007312972
46	0x3d4bf03e	0.04978966
47	0x3e326d8c	0.17424601
48	0xbd23e9c0	-0.040017843
49	0xbb9692d3	-0.0045951395
50	0xbd13868b	-0.036016982
51	0xbe6f292a	-0.23355547
52	0xbd98bf85	-0.074584045
53	0xbdbf2c24	-0.09334591
54	0x3dd58fc4	0.10427812
55	0x3e75f626	0.2401968
56	0xbe754bde	-0.23954722
57	0xbdca16de	-0.09867643
58	0x3e85defd	0.2614669
59	0x3e8245b0	0.25443792
60	0xbdd4a82d	-0.103836395
61	0xbe664f43	-0.22491173
62	0xbd383aa0	-0.044977784
63	0x3d9050af	0.07046639
64	0x3d4eaa81	0.050455574
65	0x3d20faff	0.03930187
66	0xbbf1c062	-0.00737767
67	0x3b79374f	0.0038027351
68	0x3e01321f	0.12616776
69	0x3e68ea49	0.22745623
70	0xbcdf27bd	-0.027240628
71	0x3cd4a817	0.025959058
72	0x3cb7c91d	0.022434765
73	0xbca92f26	-0.020652365
74	0x3b853365	0.0040649646
75	0xbd273e4b	-0.04083089
76	0x3cc68efe	0.024238106
77	0xbc92ab77	-0.017904026
78	0x3cc1acf3	0.023642039
79	0xbbb57cae	-0.0055385446
80	0xbce59220	-0.02802378
81	0x3dadb778	0.084822595
82	0x3d79e22e	0.061006717
83	0xbca37453	-0.019952929
84	0x3d72c64a	0.059271134
85	0x3dca7d01	0.09887124
86	0x3cdfa990	0.027302533
87	0x3dc56e6d	0.09640203
88	0x3d754816	0.0598832
89	0x3c047af4	0.008085955
90	0xbc241a5e	-0.010016052
91	0x3b314761	0.0027050602
92	0xbc078b49	-0.008272954
93	0xbd06b20d	-0.032884646
94	0x3d38c184	0.045106426
95	0x3b984ef2	0.004648083
96	0x3ba8d8f7	0.0051528173
97	0x3d10fe86	0.035398982
98	0xbcccf39b	-0.025018504
99	0x3e05bdfe	0.13060758
100	0x3d1180ad	0.035523105
101	0xbcae49a8	-0.021275356
102	0x3d27a29b	0.040926557
103	0x3d0c4c51	0.03425247
104	0x3e197224	0.14984947
105	0xbeda2c63	-0.4261199
106	0xbe5b8988	-0.21439183
107	0xbe552e1a	-0.20818368
108	0x3e582d59	0.21111049
109	0xbcb921ba	-0.02259909
110	0xbd9f237b	-0.07770439
111	0x3cf21e9b	0.02955561
112	0xbc662b0e	-0.014048351
113	0x3cc2cdeb	0.02377983
114	0x3cb7bf06	0.022429954
115	0x3e509a91	0.20371462
116	0x3e3720b0	0.17883563
117	0x3dd3c151	0.103396066
118	0x3b7ba24d	0.00383963
119	0xbcc710cf	-0.024300007
120	0xbd072a65	-0.032999415
121	0xbc8fa7aa	-0.017536003
122	0x3cb76937	0.022389038
123	0xbd6ace99	-0.057325933
124	0xbca35bcc	-0.019941233
125	0xb96945ae	-0.0002224657
126	0xbace5d4e	-0.001574436
127	0xbd2316ab	-0.03981654
128	0xbc40d83d	-0.011770305
129	0xbc11fa69	-0.0089098
130	0xbca544cc	-0.020174406
131	0xbb4d61bb	-0.003133877
132	0x3d00fab0	0.031489074
133	0x3a446deb	0.00074931857
134	0x3a9a8277	0.0011788149
135	0xbd194b38	-0.03742525
136	0x3b396557	0.0028289163
137	0x3d093bfd	0.033504475
138	0xbe326374	-0.17420751
139	0x3d55dc43	0.05221201
140	0x3c6a9be9	0.014319398
141	0xbc347a22	-0.011015447
142	0xbd044f50	-0.0323022
143	0x3e328824	0.17434746
144	0xbe14b665	-0.14522703
145	0x3a9bdf9e	0.0011892205
146	0xbcbd0d27	-0.02307756
147	0xbd90acca	-0.07064207
148	0xbcfa0e25	-0.030524323
149	0x3c552a8a	0.01301063
150	0x3e1ca9ee	0.15299198
151	0xbd45f9e2	-0.04833401
152	0xbc278ebd	-0.010226903
153	0xbca4fa4c	-0.020138882
154	0x3d2f5d32	0.042813487
155	0x3bbc8207	0.005752805
156	0x3d21cd7e	0.039502613
157	0xbb20fc35	-0.002456439
158	0x3d07fb80	0.033198833
159	0x3d09d6e8	0.033652216
160	0xbd2daea4	-0.04240288
161	0x3ced827b	0.028992882
162	0xbe59c847	-0.21267806
163	0xbddeede6	-0.10885219
164	0xbd716120	-0.058930516
165	0x3bcf1279	0.006319341
166	0xbc3d49eb	-0.011553268
167	0xbc9e2a1b	-0.019307187
168	0x3dde5804	0.108566314
169	0x3d1eeb15	0.03879841
170	0xbe3448a0	-0.17605829
171	0x3e071ee6	0.1319538
172	0x3c8f9395	0.017526427
173	0xbdb3ee76	-0.08785717
174	0x3e53092e	0.2060897
175	0x3e379ebb	0.17931645
176	0x3e028143	0.12744622
177	0xbe6a7c27	-0.22898923
178	0x3d1d665d	0.0384277
179	0x3e514d88	0.20439732
180	0x3c354cfc	0.011065718
181	0x3bb2497c	0.005440889
182	0xbcc89f29	-0.024489956
183	0x3c10448d	0.008805406
184	0xbcac2988	-0.021015897
185	0x3d1fbc18	0.03899774
186	0xbc6d267f	-0.01447451
187	0xbc2b21b4	-0.010445047
188	0x3ca0ae8e	0.019614484
189	0x3cc413d2	0.023935232
190	0xbd1464a9	-0.03622881
191	0x3bc69005	0.006059649
192	0x3c99af39	0.01876031
193	0xbccb6d55	-0.024832407
194	0xbcda5221	-0.02665049
195	0xbcf6bc54	-0.030119099
196	0x3d009dae	0.031400375
197	0xbc09f86c	-0.008421045
198	0xbd0803f6	-0.033206902
199	0xbc47aedd	-0.012187687
200	0x3d13accd	0.036053468
201	0x3d07b10f	0.03312784
202	0x3d27633c	0.04086612
203	0x3d0b150a	0.03395561
204	0x3c092c34	0.008372355
205	0x3d0826b2	0.033240028
206	0x3d1082eb	0.035281103
207	0xbd376510	-0.044774115
208	0x3da4e61a	0.08051701
209	0x3b7132a7	0.0036803873
210	0xbe234e1e	-0.15947768
211	0x3d0cfb33	0.03441925
212	0x3d11c727	0.035590317
213	0x3e0575fd	0.1303329
214	0xbd38fee6	-0.045164965
215	0xbda3d632	-0.07999839
216	0xbc8915d1	-0.016734036
217	0x3c3499b2	0.011022972
218	0x3e1c275f	0.15249394
219	0x3e03203b	0.12805264
220	0x3d586df1	0.052839223
221	0x3dc0f273	0.094212435
222	0x3e0ed7ba	0.1394948
223	0x3e0f96dd	0.14022394
224	0x3d12bb76	0.035823308
225	0x3c90195f	0.017590223
226	0x3b235b1d	0.0024926134
227	0xbcf152c3	-0.02945841
228	0xbc9aa117	-0.018875642
229	0xbbf0d35b	-0.0073494143
230	0xbd01c162	-0.031678565
231	0x3d0bb635	0.034109313
232	0xbd0e74f4	-0.034779504
233	0x3d12cf54	0.035842255
234	0xbda41548	-0.080118716
235	0xbc7119be	-0.01471561
236	0xbd17fb66	-0.037104987
237	0xbdc37505	-0.09543804
238	0xbbab17db	-0.0052213497
239	0x3d79b4cf	0.060963448
240	0x3deb8d70	0.115015864
241	0xbe09f828	-0.1347357
242	0xbd27dd4b	-0.040982526
243	0x3dc68f72	0.09695329
244	0xbd1eb12e	-0.03874319
245	0x3ca5e55c	0.020250969
246	0x3e282628	0.16420805
247	0x3dd1db58	0.102469146
248	0x3c8fb814	0.01754383
249	0xbc7cde2b	-0.015433828
250	0x3d386478	0.04501769
251	0x3e15f868	0.1464554
252	0xbb1cfebb	-0.0023955542
253	0x3d2843cb	0.041080277
254	0x3b6d4519	0.0036204515
255	0xbc3214a4	-0.010869179

cnn.4.bias f4 [64]
0	0x3ce92b17	0.02846293
1	0x3e920515	0.28519502
2	0x3e31583e	0.17318818
3	0x3e343666	0.17598876
4	0x3bf6aa1b	0.0075276024
5	0x3e6fc0e1	0.23413421
6	0xbcf57bab	-0.029966196
7	0x3e655965	0.22397383
8	0x3e2dc6ac	0.16970319
9	0x3e4d3864	0.20041043
10	0x3d9097fe	0.0706024
11	0x3e695606	0.22786722
12	0x3e4fe651	0.20302702
13	0xbc30d1fc	-0.010792252
14	0xbe284a69	-0.16434635
15	0xbe381b0c	-0.17979068
16	0x3e850ad3	0.2598482
17	0x3e429377	0.19001566
18	0x3cc6edbb	0.02428328
19	0x3e85e355	0.26150003
20	0x3b9b584e	0.0047407513
21	0x3e92c39a	0.28664857
22	0xbcd3a7e7	-0.025836898
23	0xbceec3e7	-0.029146148
24	0xbb0c3068	-0.0021391157
25	0x3e46b51d	0.19405027
26	0x3e054c8a	0.13017479
27	0x3d8d20a7	0.068909936
28	0xbd2e815b	-0.04260383
29	0xbb302085	-0.0026874852
30	0xbe499220	-0.19684649
31	0x3df02c50	0.11727202
32	0x3cc59a07	0.024121298
33	0xbea3e42f	-0.32010028
34	0xbcfce351	-0.030870112
35	0x3c3d956f	0.011571272
36	0xbd315138	-0.043290347
37	0x3d6a938d	0.05726962
38	0x3e3f6afa	0.18693152
39	0x3c3a877d	0.011384842
40	0x3d65f90e	0.05614572
41	0xbc6461b3	-0.013939309
42	0xbd8eac6a	-0.06966479
43	0xbcb5bc0e	-0.022184398
44	0x3ca6651b	0.020311883
45	0x3ba17771	0.0049275686
46	0x3d38d0d4	0.04512103
47	0x3c965889	0.018352764
48	0x3eb610ba	0.35559636
49	0xbd067d3d	-0.03283428
50	0x3ea7c4c3	0.32767305
51	0x3e6257ff	0.2210388
52	0xbc30263e	-0.010751305
53	0x3d0e382e	0.034721546
54	0x3c7d3bb1	0.015456126
55	0x3e367b3d	0.17820449
56	0x3ecd08f4	0.40045893
57	0x3c56a956	0.013101896
58	0x3c11e0e2	0.008903714
59	0x3e0bbacb	0.13645475
60	0x3e890aad	0.26765957
61	0xbe93f7c1	-0.2889996
62	0x3b86c5a8	0.004112918
63	0x3e7127b7	0.23550306

cnn.6.weight f4 [64, 64, 3, 3]
0	0xbcc1c2fb	-0.023652544
1	0x3cd1a649	0.025591986
2	0xbcbb1e73	-0.022841668
3	0xbc86249b	-0.016374877
4	0xbd3ae52a	-0.045628704
5	0xbd21238a	-0.039340533
6	0xbd010df4	-0.031507447
7	0xbc5b3d57	-0.013381324
8	0xbaafb303	-0.001340479
9	0x3cadb90e	0.021206405
10	0x3b33ef96	0.0027456037
11	0xbd1e04a7	-0.038578656
12	0xbcf7378e	-0.030177858
13	0xbc97b117	-0.01851706
14	0xbd0f8b82	-0.035045154
15	0x3c8ca094	0.017166413
16	0x3cf293b2	0.029611442
17	0xbcb5f2c8	-0.022210494
18	0x3ce0ba9a	0.027432729
19	0xbd2e508c	-0.042557284
20	0xbc98f30c	-0.018670581
21	0xbc8b7273	-0.017022347
22	0xbd2fe8ea	-0.042946734
23	0x397bd1f8	0.00024015445
24	0xbbba154c	-0.0056788083
25	0xbd4864dd	-0.048924316
26	0x3c3cae82	0.011516215
27	0xbc919124	-0.017769404
28	0x3cda17bf	0.026622651
29	0xbcd70e30	-0.026251882
30	0xbd30158a	-0.04298929
31	0xbd2190de	-0.039444797
32	0xbd0d2be2	-0.034465678
33	0x3c170a0c	0.009218704
34	0xbbc1aff6	-0.0059108688
35	0xbd2e83c6	-0.042606138
36	0xbcaf32fe	-0.02138662
37	0x3cac63e0	0.021043718
38	0xbd1161c7	-0.03549364
39	0x3d20a913	0.03922374
40	0xbd042ffc	-0.032272324
41	0x3d2278b3	0.03966589
42	0x3bba8ed6	0.005693297
43	0xbc69a406	-0.014260298
44	0xbd0e390b	-0.03472237
45	0xbc8f3480	-0.017481089
46	0x3c3d2a5b	0.011545743
47	0xbc31fa68	-0.010862924
48	0x3ce00953	0.027348196
49	0x3c974827	0.018467022
50	0x3a612bbe	0.0008589587
51	0xbd05fc1b	-0.03271113
52	0x3c5bfb15	0.013426562
53	0xbc23e16e	-0.010002477
54	0xbd031c08	-0.032009155
55	0xbacad968	-0.0015476169
56	0xbc8f9d95	-0.017531196
57	0xbc54fe15	-0.013000031
58	0x3d1dcf78	0.038527936
59	0xbc6eb7a3	-0.01457015
60	0x3c86ef02	0.01647139
61	0xbcb7a21e	-0.02241617
62	0xbbec4220	-0.007210031
63	0x3a1ec568	0.00060566375
64	0xbd18a245	-0.037264127
65	0x3bac22f0	0.0052531883
66	0x3b128f60	0.002236329
67	0x3cbd6d87	0.023123516
68	0xbd0d2b57	-0.03446516
69	0x3c7548d6	0.014970979
70	0xbce09a1c	-0.027417235
71	0xbd3f19c3	-0.046655428
72	0xbcd6e7b6	-0.026233535
73	0xbbecf67a	-0.0072315307
74	0xbc996245	-0.018723616
75	0xbd46f9b4	-0.04857798
76	0xbccb75c0	-0.024836421
77	0x3cad4c00	0.021154404
78	0x3aa04353	0.0012227095
79	0xbb410660	-0.0029453263
80	0xbc8de5a3	-0.017321413
81	0x3d0340f8	0.03204438
82	0x3c2d73c1	0.01058668
83	0x3bbd4273	0.0057757436
84	0xbc9eccb3	-0.019384718
85	0x3bab605c	0.005229993
86	0xbca07f31	-0.0195919
87	0xbc1fa339	-0.009743505
88	0xbc89dff5	-0.016830424
89	0xbd416c34	-0.04722233
90	0xbca9c3d9	-0.02072327
91	0xbd2191ed	-0.039445806
92	0x3cc64f52	0.024207745
93	0x3bd37a39	0.006453779
94	0xbd283478	-0.041065663
95	0x3b92ea35	0.004483486
96	0xbd0566a2	-0.03256858
97	0xb99bc551	-0.00029710916
98	0x3cdd27d2	0.026996527
99	0xbd0bf447	-0.034168508
100	0xbd62099f	-0.055184957
101	0xbd65973b	-0.056052428
102	0xbc7c5ebc	-0.015403446
103	0x3cc5f7bd	0.024165982
104	0xbb8f6c47	-0.0043769213
105	0xbc97a91d	-0.018513257
106	0xbcd7be60	-0.026335895
107	0xbc17fe5a	-0.009276951
108	0xbc2c0e01	-0.010501386
109	0xbc2615bc	-0.010137018
110	0xbd5dadde	-0.05412089
111	0xbba27327	-0.004957575
112	0xbd025ce2	-0.03182686
113	0x3ca4bde3	0.020110076
114	0xbc114d51	-0.008868531
115	0xbc9501b4	-0.018189289
116	0xbc34de58	-0.011039339
117	0x3d03c5ca	0.03217105
118	0xbc4f4b3d	-0.012652216
119	0x3d038f37	0.032119002
120	0xbcf67913	-0.03008703
121	0x3ca89205	0.02057744
122	0x3d24e305	0.040255565
123	0x3cc0ca15	0.02353386
124	0xbd19e800	-0.037574768
125	0x3b69845b	0.0035631869
126	0xbc1f6535	-0.0097287195
127	0xbcbb64c4	-0.022875197
128	0xbcd1098f	-0.025517253
129	0xbcb1a194	-0.021683492
130	0xbd26d592	-0.04073102
131	0xbc78a336	-0.015175631
132	0xbd0578dd	-0.032585967
133	0x3c1a15d0	0.009404615
134	0xbb5add8e	-0.0033396217
135	0xbca053cf	-0.019571213
136	0xbd027a74	-0.03185506
137	0xbd29bf54	-0.04144223
138	0x3c04538b	0.008076559
139	0x3c40e9a2	0.011774452
140	0xbd353908	-0.044243842
141	0xbd3a9072	-0.04554791
142	0x3cc486a5	0.023989985
143	0xbcdaa9b5	-0.02669225
144	0xbc84f489	-0.016229885
145	0xbcdaa64b	-0.026690623
146	0xbc952a62	-0.018208686
147	0xbd5a90ce	-0.053360753
148	0xbd4c0e60	-0.049818397
149	0xbc5ca53b	-0.013467128
150	0x3c2a4c3f	0.010394155
151	0xbcedb896	-0.029018681
152	0xbcd2e9e6	-0.025746297
153	0x3cf89def	0.030348746
154	0x3b3db1e9	0.0028945154
155	0x3ac2e55f	0.0014869383
156	0xbc068c43	-0.008212152
157	0x3cd7b442	0.02633107
158	0xbc31b982	-0.010847451
159	0xbcc1ca97	-0.023656173
160	0x3cfa6275	0.030564526
161	0xbc169213	-0.0091901
162	0xbc57bc0d	-0.013167393
163	0xbce0f149	-0.027458804
164	0xbd272b1a	-0.04081259
165	0xbc445a4e	-0.011984421
166	0xbbe9c1e8	-0.007133711
167	0xbb3ef927	-0.0029140206
168	0xbc9de360	-0.01927346
169	0xbb70a4f3	-0.003671941
170	0x3cdfb58a	0.027308244
171	0x3ba607a5	0.0050668293
172	0xbc2cb761	-0.010541768
173	0xbb61d15d	-0.0034457066
174	0x3bd73955	0.006568114
175	0x3cc3d90c	0.023907207
176	0xbaa663a6	-0.0012694492
177	0xbd4ae548	-0.049535066
178	0x3bcce1fb	0.006252525
179	0xbc7108ba	-0.014711553
180	0x3ba4ad29	0.005025525
181	0xbca4d370	-0.020120353
182	0xbbac1d81	-0.0052525406
183	0xbac93c01	-0.0015352966
184	0xbc96f3f1	-0.018426867
185	0xbcfe066b	-0.03100892
186	0xbc824372	-0.015901301
187	0x3cd421fe	0.025895115
188	0x3ccd95a4	0.025095768
189	0x3cc4d4a6	0.02402718
190	0x3cbde270	0.023179263
191	0xbd375ee6	-0.044768237
192	0x3c9fc370	0.019502372
193	0x3be72d6e	0.007054976
194	0xbd399f26	-0.04531779
195	0xbbb34a29	-0.005471487
196	0xbaed6e5a	-0.0018114552
197	0xbd4697fa	-0.04848478
198	0x3c45c980	0.012071967
199	0xbd2826e2	-0.041052707
200	0xbc346170	-0.011009559
201	0xbc8c521b	-0.017128995
202	0xbd21a8ce	-0.039467625
203	0x3cdbc460	0.026827037
204	0xbc4ea355	-0.012612184
205	0xbcace1d5	-0.021103779
206	0xbcdac7cd	-0.0267066
207	0x3bf29960	0.0074035376
208	0x3c53ec90	0.012934819
209	0x3a055056	0.00050855184
210	0xbd13bfae	-0.036071472
211	0x3cbf54e8	0.023355916
212	0xbc9fe616	-0.019518893
213	0x3c8dfaa0	0.017331421
214	0xbc737b50	-0.014860943
215	0x3d21b49e	0.03947889
216	0x3c60ae50	0.013713434
217	0x3cbd1f82	0.023086313
218	0xbcfdac62	-0.030965988
219	0x3c82ea55	0.015980879
220	0xbd349b82	-0.044093616
221	0xbca7cfe2	-0.020484868
222	0x3c8b7640	0.01702416
223	0x3c7a4e7e	0.015277503
224	0x39b3e8aa	0.0003431489
225	0xbd3ae388	-0.045627147
226	0xbcf1606e	-0.029464927
227	0xbd555c27	-0.052089836
228	0xbd190705	-0.03736021
229	0xbcd92cd2	-0.02651063
230	0xbce17afb	-0.027524462
231	0x3c8441d2	0.016144667
232	0xbd0cb2c4	-0.03435017
233	0xbd506c7e	-0.050884716
234	0x3b0a8133	0.0021134138
235	0x3c1756af	0.009236976
236	0xbd4a78ea	-0.04943172
237	0xbd278100	-0.04089451
238	0x3ccd9ccf	0.025099186
239	0xbd328d2b	-0.04359166
240	0x3c74d683	0.014943722
241	0x3bd1c7e4	0.0064020026
242	0xbd454186	-0.04815819
243	0xbcf10ce1	-0.029425086
244	0x3c937057	0.017997904
245	0xbd1211fd	-0.035661686
246	0x3ceb3e15	0.028716126
247	0xbc279c08	-0.010230072
248	0x3c8fbc52	0.017545853
249	0x3ceaa7ed	0.028644526
250	0xbd15dc36	-0.036586963
251	0xbd28c99f	-0.041207906
252	0x3d078582	0.033086307
253	0xbcb063a9	-0.021531897
254	0xbbc99c00	-0.00615263
255	0xbb51a419	-0.003198868

cnn.6.bias f4 [64]
0	0x3c9f836b	0.019471845
1	0x3d6da4b0	0.058018386
2	0xbbd0da32	-0.006373667
3	0xbd12e6bc	-0.035864577
4	0xbcd30722	-0.025760237
5	0xbe87b3ea	-0.2650445
6	0x3d1418b6	0.03615638
7	0x3badfe57	0.0053098607
8	0xbd06d35a	-0.032916404
9	0x3c97b80e	0.018520381
10	0x3c13171c	0.008977678
11	0xbc1b9d6e	-0.009497983
12	0x3c04d826	0.008108174
13	0x3d0303e1	0.03198612
14	0xbb42a9c4	-0.002970324
15	0xbce99dd9	-0.02851765
16	0xbe9c251b	-0.3049706
17	0x3bd599ca	0.006518577
18	0x3cf6b162	0.03011388
19	0x3d067477	0.032825913
20	0xbd4c98a1	-0.049950246
21	0xb966a0c9	-0.00021994406
22	0x3d08447e	0.033268444
23	0x3e536eb9	0.20647706
24	0x3ce44609	0.027865427
25	0xbb3bda3d	-0.0028664016
26	0x3cb5fc18	0.022214934
27	0xbd2e4619	-0.04254732
28	0xbce6b489	-0.028162258
29	0x3d110179	0.035401795
30	0x3c977379	0.018487679
31	0x3c898fd2	0.016792212
32	0xbcb6aa10	-0.022297889
33	0x3e83829b	0.25685582
34	0xbb3a4a60	-0.0028425679
35	0x3d51ec24	0.051250592
36	0xbc121b4f	-0.008917644
37	0x3ca43ef8	0.020049557
38	0xbcb9c446	-0.022676598
39	0x3c80012f	0.015625564
40	0xbcc97b2b	-0.024594864
41	0x3d30138f	0.042987403
42	0x3e38c77c	0.18044847
43	0x3e58620b	0.2113115
44	0xbd38c910	-0.045113623
45	0xbc43dd66	-0.011954641
46	0xbbbe4398	-0.0058063976
47	0x3c48b155	0.0122493105
48	0x3cb1717b	0.021660557
49	0xbac2f4e6	-0.0014874011
50	0xbd10f1cc	-0.035386845
51	0x3ce784df	0.0282616
52	0xbcbe8fe4	-0.023261972
53	0x3c52d833	0.012868929
54	0xbd8d6840	-0.0690465
55	0x3bf8d8a4	0.007594185
56	0xbc46a839	-0.012125068
57	0x3c9343bc	0.017976634
58	0x3bd00c49	0.0063491208
59	0x3cd6fa77	0.026242478
60	0x3cd7e04f	0.026352076
61	0x3bd61598	0.006533336
62	0xbcc5fe05	-0.024168978
63	0xbd285717	-0.04109868

cnn.8.weight f4 [64, 64, 2, 2]
0	0x3d19f871	0.037590448
1	0x3d1af9e6	0.037835978
2	0xbd2efb64	-0.042720214
3	0xbce8e79c	-0.028430752
4	0xbc6b36ed	-0.014356357
5	0xbc17a61c	-0.009255912
6	0xbcf31ad1	-0.029675873
7	0x3d4dbd01	0.050229076
8	0xbd24ee47	-0.0402663
9	0x3c0a7f7e	0.008453248
10	0xbd541d7d	-0.051785935
11	0x3cbdde6b	0.023177346
12	0x3d2e91dc	0.04261957
13	0xbcde494c	-0.02713456
14	0xbd304988	-0.043038875
15	0xbb0c2959	-0.002138695
16	0x3ba95472	0.0051675374
17	0x3b4023ec	0.0029318286
18	0xbcb26bdd	-0.021779949
19	0xbaa10c43	-0.001228698
20	0xbcaf2aa8	-0.021382645
21	0xbca43bba	-0.020048011
22	0xbad166ba	-0.001597605
23	0xbd6a6411	-0.057224337
24	0xbd2ec0ee	-0.04266446
25	0xbd6e8323	-0.05823053
26	0xbb6e6234	-0.0036374452
27	0xbd7d1553	-0.061787914
28	0x3cf8599e	0.03031617
29	0x3c8c8054	0.017151035
30	0xbd4e4fb4	-0.05036898
31	0x3a9d108b	0.001198308
32	0x3b33e38b	0.0027448859
33	0x3d5ad083	0.05342151
34	0x3d32729d	0.043566335
35	0xbd4ec229	-0.050478134
36	0x3bca37e9	0.006171216
37	0x3bb33d86	0.0054699806
38	0xbc2b5735	-0.0104578035
39	0x3c5503e6	0.013001418
40	0x3d2c97b2	0.042136855
41	0xbd3af206	-0.045640968
42	0xbb5769c0	-0.0032869428
43	0xbcd237b8	-0.025661334
44	0xbd5fed54	-0.054669693
45	0x3d7567ee	0.05991357
46	0xbd74bdde	-0.059751384
47	0xbce0a510	-0.027422458
48	0x3ceb5606	0.028727543
49	0x3d36233c	0.044467196
50	0xbd54f1c1	-0.051988367
51	0x3d0b13af	0.03395432
52	0xbd620981	-0.055184845
53	0x3c49f358	0.012326084
54	0x3c651a2b	0.01398329
55	0x3c8fc262	0.017548744
56	0x3d7cadaa	0.061689056
57	0x3d2e1ab8	0.04250595
58	0x3d151990	0.03640133
59	0x3d78ae2e	0.060712986
60	0x3acae040	0.0015478209
61	0xbce930d8	-0.028465673
62	0x3be54430	0.006996654
63	0x3d5108bc	0.05103372
64	0x3d42eef0	0.04759115
65	0x3d0080d6	0.031372868
66	0xbb143ddd	-0.0022619881
67	0x3d82d33a	0.063879445
68	0xbd27a16b	-0.040925425
69	0xbd1c488f	-0.038155135
70	0xbd682a7c	-0.05668114
71	0xbd8b9f23	-0.06817462
72	0xbd153031	-0.036422912
73	0xbd42a8e8	-0.047524363
74	0x3d0cc1c0	0.034364462
75	0xbd598a0c	-0.053110167
76	0x3b692500	0.0035575032
77	0xbc994130	-0.018707842
78	0x3bf11690	0.007357426
79	0xbccc8564	-0.02496595
80	0xbca3fcdb	-0.020018032
81	0x3c684093	0.014175552
82	0xbd45ae94	-0.048262194
83	0x3d5b3ab0	0.053522766
84	0xbd456287	-0.048189666
85	0x3d437aad	0.047724415
86	0x3d37da33	0.044885825
87	0x3beb809a	0.0071869614
88	0xbd1e86ce	-0.03870278
89	0xbbf37b5f	-0.0074304785
90	0x3d41f852	0.047355957
91	0xbcb864a6	-0.02250893
92	0xbcda2492	-0.026628766
93	0xbe43a7d7	-0.19106995
94	0x3dfd423f	0.12366151
95	0x3d99e80b	0.07514962
96	0x3abbe8e2	0.0014336372
97	0xbd3ed662	-0.04659117
98	0x3c88c636	0.016696077
99	0xbda6e934	-0.08149949
100	0x3d24542c	0.040119335
101	0xbc860272	-0.016358588
102	0x3d2b2d3e	0.041791193
103	0xbd113809	-0.03545383
104	0x3adedd08	0.0017003128
105	0x3d5285a4	0.05139698
106	0x3d7cd97e	0.061730854
107	0x3c81046f	0.015749184
108	0xbdaa496f	-0.083147876
109	0xbbae4256	-0.0053179665
110	0xbda590ca	-0.08084257
111	0x3cafa4eb	0.021440944
112	0x3c145208	0.009052761
113	0x3c1bca40	0.009508669
114	0x3d44950e	0.047993712
115	0xbd729b5e	-0.0592302
116	0xbd62db82	-0.05538512
117	0x3cd1ebdf	0.025625167
118	0xba0ceafc	-0.00053755916
119	0x3c846a0b	0.016163846
120	0xbc157157	-0.009121261
121	0x3d6d0a46	0.057871126
122	0x3d23b2a8	0.0399653
123	0x3be7ca70	0.007073693
124	0xbc35adc0	-0.0110887885
125	0x3caaa930	0.020832628
126	0xbd3fb176	-0.0468001
127	0x3a9ee740	0.0012123361
128	0x3bd894ca	0.006609534
129	0x3ca9e9e4	0.02074141
130	0x3ad0e821	0.001593832
131	0x3c5ea358	0.013588749
132	0xbda2d7e8	-0.07951337
133	0xbe027325	-0.12739237
134	0x3d7b6e48	0.06138447
135	0x3e74ca5f	0.23905323
136	0x3d6747af	0.056464847
137	0x3cc141f1	0.023591014
138	0xbcd3b996	-0.02584533
139	0x3d2ecc39	0.04267523
140	0xbd20ca04	-0.039255157
141	0x3c396d4c	0.011317562
142	0xbbd6c4f3	-0.00655424
143	0xbca2d6da	-0.01987784
144	0xbd556a93	-0.05210359
145	0xbd32cfad	-0.043655086
146	0xbd0ccc5d	-0.034374584
147	0x3c1fd00f	0.009754195
148	0x3d678549	0.056523595
149	0xbd142f93	-0.036178183
150	0xbc5f7933	-0.013639736
151	0x3d91d248	0.07120186
152	0x3a3c56e2	0.00071845774
153	0x3cb4c523	0.022066658
154	0x3d017901	0.03160954
155	0x3d03efe7	0.03221121
156	0x3c223a40	0.009901583
157	0x3d112cb1	0.03544301
158	0x3c243a16	0.010023614
159	0x3bc64962	0.0060512284
160	0x3d561920	0.052270055
161	0xbd4507c9	-0.048103128
162	0x3d1559a1	0.03646243
163	0xbd43a856	-0.04776796
164	0x3b020ef8	0.0019845348
165	0xbd9be343	-0.07611706
166	0xbda08519	-0.07837886
167	0xbc35f879	-0.011106604
168	0xbdd6db08	-0.10490996
169	0x3d91d1e5	0.07120112
170	0x3d760654	0.06006463
171	0x3d0e7b6d	0.034785677
172	0xbbe6e7d0	-0.007046677
173	0x3d8d94e3	0.069131635
174	0xbd8f813c	-0.070070714
175	0x3d2ea38b	0.042636435
176	0x3d138406	0.03601458
177	0xbd70809f	-0.058716413
178	0xbbc5a44e	-0.0060315495
179	0xbd210cab	-0.03931872
180	0xbc2b963c	-0.01047283
181	0xbb92c83e	-0.004479437
182	0xbd4a4538	-0.04938242
183	0x3d05e893	0.032692503
184	0x3ceb8b7e	0.028753038
185	0x3a954e43	0.0011391122
186	0xbd33b645	-0.043874998
187	0xbdb1bc78	-0.08678526
188	0xbb3fb95c	-0.002925477
189	0x3cf4ab3a	0.029866803
190	0xbc1bd907	-0.009512193
191	0xbd405dd0	-0.046964467
192	0x3c91cf1c	0.017798953
193	0xbd24d573	-0.040242624
194	0xbd28ed12	-0.041241713
195	0x3d02037c	0.031741604
196	0xbc89200e	-0.016738918
197	0xbbe142b1	-0.0068744053
198	0x3cdaccf6	0.026709061
199	0x3d467a43	0.04845644
200	0x3cbda240	0.023148656
201	0xbd77b7fa	-0.060478188
202	0xbd7b8702	-0.06140805
203	0x3d011d46	0.031522058
204	0x3d2d1397	0.04225501
205	0x3c1eab25	0.009684359
206	0x3c1e5fba	0.009666378
207	0x3d557fed	0.052123953
208	0x3d2ea820	0.042640805
209	0xbc15c1e3	-0.0091404645
210	0x3d4e278e	0.05033069
211	0x3ba55994	0.005046079
212	0x3c51f94a	0.012815783
213	0x3c4ed59f	0.012624173
214	0xbc5dd136	-0.013538649
215	0x3c8cf169	0.017204957
216	0xbd80be5d	-0.06286309
217	0xbc7183df	-0.014740913
218	0xbd2e1ea6	-0.042509697
219	0xbcb0d017	-0.0215836
220	0xbc86e738	-0.016467676
221	0xbbd92aba	-0.006627408
222	0xbc5f8e41	-0.013644756
223	0xbd0d5b01	-0.034510616
224	0x3d4c67ae	0.049903564
225	0x3d73e44a	0.059543885
226	0x3d696f56	0.056990944
227	0xbd3c6a90	-0.046000063
228	0xbd655227	-0.05598655
229	0x3d1ddac6	0.038538717
230	0xbd710fbb	-0.058852892
231	0x3d39aa96	0.0453287
232	0xbd17b74c	-0.03704004
233	0xbc23e987	-0.010004408
234	0x3d2bc4e5	0.04193582
235	0x3d769a80	0.060205936
236	0x3d217242	0.039415605
237	0x3c380203	0.011230948
238	0x3c6fe7b5	0.014642646
239	0xbd840e12	-0.06447996
240	0x3c0498c8	0.0080930665
241	0x3cca6b56	0.024709385
242	0xbccd33c6	-0.025049102
243	0x3d20cbfe	0.039257042
244	0x3d7b34b0	0.061329544
245	0x3d0d1fcc	0.034454152
246	0x3c1fc5e8	0.009751774
247	0xbc34cec0	-0.011035621
248	0xbcdaf945	-0.02673019
249	0x3cde6319	0.027146863
250	0xbd35fb04	-0.04442884
251	0xbb7b9a1a	-0.0038391412
252	0xbbb3d220	-0.0054876953
253	0xbcbb3bb0	-0.02285561
254	0x3a202b33	0.0006109953
255	0xbced5422	-0.028970782

cnn.8.bias f4 [64]
0	0xbe8430a1	-0.2581835
1	0xbc6d1bff	-0.014472007
2	0xbd4ab951	-0.049493138
3	0xbcb0be62	-0.021575157
4	0xbd2561ff	-0.04037666
5	0x3d85b7e9	0.06529219
6	0x3d4b97e4	0.0497054
7	0xbe442044	-0.19152933
8	0xbe1a7d30	-0.15086818
9	0xbbc1d040	-0.005914718
10	0xbd6b22fc	-0.05740641
11	0xbd073a4c	-0.03301458
12	0xbc34ff79	-0.011047238
13	0x3d20cfa9	0.03926054
14	0x3d583c2b	0.052791756
15	0xbea2289c	-0.31671607
16	0x3d039518	0.03212461
17	0xbefceca9	-0.49399307
18	0xbd3a0311	-0.04541308
19	0xbd015571	-0.031575624
20	0x3e272085	0.16320999
21	0x3d48f8b0	0.049065292
22	0x3d2e50c3	0.04255749
23	0x3d701f8c	0.058623835
24	0x3d3bc5fb	0.045843106
25	0xbd021cda	-0.031765796
26	0x3b25c46f	0.0025294085
27	0x3e330234	0.17481309
28	0xbe533a7b	-0.20627777
29	0xbd695c9a	-0.056973077
30	0x3c50d045	0.012744968
31	0xbc90cd35	-0.017675975
32	0xbd1394e1	-0.036030654
33	0xbd92f948	-0.07176453
34	0xbcedf32c	-0.029046617
35	0x3c1b4e74	0.009479154
36	0xbd0f48d1	-0.034981553
37	0xbd37aa46	-0.04484012
38	0x3d234648	0.039861947
39	0xbd5e8ca7	-0.054333355
40	0x3cdec898	0.02719526
41	0x3d246904	0.040139213
42	0xbd66ffed	-0.056396414
43	0xbd6caa14	-0.057779387
44	0xbdd48485	-0.103768386
45	0x3d8bc16d	0.068240024
46	0xbd583eff	-0.052794453
47	0x3d806a36	0.06270258
48	0x3d02e0af	0.031952556
49	0x3d8b847f	0.06812381
50	0x3d9904d1	0.07471622
51	0xbcaca4a8	-0.021074608
52	0xbce6c83b	-0.02817165
53	0xbe740bb1	-0.23832585
54	0x3d0c8560	0.034306884
55	0xbe4baa17	-0.19889103
56	0xbd6d6fa5	-0.0579678
57	0x3d057961	0.03258646
58	0xbd106034	-0.035247996
59	0x3d64009b	0.05566464
60	0x3e3e1d5f	0.18565892
61	0xbc864d3e	-0.016394254
62	0xbe674acd	-0.22587128
63	0x3d6ecd06	0.058300994
