models/AlinaCNN/encoder_weigths.pth (torch, 520199 bytes, 10 tensors)

cnn.0.weight f4 [32, 3, 8, 8]
00000000: f37d 87b8 5e64 ca3c 76b1 533d af13 863d
00000010: 8ad3 443d d643 d0bc 0de1 d03d 9111 5e3d
00000020: 1b69 6e3d 090c 6bba 7d36 463d 2e89 893d
00000030: 2a5a af3c 2b4b e73c 8c6b 1bbc 6eab 943d
00000040: fc75 23ba e59d 663d 10ea 9fbc 3994 a9bc
00000050: 0d95 b63c b72a 91bd 17eb 863d 72ca ae3d
00000060: dcb5 153d cf74 533d 04b0 693d bb41 0c3d
00000070: 111f 2f3c 9746 793c 2377 45bd 34ab 92bd
00000080: def9 ebbc 1c09 a13c 9260 92bb 72fb b53c
00000090: d470 f4bb 5ba2 8dbc 56f9 a63c 8973 00bc
000000a0: bf77 c03c 6e95 033d ea04 353d 77ff 613c
000000b0: ef9a e4bc cc45 a8bb 9802 cabd 451c 9a3c
000000c0: 83d5 05bd 1da6 34bd 42a8 213d 88f2 e9bc
000000d0: 1448 aabd 8344 24bc 1841 9dbc f4e0 81bd
000000e0: 9cb2 5fbc 4c96 83bd d055 c6bd 74fb e5bc
000000f0: 8fe2 c4bd 7200 92bd f495 06bc a73a 4a3d
00000100: 6dff b33d 0fae e13c 22a7 b93d 4c7e 18bd
00000110: 23e5 8e3d 8d2e 333d 9e59 c03d 3490 823c
00000120: 6cc3 00bd b5bb 8e3c 4a23 32bd c0c2 a3bc
00000130: 6cf9 62bc e38e abbb 336f 8cbd 471c f5bc
00000140: d6b3 943d 0bbe 2c3c 06ca c3ba 029b 4dbc
00000150: 962b 71bc 80c1 8cbc 78fd a33c 2b07 693d
00000160: 4640 17bd 0a43 efbb fda5 05bd cba3 933c
00000170: 1694 7dbd 63c6 e2bd 49cc 94bd a1d8 9dbd
00000180: eb76 09bd 7d3e a4bc c15b 50bd e882 bdbc
00000190: 5397 2abd 7a70 cfbd 9f28 cfbc 090b 80bd
000001a0: ddd3 563d 96f9 5fbb 4b8c 743c efa3 42bc
000001b0: 74b5 4ebd 255e febd f6ae e7bd 8423 38bc
000001c0: 783b 0cbd 378d 493c c16a 04bd aef3 343c
000001d0: 18b5 c7bd 8326 e63a 50fe c1bd 00fb 543c
000001e0: eee5 363d bde1 693d a813 aabc 68af 2dbd
000001f0: 2a6c 153c c38f dbbc b5d6 21bd cf62 97bd
00000200: e64e dc3d f327 5e3d 18c7 a03d e197 b03d
00000210: 9241 f13c 0cc7 cb3d 405c e13d 33b3 923d
00000220: 99c8 043d c2d0 9e3d 9f2c 22bd 6173 393d
00000230: 0192 d83c 20c4 be3b 6fe0 a83d e8fe 9e3d
00000240: 93d6 713d c615 443a e1b6 9a3c 30df b63c
00000250: 3300 3bbd e303 e6bc 927b d2bb 884c 7c3d
00000260: 9ec5 4c3d 2af4 613d d2c5 943d 58fc eebc
00000270: 7c32 67bd 99ff 343d e7ec 14bd 5da8 e0bb
00000280: 3358 adba 791e 143d afbf 1abd 3f97 c83c
00000290: f1a3 df3c ea4f 9a3c 7bb4 adbd 0957 9dbd
000002a0: 0a70 093d 28ec e0bc 2d88 053d e1ee 5fbc
000002b0: 7445 87bd 820a a53a 9d73 d9bc 43b0 9f3c
000002c0: ac8f ae3d 5ec1 963d db00 2f3d 5e08 673b
000002d0: ff1d a03d ca4c 303d fbba 5cbc 138d 8b3d
000002e0: c42e b13d 7bb2 36bc 156b 993d ca09 b83d
000002f0: e13e 9bbb 96f4 143d aebe a93a 9205 4b3d
00000300: 0a08 26be 554a d1bd b27b bbbc 3085 80bd
00000310: 5faf 6ebc cd5c 433d 4a95 7f3d 26e3 453d
00000320: bde1 e7bd 7a59 6fbd 00dc 8cbd 6cf5 a5bc
00000330: b31c e63c a1e4 8a3b 108b b33d f323 a33d
00000340: 2c61 f1bd afe6 11bd 4ebb 88bc 43ed d5bc
00000350: 9783 21bd 71a6 313b 1a3a d33c 34f4 eaba
00000360: 3f7a 0cbd fb0c 85bd f081 29bd 79f1 2fbd
00000370: 7df9 903c ec41 fe3b 1501 15bd fdd2 263d
00000380: 17b8 49bc 7c40 9ebc 22e1 20bd d0ee 1f3b
00000390: ca0a 44bc c555 d7bc 7580 dd3c 98cc 643c
000003a0: 06eb ce3c d009 20bd 1f8c ec3c 9e4d 22bd
000003b0: c819 64bd 52a5 dc3b d5f0 1a3d 26da cb3c
000003c0: 1c1b a63d 845c 433d 63c5 9d3c f0e7 2d3d
000003d0: aa2a c5bc 4542 1b3d 4c8d 2a3d 5da7 b03d
000003e0: 8015 293d 274d 83bc c8fb 993d ab6c 213d
000003f0: 8ac3 d43d 001c da3d 716d 573a 12f6 a83d
-6.4607615e-05 0.024706062 0.05168291 0.06546723 0.048053302 -0.025422972 0.10199175 0.05421597
0.058205705 -0.0008966332 0.048391808 0.06715618 0.021405298 0.028234085 -0.00948609 0.0725926
-0.00062355376 0.056302924 -0.01952079 -0.02070056 0.02228787 -0.07088225 0.065878086 0.08534707
0.036550388 0.05162507 0.057052627 0.034242373 0.010688559 0.015214584 -0.04820932 -0.07161561
-0.02880567 0.019657664 -0.0044670785 0.022214625 -0.007459739 -0.017289331 0.020382565 -0.007840046
0.0234946 0.03212493 0.04419414 0.013793818 -0.02790591 -0.0051352736 -0.09863776 0.018812308
-0.032674324 -0.04410373 0.039467104 -0.02855803 -0.08314529 -0.0100261 -0.019196078 -0.063417345
-0.013653424 -0.06425151 -0.09684336 -0.028074004 -0.09613525 -0.07128991 -0.008214463 0.04937234
0.08788953 0.027548818 0.09065081 -0.03722982 0.06977298 0.043745566 0.09392093 0.015937902
-0.03143637 0.01742349 -0.043490686 -0.019990325 -0.013853412 -0.0052355393 -0.06857147 -0.02992071
0.072608635 0.010543357 -0.0014937527 -0.012549164 -0.014719864 -0.017182112 0.020018324 0.0568916
-0.03692653 -0.007301693 -0.032629002 0.018022439 -0.061908804 -0.110729955 -0.07265527 -0.07707334
-0.033560675 -0.020049328 -0.050868753 -0.02313371 -0.04164822 -0.10128875 -0.025287924 -0.06252105
0.052448142 -0.0034175864 0.014926027 -0.011879905 -0.050466016 -0.124203004 -0.11312668 -0.011238936
-0.0342364 0.012301735 -0.03232837 0.011044426 -0.09751338 0.0017559085 -0.094723344 0.012999296
0.04465287 0.057100046 -0.020761326 -0.04240361 0.009120027 -0.02680195 -0.0395114 -0.07391893
0.10757236 0.054237317 0.07850474 0.086227186 0.029450212 0.099500746 0.110039234 0.07163086
0.032417867 0.07754661 -0.039593335 0.04527605 0.026436808 0.0058217198 0.08245932 0.07763463
0.059042525 0.0007480051 0.018886032 0.022323221 -0.045654487 -0.028078025 -0.006423422 0.061596423
0.04999315 0.055164494 0.07264294 -0.029173061 -0.05644463 0.04418907 -0.03635874 -0.006856008
-0.0013225138 0.036161873 -0.03778046 0.024486182 0.027299853 0.018836934 -0.084816895 -0.07682616
0.033554114 -0.027456358 0.03260057 -0.013667793 -0.06605044 0.0012591633 -0.026544387 0.019493228
0.08523497 0.073611006 0.042725425 0.003525279 0.07818221 0.04304198 -0.013472314 0.06814017
0.08651498 -0.0111509515 0.074911274 0.08986242 -0.0047377204 0.036366068 0.0012950504 0.04956586
-0.16214004 -0.10219256 -0.022886131 -0.062754035 -0.014568179 0.047695924 0.062398233 0.04831233
-0.11322353 -0.05843494 -0.06877899 -0.020258628 0.028089857 0.0042386805 0.087667584 0.07965841
-0.11786112 -0.035620388 -0.016690876 -0.026114112 -0.039432134 0.0027107263 0.02578454 -0.0017925561
-0.03429627 -0.064966165 -0.041383684 -0.042954896 0.01769709 0.0077593233 -0.036377985 0.040728558
-0.012311957 -0.019317858 -0.039277203 0.0024403818 -0.011965463 -0.026286015 0.027038792 0.013964795
0.025258552 -0.039071858 0.028875409 -0.039624803 -0.05568865 0.006733575 0.03782733 0.024884295
0.081106395 0.04769565 0.01925916 0.04245752 -0.024068195 0.037904996 0.041638657 0.08625672
0.04128027 -0.016028 0.075187266 0.039410274 0.103888586 0.10649872 0.0008217907 0.08250059

cnn.0.bias f4 [32]
00000000: 6fb5 a0be 7443 68be 2bc0 a9be cc22 8ebe
00000010: a687 c2be 3f01 dbbe 7ee0 cabe 7a93 953e
00000020: 4293 86be bc8c cebc bd7b 11bd b74d 87be
00000030: c722 04bf 68ec 373e 9c72 ff3b 4a38 b03c
00000040: 88da 4abe 02ba bf3c 4995 f73d 3ab1 d23e
00000050: 81c5 b0be 79ae a1be 5d3d 9ebd 6166 24be
00000060: 468d 50be eea1 163d ca14 cc3e b9da 90be
00000070: dc46 093f 6956 723c 2da3 3dbe 12db 8e3e
-0.31388423 -0.22681981 -0.33154425 -0.27760923 -0.37994117 -0.42774388 -0.396244 0.29214078
-0.26284224 -0.025213592 -0.035518397 -0.2642648 -0.51615566 0.17961276 0.007795645 0.021511216
-0.19809926 0.023404125 0.12089021 0.41150838 -0.34525684 -0.31578425 -0.07726548 -0.1605468
-0.20366392 0.036775522 0.3985961 -0.28291872 0.5362375 0.01479111 -0.18519278 0.27901512

cnn.2.weight f4 [64, 32, 4, 4]
00000000: e59a 813c e6c8 d0bc e42c 4d3c 6be5 84bd
00000010: 40c6 a03c 4fa1 a73d d2ff b53c 6a90 f53c
00000020: 9833 1d3d 5606 d03d 078b b13d ba27 8f3d
00000030: c33c 773b 7b6b 9bbb 1a2f 79bb df64 1fbd
00000040: 6238 cabc 414b 6fbc d7f9 8c3a 4c95 3dbd
00000050: d531 05bd 6161 77bc 32a6 503d 24eb 823d
00000060: aa42 ef3c d205 413d a454 2f3d d59b 013d
00000070: c7c1 c93b cf95 193d e77c bebb 4933 9bbd
00000080: daac 8f3b 20e2 4e3d cbc1 3d3c e730 14bc
00000090: 1438 613d a03f 0f3d 2803 b83c 76f2 6f3d
000000a0: 085c e13c ddac e83d fe47 f13d 5ab2 8d3d
000000b0: d50a 493b 80b9 9b3d c4fb 9a3c 9187 84bc
000000c0: fc82 1c3d 823a 9a3d b452 a8bb 5ff3 b4bc
000000d0: c790 1d3d 5cbb 03bd 0809 87bb 9bcc 7ebc
000000e0: 5a90 90bc c721 963c a1aa e9bb edd1 0c3d
000000f0: 0e2a 0ab9 76c6 90bc 67bb a13d 5123 553c
00000100: 0ee2 533d 26fe 093d 1865 a7bc a4d9 55bc
00000110: 06a0 853d 2dd2 7d3c 005a acbb ab3a 5f3d
00000120: 66ee 27bc a290 4e3d fbf9 cc3c a334 563d
00000130: 36e2 ca3b 912d b73c 3d4f 943d ccdf 853c
00000140: 7bca b33b 7d8b a8bb e049 7bbc cc2c e4bc
00000150: a815 853a b2a9 813d 4091 b93d 8a74 893d
00000160: aac8 133d 4e4b 0c3e 90ba 013e 52fa 103c
00000170: 4b9a 153d f276 ad3d ade2 263c c6a0 7abd
00000180: 225b 033d 7686 9d3c f0db 843d b349 f1bb
00000190: 7b28 ebbc 9d82 193c ecd2 793d 46d8 6b3d
000001a0: 686b 9abc cea3 143d ca81 04bd 412e efbc
000001b0: 9391 d83c 24ff 663c 3ada 10bd 417d 1bbd
000001c0: 3f63 693d f00e b93d 1c7c 133c 36ba 313b
000001d0: 51c5 fabb 0832 ef3c 87da 5e3c d76b c1bc
000001e0: 0875 d4bc 148a 2abd e34b 64bd dfdd f0bc
000001f0: f7b0 7d3c 16ed e9bc e330 38bd 3af4 4c3c
00000200: a838 0d3d 1cd9 89bc e03f 343d 8532 99bc
00000210: e640 fcbc ead3 70bc 092b 943c d8fd b9bc
00000220: 1a34 fb3c 4304 4e3d 3b6d a63d ebe3 493c
00000230: e93c 173d 8031 e23b 367c 733d 7cda 983c
00000240: c2ff 133d e148 b13c 00ba cfbc 17f0 373d
00000250: be85 613b c4fe 3ebb 87cc 2d3d 8646 023d
00000260: bed1 573d 3eaa d5bb e77b dbbc 5e76 f8bb
00000270: 47a0 b9bc d8fc 78bd 1ac6 7abc f91c 52bd
00000280: 9dcc aabc 9031 f5bc 4fca 843c 1378 33bb
00000290: 65cb 01bd e8b0 8c3c 0b8e 593a 1712 30bc
000002a0: f29c 44bc 61e7 bb3c ebe1 dabc 1e17 a63c
000002b0: b666 0dbd 60a1 8f3c bb03 b83c 5158 9cbc
000002c0: ba64 313c 37ad cdbc 0ca7 b53c 714a dfbc
000002d0: 255b 97bc 0db5 1d3d b1a7 8a3c b35b 983c
000002e0: 83d4 54bc 4a29 253d 3ee2 273d 76c9 f73c
000002f0: 5274 0f3c 3200 a3bc 5e5d af3c 049b 27bd
00000300: 2c4b 2ebc bf80 4cbc bf56 1dbd 68b4 933d
00000310: 0736 a03c 4dfb b83c f42e bb3d 8c67 983d
00000320: 67b9 6c3c 1d91 133d f599 a73d 2296 423d
00000330: d01d 773c db41 5ebd 6c06 71bc 264e 5f3c
00000340: 7ef4 513d 24a8 873d 5fd6 0e3c a1b7 513c
00000350: cd8b 223c 10cc 97bc e5bb 5b3d d529 093d
00000360: e349 87bc 35f7 11bd 0858 bbbc a406 abbc
00000370: 1e2b b1ba 67b9 fc3c 29a1 4d3d 5a2d 7c3c
00000380: d6df 233d fc05 443d 9ce3 23bd 0045 59bd
00000390: 3c3b 8e3b c6a5 24bd 490a 4cbc 0b4d 8939
000003a0: 7a9e 29bc a293 2c3d c1b4 293d 8698 f6bc
000003b0: 5faf 06bd 141d e7bb 4b66 5c3d 36cf fe3c
000003c0: 5b6d 87bc 50e6 9e3c e2b7 f83c da66 2abd
000003d0: 658e 7ebc bb8d 9b3c c5c3 94bc 6b81 eabb
000003e0: fa89 f7bc d38f 973c 4240 5d3b b990 ffbc
000003f0: 8622 253d 72ad 8bbc 43d7 a33c 9f72 8abc
0.01582093 -0.02548642 0.01252291 -0.064890705 0.019625783 0.08185064 0.022216711 0.029976089
0.03837928 0.101574585 0.086690955 0.06989999 0.0037725426 -0.0047430373 -0.003802246 -0.038914558
-0.024685089 -0.014605344 0.001075561 -0.04628496 -0.032518227 -0.0150989005 0.050939746 0.06392506
0.029206593 0.04712469 0.04280533 0.031642754 0.0061571333 0.037496384 -0.0058132294 -0.07578141
0.004384619 0.05050862 0.011581848 -0.009044862 0.05498512 0.034972787 0.022462443 0.05858084
0.027509704 0.11361096 0.117813095 0.069187835 0.0030676622 0.07603741 0.01891888 -0.016177924
0.038210854 0.07530691 -0.005136812 -0.022088705 0.03846815 -0.0321611 -0.0041209497 -0.015551711
-0.017646957 0.018326653 -0.0071309363 0.03437989 -0.00013176372 -0.017672759 0.07897072 0.013008908
0.051729254 0.03368964 -0.020433947 -0.013052378 0.06524663 0.015492004 -0.0052597523 0.05449931
-0.01024971 0.0504309 0.025021544 0.052296292 0.006191517 0.022360595 0.07241676 0.016342066
0.005486784 -0.0051435814 -0.015337437 -0.027853392 0.0010153549 0.06331195 0.09060907 0.06711681
0.03608004 0.13700601 0.12668824 0.0088487435 0.0365241 0.08469953 0.01018588 -0.06118848
0.032069333 0.019229155 0.06487262 -0.007363522 -0.028705826 0.00936952 0.060992166 0.0575793
-0.018850043 0.03628903 -0.03235034 -0.02919686 0.026436603 0.014098916 -0.035364367 -0.03796125
0.056979414 0.09036052 0.009001758 0.0027119047 -0.0076529165 0.029198661 0.013601906 -0.023610992
-0.025934711 -0.041635588 -0.055736434 -0.029402671 0.015484086 -0.028555434 -0.044968497 0.0125094
0.03447786 -0.016827159 0.04400623 -0.018700847 -0.030792665 -0.014698962 0.018086927 -0.02270405
0.030664492 0.050297033 0.08126303 0.012322406 0.036923323 0.0069028735 0.05944463 0.018658869
0.03613258 0.021641197 -0.025357246 0.044906702 0.0034411992 -0.0029143551 0.04243138 0.031805538
0.05269026 -0.0065205386 -0.02679248 -0.00758247 -0.022659434 -0.060788006 -0.01530602 -0.05129716
-0.02084952 -0.02993086 0.01620975 -0.0027384802 -0.031688113 0.0171742 0.0008299059 -0.0107465
-0.012000309 0.022937478 -0.026719054 0.020274695 -0.03452178 0.017533004 0.022462716 -0.019085081
0.010827238 -0.02510701 0.02217438 -0.027257176 -0.018476078 0.03850274 0.016925665 0.018598413
-0.01299012 0.04032258 0.040987246 0.030247431 0.00875576 -0.019897554 0.021406826 -0.04091932
-0.01063804 -0.012481867 -0.038412806 0.07212144 0.019557012 0.022580767 0.09139815 0.07441625
0.0144485 0.036027063 0.08183662 0.04750646 0.015082791 -0.054262023 -0.014711004 0.013629472
0.051258557 0.06623867 0.008718102 0.012800128 0.009921026 -0.018529922 0.053645987 0.03348716
-0.016514724 -0.035636146 -0.022869125 -0.02087719 -0.0013516878 0.030850125 0.050202522 0.015391672
0.04000839 0.04785727 -0.040011987 -0.05304432 0.0043405574 -0.040197156 -0.012453624 0.00026188078
-0.010352725 0.04213298 0.041432146 -0.030102026 -0.03288209 -0.007053027 0.05380849 0.031104665
-0.016531637 0.019396931 0.03036112 -0.041601993 -0.015536879 0.01898848 -0.018159756 -0.007156541
-0.03021716 0.018501198 0.0033760224 -0.031196939 0.040316127 -0.017050479 0.020000106 -0.016900359

cnn.2.bias f4 [64]
00000000: 877a b4bd 2425 2dbd ef7c 8c3e 2fa3 cfbc
00000010: 3133 d8bc 33b7 ecbd 0826 2ebd bd4e cd3c
00000020: 6808 75bd ea35 7dbd 9ecc 5fbd 03de bcbb
00000030: 975e 26be 0eaa 02bd 181e 0dbe 22dc b8bc
00000040: bfc7 75bd 8127 f93c 78f2 c3ba 0004 91bd
00000050: ec5a 7fbc 1a61 a73b b7d0 9bbd 2f6d 91bd
00000060: f04e 80bd c544 c73c 9cdf 2cbd b239 50bc
00000070: 30c2 28be f979 8fbd 8f9b 3abd ea5e a936
00000080: 6ae1 1cbe dc09 6ebe 3b76 e93c 8776 68bd
00000090: a9e5 d93c 1066 c73d 2b2a 50be 7ea2 debc
000000a0: 525e b2bd b9eb 1bbc 4ec1 01be 241c d53c
000000b0: 858f acbc 813f bc3e e02e a63e 5a18 92bd
000000c0: acb9 f83c 6874 983e d277 893e b177 e5bd
000000d0: 3676 38be 9b26 20be 9004 bfbc a56f e4bc
000000e0: 2576 3ebd 4eb1 bc3e 948c bd3d f41d fa39
000000f0: 7c61 13bd 32cd 183c 1dc3 05be 8ba0 8abd
-0.08812433 -0.04227175 0.27439067 -0.025346367 -0.026391597 -0.1155838 -0.04251674 0.02506196
-0.05982247 -0.061818995 -0.054638498 -0.0057637705 -0.1624702 -0.031900458 -0.13781011 -0.022565905
-0.060004946 0.030414345 -0.0014949581 -0.07080841 -0.015585642 0.005108011 -0.076081686 -0.07100903
-0.06265056 0.024324784 -0.042205438 -0.012709068 -0.16480327 -0.07005686 -0.04555851 5.047642e-06
-0.15320364 -0.23245949 0.02849876 -0.05675366 0.026598768 0.09736264 -0.20328586 -0.027177092
-0.087093964 -0.00951665 -0.12671396 0.026014395 -0.02106453 0.367672 0.32457638 -0.07133551
0.030361973 0.2977631 0.26849228 -0.1120447 -0.18013844 -0.15639727 -0.023317605 -0.027885268
-0.04649939 0.36854023 0.09255329 0.00047706033 -0.03598164 0.009326266 -0.13062711 -0.067689024

cnn.4.weight f4 [64, 64, 3, 3]
00000000: d23d 4d3d 433a ddbc 481a 56bd 4aac cb3b
00000010: f353 04bc 990b 703d e27e 5e3d 524d 92bc
00000020: 241c a13c 6a8e 89bc c116 0abd 96f9 163d
00000030: 97f3 013d 0a1a 26bc 35c1 933c e77c 0a3c
00000040: e589 173d f0af 28bd 3bd9 5d3d 5880 043c
00000050: 56b1 213e b4a8 f93b 5002 f03b 5012 4cbb
00000060: b62c 87bd aaa1 983c 9afe ba3c 61a0 d5bb
00000070: 4e45 b0bc 47e6 8a3b 363d 9f3b 7220 dbbc
00000080: 8e96 793c b1dc adbb 1244 e63b 7f30 173d
00000090: e6da 903b bdd6 97bc 5f45 03bd 1c78 88bc
000000a0: 892d be3c 12b9 013d f648 aabc d7dc 3ebc
000000b0: 983b 0cbd e5fb fbbd e5c9 e0bc a30a 803b
000000c0: 2134 543a c850 a13c 0010 bc3c 105d aebd
000000d0: 6048 413d ff5d dcbb 23f5 d13c 99a1 a53c
000000e0: 9139 08bd 5cd4 b03c 6d15 6c3c ee3a 15bc
000000f0: 40ed 3b3c 88f0 e7bd d1a8 603d 81f1 713d
00000100: 87fd 8c3b 0b7b 773d f78d 80bd 4204 e13c
00000110: 524f e6bd 4d40 c4bd 84ae 5c3d ed27 323d
00000120: 93da 81bd 8404 5cbd e0db fe3c d569 623c
00000130: 6521 0d3e fabf 483d f312 f0bc b85e 1d3b
00000140: ecc2 913c 7b22 2b3d 3988 7bbc 5016 a6bd
00000150: 3cad 7a3d 96be 77bc ff9f 30bd 9e75 863c
00000160: dcab 43bc 86bc 843d f77d 10bb acab fabb
00000170: ec50 1e3d 9be6 2b3d eb2c a03c 62d4 07bd
00000180: a6ca 633c 2e72 b7bc 95e0 d2bc 68a2 483d
00000190: b873 c13d b201 2fbd 4c89 78bd c6d8 2cbd
000001a0: ce4b 02be 2d9d 083e 87fa abbc 2f32 4a3c
000001b0: 5158 b03d 8561 bfbc 8b68 223d d911 9cbd
000001c0: 194f 5d3d 7436 0ebd 7447 0fbc c7bd 63bd
000001d0: 9798 6bbc 8b1b 7939 92ac d4bc 326a 8e3c
000001e0: 0dc4 c03c 0e11 13bd 01e4 853c 07f7 d4bc
000001f0: bc27 b9bc a617 cbbc 5295 983d 24a8 17bd
00000200: 21c5 f2bc e958 11bd 1a10 a0bc fa60 b4bd
00000210: 6abe cb3c b31b 46bd e488 103d f390 d73c
00000220: 692a 20bc 2662 da3d 1d7d ae3c becd d53d
00000230: d469 ec3d c1f0 24bd 9969 e33d a35a 223d
00000240: e115 8a3d 7b5d a4bd be16 ba3d ceaa 363d
00000250: da44 82bd c576 8cbd 79d2 53bc 7442 153d
00000260: cd48 683d a474 d1bc f9c7 873c ad03 d03c
00000270: 6ce4 a93c 9c75 723b 3631 d43a 9faf c1bc
00000280: b12d 72bc 6c9d 2b3d 48d5 5e3d d32f a03b
00000290: deed 99bb c8c1 8ebd 4488 0c3d fdd3 993c
000002a0: 3c77 8d3d 8a79 fe3c 4a98 073c 8033 88bd
000002b0: 367e 043e a71b 3cbd c4ce 8fbc 6bf3 87bb
000002c0: 25e2 563d 6871 aa3c a76b 01be 6fe3 0a3d
000002d0: 2b0f 873c 2991 5c3d 2086 e33c 6f4b 4aba
000002e0: 1d12 b8bb 8ac1 7f3b c0eb 95bc 8c55 0f3d
000002f0: 56fa 5b3d 8ff6 0d3d 2cbd 80bb b5ea 9cbb
00000300: 5282 e13c 186a da3c 7e0d b13c 8057 f23c
00000310: 4667 c3b9 5c4c 013c 5736 b23c 82d1 963c
00000320: c4ad a6bb c250 6c3c c358 213d 1538 793c
00000330: 1158 a93c 8904 1a3c fdfc 583c a5c5 edbb
00000340: 1df9 c03d 4a66 79bd 5e96 27bd 88fc 1bbd
00000350: 2b50 033e aec0 673b fc62 84bc b0f1 fc3d
00000360: 0b3e 91bb 44ed bfbb af10 13bd b497 0e3d
00000370: 0fc2 e4bc f19f 00bd 7c53 5abc 953c 29bd
00000380: fbdc 08bd d58b d73b 9886 a4bc d52d db3c
00000390: 5508 bcbb 2a88 0b3d f849 32bb 4f10 9d3b
000003a0: abda d2bc 18a1 03bc b19b 1abc 6e23 d4bc
000003b0: 1e9d 98bc fbe0 67bd 7ba9 1ebd bf40 08bc
000003c0: cfba 0c3c 0ea6 b8bc ae4b 29bb f386 ac3c
000003d0: 9687 5e3d 88b3 3d3c 94d6 f1ba dd72 8d3d
000003e0: f34f 923c 176b 623b 52ea 783b 458c ac3c
000003f0: 81ee 83bd afca 00bc b105 30bd 7000 38bd
0.050107785 -0.02700532 -0.052271158 0.006215607 -0.008076656 0.05860481 0.054320224 -0.017859135
0.019666739 -0.016791541 -0.033713106 0.036859117 0.031726446 -0.010138044 0.018036464 0.008452631
0.03699674 -0.041183412 0.054162245 0.00808724 0.15790305 0.007618988 0.0073244944 -0.0031138845
-0.06600325 0.018631775 0.022826482 -0.006519363 -0.021517422 0.004238877 0.004859592 -0.02674887
0.015233649 -0.0053058495 0.0070271576 0.036911484 0.004420626 -0.018535012 -0.03204858 -0.016658835
0.023215072 0.031670637 -0.020786744 -0.011649332 -0.03423652 -0.123039044 -0.02744002 0.003907518
0.0008094926 0.01969184 0.022956848 -0.08513844 0.047188163 -0.0067250724 0.025629586 0.020218657
-0.033258025 0.021585636 0.014409405 -0.009108288 0.011470139 -0.113251746 0.054848496 0.059068207
0.0043026838 0.060420077 -0.06277078 0.02746785 -0.11245598 -0.09582577 0.05387737 0.043495107
-0.06340518 -0.053715244 0.031110704 0.013819178 0.1378227 0.049011208 -0.02930591 0.0024012756
0.017793141 0.04178093 -0.015352302 -0.081097245 0.061200365 -0.015121123 -0.043121334 0.016413506
-0.01194283 0.064812705 -0.0022047737 -0.0076498594 0.038651392 0.04196797 0.019552669 -0.03316153
0.013903296 -0.022393312 -0.025741855 0.048983008 0.094459 -0.042726226 -0.06067781 -0.04219892
-0.1272423 0.13341208 -0.020993484 0.012341066 0.08610595 -0.02336193 0.03965048 -0.07620592
0.05403051 -0.0347199 -0.008745063 -0.055600908 -0.014379642 0.00023756751 -0.025961194 0.017384622
0.023530984 -0.035904936 0.016344072 -0.025996698 -0.022601955 -0.02479155 0.074503556 -0.037025586
-0.029635014 -0.035485182 -0.019538928 -0.08807559 0.02487107 -0.04836626 0.0352868 0.026314234
-0.009775736 0.106632516 0.021299893 0.10439633 0.115436226 -0.040268663 0.111041255 0.03963722
0.06742454 -0.080256425 0.09086369 0.044596486 -0.06360789 -0.06858591 -0.012928599 0.036440328
0.056710053 -0.025568314 0.016574847 0.025392378 0.020738803 0.003699637 0.0016188982 -0.023643313
-0.0147814015 0.041898176 0.05440262 0.0048885136 -0.0046975454 -0.069705546 0.03430964 0.018777842
0.06907508 0.031063814 0.008276055 -0.06650448 0.1293877 -0.04592481 -0.017554648 -0.0041488907
0.052461762 0.02080603 -0.12638722 0.033908304 0.016486725 0.053849373 0.027773917 -0.0007716929
-0.0056173936 0.003902527 -0.01830089 0.034993693 0.053705536 0.034658965 -0.003928801 -0.0047887214
0.027527962 0.026661918 0.021612879 0.029582739 -0.00037270243 0.007891741 0.021754427 0.018410448
-0.0050866324 0.014423551 0.03939129 0.015211125 0.020671876 0.009400495 0.013243911 -0.007256227
0.094225146 -0.060888566 -0.040914886 -0.03808263 0.1282355 0.0035362649 -0.01616048 0.12350786
-0.004432445 -0.0058571417 -0.035904583 0.034812644 -0.027924566 -0.031402532 -0.013325568 -0.04131754
-0.03341387 0.0065779486 -0.02008371 0.026755253 -0.005738298 0.034065403 -0.0027204733 0.004793204
-0.025739035 -0.008034013 -0.009436534 -0.0258958 -0.018629607 -0.056611042 -0.038735848 -0.008316218
0.0085894605 -0.022540119 -0.0025832462 0.021060443 0.054328524 0.011578448 -0.001845079 0.06906674
0.017860388 0.0034548694 0.0037981463 0.02106298 -0.064419754 -0.007860824 -0.042974178 -0.044922292

cnn.4.bias f4 [64]
00000000: 2260 0ebd ffa6 c8bc c9ee 8ebc 1121 a8bd
00000010: c45f dabc a253 19be 53ef 583e 4413 0d3d
00000020: 3358 ab3e ba53 813a b739 6b3b d4c9 e73c
00000030: adb0 90bb b994 73bd 7fb5 aabe fca7 92bb
00000040: 673c 35be 98c7 7c3e 4405 be3c 3a91 61bc
00000050: b77b 26bd 09b9 3bbd 0c77 0fbe e1ab 16bb
00000060: d9d6 12bd 3267 f8bc 2dc6 2cbd 6921 44bd
00000070: e38d b73c 48d0 1abe 76b1 8dbc 9faa 693e
00000080: 9807 82bd 2ba0 c2bd c5c7 febc dbe8 33bc
00000090: 72bd fabb 5d69 c6bd 4d7c 6bbd f468 f8bd
000000a0: 1f42 58bc a6c1 363e d389 fbbd 20b2 34bd
000000b0: 2fd0 bdbd c893 053d fb83 b1bd c015 31bc
000000c0: b6e0 c6bd d0de 053e bfdb 643b ba0c 37bd
000000d0: b120 adbc f48e 393c 8fb4 fcbc ae10 8d3e
000000e0: 4dfb d33d 3107 31bd 5064 2e3c 1dc1 983c
000000f0: 3fe0 cc3c e273 e4bc 42c0 e5bc 3794 07bd
-0.03475965 -0.024493692 -0.017447846 -0.08209432 -0.026656993 -0.1497331 0.21185045 0.0344422
0.33465728 0.0009866871 0.0035892555 0.028294481 -0.0044155926 -0.059468005 -0.33341596 -0.0044755917
-0.17698823 0.24685514 0.02319587 -0.013767535 -0.040645327 -0.04583076 -0.14010257 -0.0022990631
-0.035849426 -0.030322645 -0.042181183 -0.047883425 0.022406524 -0.15118515 -0.017296534 0.22818993
-0.06349105 -0.09503206 -0.031101117 -0.01098081 -0.007651978 -0.09688065 -0.05749159 -0.12129393
-0.013199358 0.17847309 -0.12282147 -0.044115186 -0.092682235 0.03261164 -0.086677514 -0.010808408
-0.09710829 0.13073277 0.0034921018 -0.04468987 -0.021133753 0.011325587 -0.030847816 0.27551788
0.10350666 -0.04321975 0.010644034 0.018646771 0.025009273 -0.027887288 -0.028045777 -0.033100333

cnn.6.weight f4 [64, 64, 3, 3]
00000000: 2bb2 45bd ca6f febc 87eb 0ebc 33ec 3dbc
00000010: 62ca 053c c8b6 03bb 8ef0 17bd 6695 16ba
00000020: f63c 11bc 2adb 96bc c0f2 183d 15ec 82bc
00000030: ef62 29bd f3b5 8cbc d793 21bd 6255 1d3d
00000040: eb5c 2e3b 5b53 24bd cf8c 1b3d 6db4 083b
00000050: 2cfe 233d 0978 d03c e664 e1bb 5b7a fcbc
00000060: bef1 fa3a ddb5 e0bc 147e a93c b417 e63b
00000070: a478 24bd 4a48 34bd be00 18bd 0dd5 73bc
00000080: 928e 573c dfa9 b6bc 31f7 00bc 18c1 64bd
00000090: fa57 25bd 7315 c7bc e34c adbc b815 c23b
000000a0: 5e9a 9bbc 5fd3 8ebc 5555 0fbd 2368 74bd
000000b0: 1bee f93b f1af 4ebd fc8c 5ebc 00ce 6ebc
000000c0: 3fe4 d1bc f73b 8bbd 60a3 da3a 7c12 21bc
000000d0: f3fc 3cbd e476 35bd 63a3 01bc 607a 843b
000000e0: fc2c 763c 9dfb 66bd 72b1 8f3c 0d56 013b
000000f0: 28d9 3cbd 9411 f43b 0de1 42bd e412 e0bb
00000100: e13f 7dbd d355 0fbd ad82 5dbd a295 403b
00000110: c961 92bd 5455 48bc c906 fcbb 2dbd 03bd
00000120: 3b1c 543c 7486 713c 23d5 00bb 241f 7c3c
00000130: e11e 6cbb c5bb 0cbd 9275 143c d590 8bbc
00000140: be71 76bc 3691 15bc 528a 123d 9037 e0bc
00000150: c881 a8bc bdbe 5a3c f53a 09bc d71b ba3c
00000160: 4f5d 3b3c 9ac8 f13c f33c d5bc f5de 223a
00000170: fdff 273d 04db 66bc c7c4 d83c e6db a8bb
00000180: 224b 1b3b 1bad c03c 40a8 15bc fba5 ff3c
00000190: 4bb0 903b 1856 12bd f60f c8bb 2b78 273c
000001a0: cf6c 0bbd 083a 9a3c 0471 073d 18e0 153d
000001b0: d8a7 a43c 2073 b63c f6b8 803c 5eb1 8b3c
000001c0: 1b09 12bc 7e57 28bd 3402 27bd d8d6 c13c
000001d0: cb13 333c b642 8c3c d64f a33b abf2 9238
000001e0: 2077 edbc 7b0e ea3c 6b95 0cbb 988f e13c
000001f0: 1318 293d fe39 073d ce45 1c3c ad4e 48bc
00000200: 2337 12bd 09f4 793c 59f4 36bd 43b9 1bbc
00000210: e467 723c ea9a aa3b 547e a4bb b403 e3bc
00000220: 20f4 f83b e61a 91bc 2c36 1dbd ffee 3abd
00000230: bae4 fabc 0b46 03bd 501a 0dbd 181d f93b
00000240: b348 13bd a472 033c 9cb1 17bd f802 a9bc
00000250: 874a 35bd 7a9a 09bd 4a56 b7bc 5757 a4bc
00000260: bf2b b8bc 7a38 293d d10d 8b3d 9f8c 523d
00000270: 8d60 e63c b20b 483d c8c9 63bc 1a4a 693b
00000280: 8cf9 4b3c 5af9 0abd 973b a43c 6cc4 683c
00000290: c946 7b3c aa59 113c 3818 8b3b 4f9e 78ba
000002a0: f923 143d 7930 09bd d41c 42bc c06b c73b
000002b0: cb35 b1bc c02a 47bb 1898 d8bc 3409 1ebd
000002c0: 8b43 97bc 4372 e4bc ab20 6ebc 4096 903c
000002d0: d229 91bd 94b2 9ebc 03dc 69bd 2d41 c5ba
000002e0: b64b e3bc 3bd0 16bd 63b3 9bbc e2da 34bc
000002f0: 83e9 a2bc 947e 98bd f812 843a 69a7 e4bc
00000300: 7bb3 0bbd 1406 89bd 136d 3bbc ed50 aa3b
00000310: fb86 34bd 0ed3 42bd 9d9f 0d3d 4eb7 91bb
00000320: 9f79 92bc d5aa c3bc d94f afbc 43be 9f3c
00000330: f0a0 623c 0dcd 37bc 658b ce3a 7d18 173d
00000340: 4b6f b03b f9b6 c6bc 1f6c 83bc 3c0b 9ebc
00000350: 8b11 f1bc 6390 13bd bd61 b63b cd01 f43c
00000360: 159b 99bd efbf 4bbd 1740 043c 9848 93ba
00000370: d8ed efbc 4d8e 8e3c 0fbe 6abd 3dad 75bd
00000380: 9543 2abc 7b4e 323c 774f 073d 6b05 76bb
00000390: 0eb4 fc3c 7bea efbc 4e43 193d b0bb 03bc
000003a0: e0e0 c93b ab35 083d 3e07 b9bc 5835 0fbc
000003b0: e592 01bd f063 76bb 773e e5bc 03fc 9e39
000003c0: 136f c53c 49b1 df3c c680 be3c 9600 e23c
000003d0: 1f5c 52bc d362 033c c9b1 e13c b9b5 1f3d
000003e0: 7737 83bc 3be5 163d 4e38 bc3c c8ca 83bc
000003f0: b3d2 ed3b d694 e7bc 8874 df3c 18a9 d6bc
-0.048265617 -0.031059165 -0.008723146 -0.011591959 0.008165928 -0.002009796 -0.037094645 -0.0005744308
-0.008864632 -0.018415052 0.03734088 -0.015981713 -0.041354116 -0.017176604 -0.03944763 0.038411506
0.0026605676 -0.040118556 0.037976082 0.0020859495 0.04003732 0.025447862 -0.006878483 -0.030820062
0.0019145531 -0.02743047 0.020690002 0.0070218686 -0.040154114 -0.044014253 -0.037110083 -0.014882338
0.01315655 -0.022297798 -0.007871435 -0.05584821 -0.040367104 -0.02430222 -0.021154827 0.0059229992
-0.018994506 -0.017434774 -0.03499349 -0.059669625 0.0076272613 -0.05046076 -0.013583418 -0.014575481
-0.025621532 -0.06798547 0.001668077 -0.009831067 -0.04613967 -0.044302836 -0.00791249 0.0040429085
0.015025374 -0.0563923 0.017540667 0.0019735128 -0.046105534 0.0074483845 -0.047577906 -0.0068381894
-0.061828498 -0.034993958 -0.0540797 0.0029386063 -0.07147557 -0.012227375 -0.0076912385 -0.032162834
0.012946184 0.014741529 -0.001965829 0.015388284 -0.0036029147 -0.03435876 0.009061234 -0.017036835
-0.015041767 -0.009128859 0.035776444 -0.027370244 -0.020569697 0.01335114 -0.008375873 0.022718353
0.011435821 0.0295146 -0.02603004 0.0006213033 0.041015614 -0.014090303 0.026461018 -0.005153167
0.0023695906 0.023520043 -0.009134352 0.031207075 0.004415547 -0.035726637 -0.0061054183 0.010221521
-0.034039315 0.0188265 0.033066764 0.036590666 0.020099565 0.022271693 0.015713196 0.017052349
-0.008913304 -0.041099064 -0.040773585 0.023662016 0.010930012 0.017121654 0.0049838824 7.007023e-05
-0.028987467 0.028571358 -0.0021451365 0.027534291 0.041282725 0.03301429 0.009538127 -0.012225789
-0.035697114 0.015255936 -0.04466662 -0.009504619 0.014795277 0.0052064555 -0.0050199423 -0.027711727
0.0075974613 -0.017713021 -0.03838174 -0.04563808 -0.030626643 -0.03204922 -0.03444892 0.007602345
-0.035958003 0.008022938 -0.037034616 -0.020631298 -0.044260528 -0.033594586 -0.022380013 -0.020061178
-0.022481797 0.041313626 0.06789745 0.051403638 0.02812221 0.04883928 -0.013903089 0.0035597146
0.012449633 -0.033929206 0.020047946 0.014206987 0.015336701 0.008871475 0.0042448305 -0.0009484039
0.03616712 -0.033493493 -0.0118476935 0.006085843 -0.021632096 -0.0030390471 -0.026439711 -0.038582996
-0.018464824 -0.027886515 -0.014534156 0.01764977 -0.07088055 -0.019372262 -0.057094585 -0.0015049331
-0.027746063 -0.036819678 -0.019006437 -0.011038514 -0.019886738 -0.07446018 0.0010076454 -0.027911859
-0.034106713 -0.066906124 -0.01143958 0.0051976354 -0.04407404 -0.04756456 0.034576047 -0.0044469004
-0.01788026 -0.02388517 -0.021400379 0.019499904 0.013832316 -0.0112183215 0.0015758096 0.03688859
0.005384361 -0.02425717 -0.016042767 -0.019292466 -0.02942731 -0.03602637 0.0055658505 0.029786015
-0.07500283 -0.04974359 0.008071921 -0.0011236845 -0.029288217 0.017401839 -0.05731016 -0.059979666
-0.010392089 0.010882969 0.033034768 -0.003753985 0.030847576 -0.029286614 0.037417702 -0.008040354
0.0061608404 0.033254307 -0.022586461 -0.0087407455 -0.03163423 -0.0037596188 -0.027983887 0.00030323872
0.024100816 0.027306216 0.023254763 0.02758817 -0.012839346 0.008019167 0.027550595 0.038991664
-0.016017659 0.036839705 0.022976067 -0.016087905 0.0072577833 -0.028269213 0.027277246 -0.026203677

cnn.6.bias f4 [64]
00000000: cec0 edbc 18cc 96bc 8ba7 fbbd 044b 2e3a
00000010: d667 11bd c687 6c3c f144 46bd 4ffe e83c
00000020: 8954 a3bc cb49 8a3c 7f48 0dbd 0f3f d73d
00000030: d8c6 0cbd b68d b33b 4b5c fc3c 54e5 8b3d
00000040: 5e3d 123c 55f6 9abc ed68 41bd 3bf3 dcbc
00000050: 4901 22bd 7a1d bfbd 7042 293c ea65 71bc
00000060: d099 ee3c 3d8c fdbc 9ebb dc3c 6d7b 49bd
00000070: 2640 ac3c 4239 ceba c3c0 25bd b16b 13bd
00000080: f036 823c a7a6 35bc d261 24bc 2d9a 2dbd
00000090: 96f4 e53a c10b 15bd 17a4 79bc de65 c2bc
000000a0: 3fa1 1e3c b0f9 f9bb 5b10 1fbd 3114 56bd
000000b0: bf15 22bd 5d8c fcbd 0fc8 b43c 60b7 2cbd
000000c0: f200 5fbb 96e7 ddbb 616f 14be fe47 81bd
000000d0: 38dc 3abe 5c8c 39be 7949 253c 92bc 11be
000000e0: c471 283d 46c6 79bc 5944 153d d986 28bd
000000f0: ff0e b2bb ef0a ee3b c607 ad3c 7d93 243e
-0.0290226 -0.018407866 -0.12287816 0.00066487514 -0.035499416 0.014436668 -0.04840559 0.028441576
-0.01993777 0.01688089 -0.034492966 0.10510074 -0.03436932 0.0054795397 0.030805727 0.0683085
0.008925764 -0.018916288 -0.047219206 -0.02697145 -0.039552007 -0.09331794 0.010330781 -0.014733771
0.029126078 -0.03095066 0.026944932 -0.049189974 0.021026682 -0.0015733617 -0.040467035 -0.035991374
0.015895337 -0.011087096 -0.010033088 -0.04238336 0.0017544206 -0.036388163 -0.015236876 -0.023730215
0.009681999 -0.007628642 -0.038833957 -0.05226535 -0.03957152 -0.1233146 0.022068052 -0.042167068
-0.0034027663 -0.006771992 -0.14495613 -0.063125595 -0.1824807 -0.18119949 0.010088318 -0.1423209
0.04112412 -0.015245026 0.036442135 -0.041144226 -0.0054339166 0.007264487 0.02112187 0.16071887

cnn.8.weight f4 [64, 64, 2, 2]
00000000: 1c43 813d d05e ac3c cf43 4c3d a8e6 8fba
00000010: 2fb0 bd3d 4cd7 973c 7e05 1c3d 91bf df3b
00000020: 35e2 7c3b a8f4 d1bd cb21 223c 603a 893c
00000030: 5d84 7bbd bf9f 47bd 9aad 613c 3183 b83c
00000040: f881 75bd cbcf dc3c a678 bebc 3cc7 643c
00000050: a7f1 99bd e9f2 083e 7a15 0d3d df1b c7bd
00000060: f12f 5cbd 7386 703d ed93 67bd ad98 413d
00000070: 05d2 89bb bf16 95bc ced6 203d 3748 6f3c
00000080: bf2a 333d 13de 093a fe3d 47bd 03a8 403d
00000090: a5ee 9f3c f709 2f3d 0273 1d3b d2bd 87bd
000000a0: 3021 ffbc 06c3 d4bb 7255 1ebd a080 1fbd
000000b0: 6e26 833c 013d dd3a ed97 1ebd bb70 0f3e
000000c0: f9e1 2fbd 4840 87bc 3cc4 363c ed84 c5bc
000000d0: 5fe5 5cbd 44b3 cfbc 95f5 513c b2c6 3fbd
000000e0: 88ee 2bbd e3e8 973c 9714 72bc 2229 2bbd
000000f0: f5cf 47bc 1cc4 0b3e 0661 a8bd ebe6 84bd
00000100: cfde 023d 2f5e 523c 2376 d9bc d5ec d33c
00000110: b869 fcbc 57b2 97bc 796a 4dbd fcd6 833d
00000120: 1309 cebc fcc6 b83b 7ec2 37bc 33d1 ebbc
00000130: a530 d2bb 5283 1a3d 2c79 893d a065 75bd
00000140: 5058 1f3d 2842 0f3d ea5c 5cbc 7d58 f23c
00000150: ef77 543d ba07 90bc 06a2 e33c ef34 673b
00000160: c1e5 19bd 192d a2bb 3be7 75bd 5c6f 563c
00000170: da2e 01bd 688c 483d cab7 993d 1f96 9a3d
00000180: 39c4 2e3b ce63 1fbc 23cb db3c a325 54bd
00000190: 57eb 0d3d 08e5 993a 5d2c 5a3c 29d8 053c
000001a0: 0e84 0cbd fb93 053c 27b4 1abd 74e0 493d
000001b0: 2f1b 253d 96f3 1dbd deef c83c 946d 1fbd
000001c0: 124f 76bd 376e be3c 6e68 86bd f0cc cc3c
000001d0: 1bc0 b7bd 850e ef3a ea68 a03c 8bad 8d3c
000001e0: e197 453d f6cb 473d d789 973a a67c 7ebd
000001f0: ca08 1dbd 9878 f0bb ecab 323d 765e 0a3d
00000200: ecc3 0f3d ec09 2c3d c73b b23c 89c8 61bd
00000210: 1b2c 8a3c 18ca 863c b1d1 bb3c c5a1 a63c
00000220: 77cb e53d 0050 23bd b3aa 87bd 4565 283d
00000230: 036e 4e3d 4912 a23d cb25 463d 9497 e639
00000240: fd36 4e3d 2cc6 8a3c 5817 29bc 8558 a3bc
00000250: a9c0 c43c e968 3f3d 49a3 453d af71 163d
00000260: de6e 01bd 6dd8 093e ae8b 6f3d 854c f5bd
00000270: 240d 7a3c 2f37 d3bc 183d 6dbd 8ff2 763d
00000280: 0067 11bd 8f6a 49bd 6e60 c73c c521 cfbc
00000290: 7a76 57bd 35b3 423c 9f6b d83c 3570 bb3b
000002a0: cd00 9c3c 6497 a83c 986b 70bc 5050 f6bc
000002b0: db52 7abc a1b2 12bc 2ea0 8e3d b717 fe3c
000002c0: 71ca 57bd 4e94 4cbd be8e b2bc 8350 33bd
000002d0: 0a1f db3c 2945 c9bc 4f7a f8bd cc39 da3b
000002e0: f0dd 6abd 84c1 c73d 69c9 0ebd a26f 903c
000002f0: dde4 cb3b ca3d 023d 73a0 cebd a998 713d
00000300: 80bd 8f3b 0762 613c 2604 083d 40ca 2bbd
00000310: e9ef 9bbc 8dc7 3a3d a736 7dbb 2b0e 48bc
00000320: 6351 743d 1618 11bd 7386 48bc 4f53 0d3d
00000330: a3e2 543d 2eab b8bd cd24 02be 2af0 fabd
00000340: dc78 013e 2129 99bd 40c8 d5bd aa93 683b
00000350: 781a ae3c f3c8 3a3c f4e8 53bd db97 2d3d
00000360: 7927 a9bb cfc6 5bbc 1788 5a3d 339a 1bbc
00000370: 06b7 b6bd 2db0 923d 45bc 983d d718 83bd
00000380: bc59 c2bd 75ae d7bc d112 b53d 877e fb3c
00000390: b7ed bc3b 4122 be3a 8f99 c13c 333a 633d
000003a0: 26a5 7bbd f601 ee3c 2e2d 76bd 7b10 a73d
000003b0: fe60 7bbc 13d8 d13c 3f81 9039 9db2 8ebd
000003c0: 7c0c 2abc 1df9 27bd 0c98 babd 69c7 5b3d
000003d0: 1bd7 6bba 6609 1abd 6331 82bb 9a7e 83bd
000003e0: c985 103c 271b 183d 9acc 02bb fad7 5cbd
000003f0: 6c3b bdbd ac0d b7bd b922 71bc f5ff 0d3e
0.06311628 0.021041304 0.049869355 -0.0010978775 0.0926212 0.018535279 0.038091175 0.0068282564
0.0038586978 -0.102517426 0.009895752 0.016751468 -0.06140553 -0.04873633 0.0137743 0.022523494
-0.0599384 0.026954552 -0.023250889 0.013963517 -0.07516795 0.13373913 0.03444431 -0.09722113
-0.053756658 0.05872197 -0.056537557 0.047264744 -0.0042059445 -0.018199323 0.039267354 0.01460462
0.043741938 0.0005259227 -0.048643105 0.04703523 0.019522974 0.042734113 0.0024024849 -0.06628002
-0.031143755 -0.006492975 -0.038655706 -0.038941026 0.016009536 0.0016879142 -0.038719106 0.14007847
-0.042940114 -0.016510144 0.011155184 -0.024111236 -0.053929683 -0.025354035 0.012814899 -0.04682035
-0.041975528 0.018543666 -0.014775417 -0.041787274 -0.012195577 0.13649029 -0.08221631 -0.064893566
0.031950768 0.012839838 -0.02654559 0.025869766 -0.03081213 -0.018517656 -0.05015037 0.064374894
-0.025150811 0.005638955 -0.011215804 -0.028786277 -0.0064144903 0.037722893 0.06712565 -0.05991137
0.03890258 0.0349752 -0.013449887 0.02958321 0.05187219 -0.01758181 0.02778722 0.0035279354
-0.037572626 -0.0049492237 -0.06003497 0.013088074 -0.03153882 0.048962027 0.07505758 0.075481646
0.002666725 -0.009728385 0.026830262 -0.051793706 0.034648266 0.001174123 0.013316241 0.008169212
-0.034305625 0.008152957 -0.037769463 0.04928632 0.040309127 -0.03856238 0.02452844 -0.03892286
-0.060134 0.023245914 -0.06562887 0.025000066 -0.08972188 0.001823858 0.019581277 0.017294666
0.048240546 0.048778497 0.0011561465 -0.062130593 -0.03833846 -0.0073385946 0.04362099 0.03378149
0.035098955 0.04200165 0.02175702 -0.055122886 0.016866734 0.016453788 0.022927137 0.02034081
0.112204485 -0.039871216 -0.06624355 0.041112203 0.050397884 0.07913644 0.048375886 0.00043981953
0.05034541 0.016940199 -0.010320507 -0.01993967 0.024017649 0.04673091 0.048251424 0.03672951
-0.03159987 0.13461466 0.05848282 -0.119774856 0.015261922 -0.02578315 -0.05791959 0.060289916
-0.03549862 -0.049173888 0.024337973 -0.025284657 -0.052603222 0.011883547 0.026418505 0.005720163
0.01904335 0.020580001 -0.01467409 -0.030067593 -0.015278543 -0.008953721 0.069641456 0.031017167
-0.052683298 -0.049946122 -0.02179658 -0.043777954 0.026748199 -0.024569111 -0.121327035 0.006659722
-0.057340562 0.09753707 -0.03486005 0.017631356 0.006222351 0.031797208 -0.10089197 0.05898348
0.004386604 0.013756282 0.03320708 -0.041940928 -0.019035297 0.045600463 -0.0038637312 -0.012210409
0.05964793 -0.03542336 -0.012239086 0.034503277 0.05197395 -0.09017025 -0.12709351 -0.12252839
0.1264376 -0.07478548 -0.10438585 0.0035488405 0.021252856 0.011400449 -0.051735833 0.04238115
-0.005162176 -0.013414099 0.05335244 -0.009497213 -0.08921628 0.07162509 0.074577846 -0.06401222
-0.09489772 -0.026328305 0.088414796 0.030699981 0.0057656425 0.0014506058 0.023632793 0.055475425
-0.061436795 0.02905367 -0.06010168 0.0815744 -0.015342949 0.025615728 0.00027562116 -0.069676615
-0.010378953 -0.041009057 -0.09111032 0.05365697 -0.0008996592 -0.03760662 -0.0039731725 -0.06420632
0.008820959 0.03713527 -0.0019958378 -0.05391691 -0.092398494 -0.089381546 -0.014717751 0.13867171

cnn.8.bias f4 [64]
00000000: 78ab 903d 9929 8cbd a44f 74be 407d 9b3d
00000010: c4c3 73bd ae9c 2c3d ab06 3abe ffef dbbd
00000020: 322e 2a3c e845 8a3e 71ad 283e 04cd b4bc
00000030: c6a1 4abe dfeb 01be cadf 89bd c0b1 ecbd
00000040: a7a4 743e 5a84 40be a494 1cbe 870f 3fbd
00000050: b15d bbbd 08f3 e6bc db50 4bbe e2ab 483e
00000060: 2178 d73b 83f5 a3bd d5e4 4b3e b3c3 863d
00000070: 718b d73d 3826 6cbe 389e 533e 169f 90bd
00000080: 4b6b 2d3e d457 20be 9d1d de3c 9428 903e
00000090: d251 9cbd ef9b 863d f407 14be 2994 31bd
000000a0: 1801 79be 477b 553e f73d 8d3d 785d 433e
000000b0: 197c 1c3e 85d5 07be 18f9 f33d 2bd8 47bd
000000c0: 8954 52be 9dd8 2cbe e79e 453e 35ca 8f3e
000000d0: 7a57 9fbd 74b4 f93d a595 97be 8ab7 523e
000000e0: 2c45 cd3d 0378 9abe af56 293d a62c 61be
000000f0: 4488 543e 292c b8bd d045 56be 96a5 ec3d
0.07063955 -0.068438716 -0.23858505 0.07592249 -0.05951287 0.04214161 -0.18166606 -0.10739135
0.01038699 0.2700646 0.16472413 -0.022070415 -0.19788274 -0.12687634 -0.067321375 -0.115573406
0.23890935 -0.18800488 -0.15291077 -0.046645667 -0.091487296 -0.028192058 -0.19855063 0.19596818
0.0065756 -0.08005812 0.19911511 0.065802954 0.10524643 -0.23061454 0.20665824 -0.07061593
0.1693546 -0.15658504 0.02711373 0.2815596 -0.076327935 0.06572711 -0.14456159 -0.043354187
-0.24316823 0.20847808 0.068965845 0.19078624 0.15281714 -0.13265045 0.11912745 -0.04879014
-0.2054006 -0.16879506 0.19298898 0.2808396 -0.07780357 0.12192622 -0.29606357 0.20577827
0.10022959 -0.30169687 0.041342434 -0.21989688 0.20755106 -0.08992798 -0.20925069 0.115550205
